reports/CartPole/cartpole_nn_ppo/001/policy.pt (torch, 409090 bytes, 18 tensors)

network.0.weight f4 [128, 5]
00000000: b04e b7be 7df4 ddbd 074c 903e 3b1a 683e
00000010: f733 983e 7c93 153e 30b3 be3e 687a fb3d
00000020: 8b4c de3e 4353 fb3c d2e8 adbe 9358 66be
00000030: bdac 153e cdf5 453e e384 f43d 5748 f73e
00000040: 4553 c0bd 5d6e 07bf a1cd aebe c79f c83e
00000050: 42b3 8ebe 7089 77be 9ab0 27be 8953 f53e
00000060: 755f e53d b954 033d 775f 733e 2415 99bd
00000070: 67fb f3be f37c aa3e e711 a1be 3055 90be
00000080: 20fe 98be aa8a 54be 6267 a13e c3c7 f0be
00000090: b784 323d edf0 be3e 89c4 6b3d 99f1 c2be
000000a0: 19c6 493e 5d03 ae3c e94d 443e 6862 4b3e
000000b0: 8ed9 113e 5792 41be a75e c33e 83a2 c1bd
000000c0: 0f33 d4be 425c d5be f0a2 e73e 31b1 69be
000000d0: a375 5bbe fbb3 38bd e642 2ebe 13bd b33d
000000e0: c002 5c3e 6b47 d63e 111e cbbd e6cc 71be
000000f0: 220c 9abe ae9f dd3e 3fd2 913e 0669 afbe
00000100: 9fad 71bc b876 0a3e f280 0d3e 39f3 c7be
00000110: 5957 6bbe 19a8 f13d b749 d03e 3ef9 213e
00000120: f269 9d3e 76b3 a3be e3eb d2be 1323 3ebe
00000130: ef47 dc3e e1b6 0cbe 42e4 4ebe 7f65 b4bd
00000140: 6a08 6ebe 0716 e7bc 0f0c d53d 428a d63e
00000150: 94ec 1dbe 45d5 3abe 195c c43d d1f6 99bb
00000160: f049 0abf edf4 7ebe e776 083f 6154 243e
00000170: 8f6c 843e e88c d43e 2a61 9fbd 58b4 a83e
00000180: 4674 36bd acad afbe 8530 ce3e acf3 7ebe
00000190: 3bb8 7d3e 5399 8cbe ef67 6f3e f9a3 9b3e
000001a0: 9852 5dbe 58f0 20be d0c2 d03e f9c8 1b3e
000001b0: d302 cfbe f356 adbe 88cc 893d 1872 6e3e
000001c0: de6b a1bd 0363 acbe 9f7d 8dbe 6de4 d8be
000001d0: a130 9fbe f7c9 e0bd 18dc a83c 909a 063e
000001e0: 46c8 383e 737e a3be 6fb3 02bf 7b80 26be
000001f0: 5992 0bbe 6b1f c73e 07a9 b2be f11b aabd
00000200: 133e 0cbe 2b4a c83e 5b8f debe ac57 863d
00000210: 485b 4fbe 5816 18be e85b 15be 035c ee3e
00000220: cd4d 87bd f01b 8bb7 95fb ad3e bea4 953d
00000230: 0141 01bf da69 5dbe 7649 a2be 8931 c63a
00000240: 1268 94be 24ad cf3e f568 bf3e 70f2 2a3e
00000250: 0658 743e 39d7 163e 89dd f73e f7b8 f23e
00000260: 5c58 e7bc e8ab 913e 0b69 d83e ab9f d53e
00000270: 2b70 05bd 84a4 f7bd 9d0f 453e a824 9e3d
00000280: ef22 9b3e 23c0 56bc 78e0 09bf 334b 0cbb
00000290: c6c9 f7bd 50d0 bdbb f42e a0be 1edc ac3e
000002a0: eefa 973e 841d f4bd 5c5d 81be 1a2a 863e
000002b0: 0d0b f5be ac32 98be aff5 d5be 5673 c03e
000002c0: 63dc b2be 41af fe3e 4f86 2d3e f0b1 6a3e
000002d0: 19f2 50bd 2dd4 693d d654 9ebe e502 77be
000002e0: 321a 7fbe 7d5f 04bf 0466 a5be 90cf f1be
000002f0: f191 aabe 77d3 a0bd 10c7 b33e 28b2 de3e
00000300: 7620 b83e 5bd4 d6be e846 53be 1d73 d1bd
00000310: fae1 443e 6681 143e 01d9 99bd 23f8 853e
00000320: b162 ddbe 465b 54bd c714 31bc 5c0d edbe
00000330: 82ab b63e 6527 9b3e 757f 953e 296b e53e
00000340: c26f 85be fc54 763e 4201 64be 0c03 7fbe
00000350: 1979 43be ffe9 873e 49c4 c23e df8f 4b3e
00000360: f266 3bbe c104 f93e 0cbe ec3e 5abc 5f3e
00000370: 6a16 26be cda9 a0be fa67 9cbe 9d76 dbbe
00000380: 23dd 3a3a 7cf5 043f 20b2 633e aef0 523e
00000390: 1575 cc3e fc64 95be b8c0 c53d 645f a53e
000003a0: c978 bbbd 1836 8e3e 2a21 01be 86d1 1cbe
000003b0: 04d1 c53e 1030 b6bd 1451 06bf 522e 60bd
000003c0: 3597 3a3e 016b 913e 677c ecbe 9dfd 623e
000003d0: 6274 9b3e 7051 aebd be29 203e 98c0 0dbe
000003e0: e003 e7be a118 41be 3769 d9be 7377 34be
000003f0: c4f1 c03d 6d9b 06be 20b0 f63a dc85 ca3e
-0.3580222 -0.10837648 0.28183004 0.22666256 0.29727146 0.14607042 0.37246084 0.122792065
0.43417773 0.03067935 -0.3396669 -0.22494726 0.14616676 0.19332047 0.11939409 0.48297378
-0.093908824 -0.52902776 -0.34141257 0.391844 -0.27871138 -0.24173522 -0.16375962 0.47915295
0.111998476 0.03206322 0.23766886 -0.074747354 -0.47652742 0.33298454 -0.3145897 -0.28189993
-0.29881382 -0.20756021 0.31524187 -0.47027406 0.043583598 0.37293187 0.057560477 -0.3807495
0.19704475 0.021241838 0.19170345 0.19861758 0.14243147 -0.1890348 0.38158152 -0.09454825
-0.41445205 -0.4167195 0.452415 -0.228215 -0.21431594 -0.045093518 -0.17017707 0.087762974
0.21485424 0.41851363 -0.09917844 -0.23613319 -0.30087382 0.43285888 0.28480718 -0.34259814
-0.014750867 0.1352185 0.1381872 -0.39052752 -0.22982539 0.1179964 0.4068124 0.15817735
0.30744892 -0.31972855 -0.41195592 -0.18568067 0.4302363 -0.13741638 -0.20204261 -0.08808421
-0.23245397 -0.028208746 0.104026906 0.41902357 -0.15422279 -0.18245418 0.09587879 -0.0046986123
-0.5401907 -0.2489812 0.5330643 0.16047813 0.25864074 0.41513753 -0.077822044 0.3295009
-0.04454448 -0.3431219 0.40271392 -0.24897641 0.2477731 -0.27460727 0.23379491 0.3039854
-0.21613538 -0.15716684 0.4077363 0.15213384 -0.40431842 -0.338554 0.06728464 0.23285711
-0.07881902 -0.3366929 -0.27634904 -0.42361775 -0.31091788 -0.10976022 0.020612761 0.13144898
0.18045148 -0.3193241 -0.51055044 -0.16259949 -0.13630046 0.38891158 -0.34894583 -0.08306111
-0.13695554 0.39119086 -0.43468747 0.06559691 -0.20249665 -0.14852273 -0.1458584 0.46554574
-0.06606636 -1.65831e-05 0.33981004 0.07306813 -0.50489813 -0.2162241 -0.3169667 0.0015120964
-0.2898565 0.40561783 0.37384763 0.16694045 0.23861703 0.14730538 0.48411205 0.47406742
-0.028240375 0.28451467 0.4226764 0.4172338 -0.032577675 -0.12091926 0.19244237 0.077218354
0.3030009 -0.013107332 -0.5385814 -0.0021407127 -0.12099032 -0.005792655 -0.31285822 0.33761686
0.29683632 -0.11919692 -0.2526654 0.26203996 -0.47859994 -0.2972616 -0.41789004 0.37587994
-0.34933767 0.49743083 0.16945766 0.2291944 -0.051012132 0.057087112 -0.309241 -0.24122198
-0.24912336 -0.51708204 -0.32304394 -0.4722867 -0.3331447 -0.07852834 0.3511281 0.43495297
0.35962266 -0.4195889 -0.20632517 -0.10227034 0.19226828 0.14502487 -0.07512093 0.26165876
-0.43239358 -0.051844858 -0.010808176 -0.46299255 0.35677725 0.30303493 0.29198804 0.4480832
-0.26061827 0.24055856 -0.22266105 -0.24903506 -0.19089164 0.26545712 0.3804038 0.19879101
-0.1830099 0.4863644 0.46238744 0.21849194 -0.16219488 -0.31379548 -0.30548078 -0.42863932
0.0007128289 0.5193708 0.22235918 0.20599625 0.39933077 -0.29178607 0.09655899 0.3229934
-0.09153897 0.27775645 -0.12610307 -0.15314302 0.3863603 -0.08895886 -0.52467465 -0.054731674
0.18221743 0.2840195 -0.4618866 0.22167058 0.3036223 -0.08511627 0.15640923 -0.13843
-0.45120144 -0.18857051 -0.42463085 -0.17623691 0.09421113 -0.13145228 0.00188208 0.39555252

network.0.bias f4 [128]
00000000: 41d3 babd da91 d53e de54 5fbe 98f9 65be
00000010: 3846 693c 9ea8 633d dce6 533e a152 a53e
00000020: ae4e b63e d52f aa3d cf83 ec3d 688e 853e
00000030: 2d40 f33d a571 e03d 5d34 6c3e 4d33 bc3e
00000040: 471b 513e d719 a9be ba3e 57be e5b6 653e
00000050: 8e94 e1be bd27 58bc b3fc 15bd 7350 e33e
00000060: db96 ae3e 63b9 a0be bca6 a3be cdfc 8f3e
00000070: 4f50 b23d ed31 a43e 673f 373e 2319 603e
00000080: b410 2dbe fed7 413e bc47 863e 53af 893d
00000090: 3487 dbbe 92af 013e 2fe1 8a3e 19a3 bcbe
000000a0: 2bdc dabe 5ef1 d43e 7a2e adbe f08b 943d
000000b0: f5fa d33e 939a 2a3e 767c 96be 0f4e 313e
000000c0: 42f2 b7be 4845 2cbe 3d6d 86be 4c92 053d
000000d0: def9 c23e 3625 5bbc d9b3 ffbd 2a3f b23e
000000e0: c68b 1cbe 455f 5abe bd6d 933e 4580 193e
000000f0: 3520 8e3d 85e8 793d 317d d73e bc82 433e
00000100: 9e12 eabe 8245 b43e 54da 9dbe 3cec 293e
00000110: 8a6e ddbe 4ea5 8f3e 52db 913d 4473 7b3d
00000120: 4083 1c3e de8c 5a3e 9708 4dbb 068b a73d
00000130: 3138 e93e 4c8c 5abd 5015 3b3e 5e7b 49be
00000140: 6f8a 603c 3fa6 193e 8637 bf3e c5f6 dabe
00000150: 0a1f d63e e3a4 31be ce3c e23d 91a8 6cbb
00000160: c8b5 af3c 38fa 26be 7dfb ad3e 3ab8 43be
00000170: 1d02 d5be 4235 2c3e b76a 3cbd 02b4 92be
00000180: 6390 013d de0b 4cbe db26 3fbe 36c3 fdbd
00000190: 177e e53e 0d93 8e3e 70f7 e63e 126f 2d3e
000001a0: e057 c0be 4fd5 953c 5312 79be cd38 dc3d
000001b0: f90d 9abe cccb 6a3e 9d59 733e cddd 6d3e
000001c0: 5d6c 023c 7f0e 6e3e 73ea dcbd 9b46 f1be
000001d0: d1be d2be 83a8 1c3e 693c bfbd f75b ccbe
000001e0: 2563 9e3e b41d da3d c33b be3e cc40 e2bc
000001f0: 595c e6be 3549 2ebe b13f 823e 938f 143c
-0.09122325 0.41712838 -0.21809718 -0.22458494 0.014237933 0.055580728 0.20693535 0.32289603
0.35606903 0.083099045 0.11548578 0.2608521 0.11877475 0.10959176 0.2306685 0.3675789
0.20420562 -0.33027527 -0.21020022 0.2243305 -0.4405865 -0.013193068 -0.036617946 0.44397315
0.3409947 -0.3139144 -0.31963146 0.2812256 0.08706724 0.3206934 0.1789528 0.21884589
-0.16900903 0.1893005 0.26226604 0.067228936 -0.4287659 0.12664631 0.27124926 -0.36843184
-0.427461 0.415904 -0.3382452 0.072532535 0.41402403 0.16660528 -0.2939183 0.17314933
-0.35927016 -0.16823304 -0.26255217 0.032610223 0.3808126 -0.013375571 -0.12485475 0.34813815
-0.15287694 -0.21325405 0.2879466 0.14990337 0.06939737 0.061012764 0.420877 0.1909284
-0.4571733 0.3520928 -0.30830634 0.16594023 -0.43248397 0.28055805 0.0712191 0.061389223
0.15284443 0.21342799 -0.0031285638 0.081808135 0.45550683 -0.053356454 0.18269849 -0.19675967
0.01370488 0.15004824 0.3734705 -0.42766395 0.41820556 -0.17348056 0.11046754 -0.0036111216
0.021448985 -0.16306388 0.33980933 -0.19113246 -0.41603175 0.16817191 -0.04600021 -0.2865296
0.03163184 -0.19926402 -0.18667166 -0.12390749 0.4482276 0.27846566 0.45110655 0.16936901
-0.37567043 0.01829019 -0.24323396 0.107530214 -0.30088785 0.22929305 0.23764654 0.23229142
0.007960406 0.23247717 -0.10786905 -0.4712418 -0.41161206 0.15298657 -0.09337694 -0.39913914
0.30935016 0.10650197 0.3715497 -0.027618788 -0.4499233 -0.17020114 0.25439218 0.009067434

network.2.weight f4 [128, 128]
00000000: 4953 a83d 30f7 70bd bac7 c93d 759f 253d
00000010: 3cf5 2f3d c059 773c bb2e cfbc 03a2 503d
00000020: 752b b03c a1fc 003d e273 a2bd 2170 943d
00000030: 8e71 153d eb78 413d db78 ddbd 1cc2 cf3d
00000040: de4b 8fbb 3360 5abd 6e81 d33c 46e4 893c
00000050: 71bd a7bd 5d0b f03c 4bf4 253d 9e88 493d
00000060: 3ef5 203d af75 db3c 277e 423d 56cb 8abd
00000070: 8f69 d4bc 8ee0 4a3d 08bc 5ebc a2d5 b0bb
00000080: 12c3 203d affd 863d 7ea8 bd3c 7a66 a4bc
00000090: 7f12 40bd 5424 a8bc 83d3 2f3c 7ddc 713d
000000a0: 72a4 2a3d 1cb2 08bd 02ed efbc b99f a23d
000000b0: 1c8b c93c 3a43 533d 684d 273b cbb1 c83c
000000c0: e031 763d e6d0 6abd 047e ac3d 33a6 b9bd
000000d0: 52db 35bd 2f1b 40bd 9691 8bbc 55b5 0239
000000e0: d10f 853d 61c6 8fbb b117 2a3d 501f 723d
000000f0: e751 8f3d 538d 1cbe 8d79 a9bd ba76 b83b
00000100: 871f ccbd 6948 653c 024b de3c b58d 643d
00000110: 85e2 10bd 3be5 563d f489 d93c 8324 023b
00000120: f515 313b 48cf 2c3c eb16 70bd 061b e2bc
00000130: f991 99bc a582 61bc 6f2f 92bd 5bcc 43bd
00000140: e4e2 5c3d 7abb 95bd 4e9d 8fbd fe47 2cbc
00000150: 4acb a8bd f071 debb 4c3b a2bd fda6 a9bd
00000160: 07e0 75bd 2883 a5bc ba71 213d 1e6e a3bd
00000170: d7a3 94bd 4b58 00bd ebbb 6cbd 08d1 4d3d
00000180: f04f 7a3d b421 48bc b27a 1c3b 45d7 62bd
00000190: 1a60 cfbd 0720 1ebb 16e6 c23d 6123 6abd
000001a0: 4448 93bd 2c48 5c3c 190f 933d 105f a03d
000001b0: 370d 8ebc 11c9 903b 0555 613c 1181 903d
000001c0: 4229 a1bd 1e5a c6bc e8ad 5abb 0521 90bd
000001d0: cc11 1dbd e98a b4bd 6607 b03d 6a2b 95bd
000001e0: 7775 103d 34d4 9c3d 09cb 453c 33b9 b0bc
000001f0: ccc2 893c 7405 a0bd 7e25 0a3d 370e 613d
00000200: f2cf 9dbd e3a5 97bc 0308 8abd 5093 d43c
00000210: 7eee fcbc ccd9 d83c 249c 8e3c 254c fe3c
00000220: d5d2 8e3d 6b76 fc3b b765 95bd 75d9 873c
00000230: e760 84bd ef20 43bd 6032 b03c 9f2b 763d
00000240: c67e 703c ba63 bdbd 965e b83d f704 febc
00000250: b61f 73bd ebed 5bbc 2946 633d 81fc 82bd
00000260: a05b 733d b573 4c3c 6b42 b9bd 2380 c63d
00000270: de90 67bd 989c 84bd ffe3 323c fec5 d73d
00000280: 1e02 75be a29c f83c be95 91bd ab3f 19bd
00000290: 52d2 e0bd cd9d 0ebe bb37 6e3d 6175 02bd
000002a0: c2c8 9abd 3afa 97bd db56 3f3d 93e8 c73d
000002b0: b9e4 67bd f8f7 293d 2bd9 a13d 7e98 d1bd
000002c0: dedc 3d3c 8a60 9ebd dcb6 133c 7abd a3bd
000002d0: 7e53 98bd 8234 b1bd 2f65 2ebd 3ff4 713d
000002e0: 218c fbbc 804f 03bc 7b7e 053b 0e03 413c
000002f0: c664 b33d 41f0 823d ba94 a2bd b375 a43d
00000300: dafd e5bc 6a80 12bd 5355 d1bd 70a4 74bd
00000310: eea8 0cbd f828 cebc 26d4 d13d e369 fdbd
00000320: dfc8 50bc 85be b3bd fde9 febb 31aa c03c
00000330: 58a9 a5bc 4693 c1bd 0a54 923c 71ad a7bd
00000340: 4e76 7ebd 6ce2 fa3d dc8f 3abd f0d0 26bd
00000350: da42 9f3d 3e33 f33d 32cd a1be 411b 16be
00000360: f94c 86bc 83fa 1fbd 4628 6ebd f88e 8d3c
00000370: 1757 77bd 82ad 343d 2ad5 ed3d f84e b03d
00000380: 88b8 4fbd 03f0 0ebd 5cd7 c03c e54e a03c
00000390: f5be 0b3d b5d1 07bd 99a1 333d 6d9f 203c
000003a0: 367d 9fbd 4e2b f53c 9625 313d dc92 3c3d
000003b0: 91d8 f43d b3bc 833b 8780 a5bd 72f3 2c3d
000003c0: 99ed 80bc ceba 4039 a17e b93d 11fb 2bbe
000003d0: 9801 0ebe 8ee6 d93d e2b1 2c3d e8bb 573d
000003e0: e6ea 953d a3c0 15bc 2f57 f0ba ccb7 843c
000003f0: bb46 8dbd 7cf5 8f3d 4d05 3b3b eb1a 92be
0.082190104 -0.058829486 0.09852548 0.040435273 0.042958483 0.015097082 -0.025290838 0.050935756
0.021505097 0.031490926 -0.07932259 0.072479494 0.036485247 0.047234457 -0.10814067 0.10144445
-0.0043730577 -0.0533144 0.025818553 0.016832482 -0.0819043 0.029302293 0.04051618 0.049202554
0.03929638 0.026789514 0.04748359 -0.067770645 -0.02592924 0.04953056 -0.013594635 -0.0053965608
0.039248534 0.06591355 0.023151632 -0.020068396 -0.04689264 -0.020525135 0.010731581 0.059048165
0.041660734 -0.033372983 -0.029287819 0.07940621 0.024602465 0.051577784 0.0025528315 0.02449884
0.06010616 -0.057328127 0.08422473 -0.09064903 -0.044398613 -0.046900924 -0.017037194 0.00012465318
0.06497157 -0.0043876623 0.0415265 0.059111893 0.069980435 -0.15288286 -0.08275137 0.0056293877
-0.09966951 0.013994315 0.027135376 0.055799205 -0.035372276 0.052464705 0.026555039 0.0019858188
0.0027021144 0.010547467 -0.058615606 -0.027600776 -0.018746363 -0.013764058 -0.071379535 -0.04780231
0.053927317 -0.07311149 -0.07012425 -0.010515211 -0.08241899 -0.0067884848 -0.07921466 -0.082838036
-0.060028102 -0.020204142 0.0394151 -0.079799876 -0.072578125 -0.031334203 -0.0577964 0.050248176
0.06111139 -0.012215067 0.0023876843 -0.05538108 -0.10125752 -0.0024127977 0.09516542 -0.057162646
-0.07191518 0.0134449415 0.07180614 0.07830632 -0.017340286 0.0044185002 0.01375318 0.070558675
-0.078691974 -0.024212893 -0.0033367816 -0.07037548 -0.03834705 -0.088155575 0.08595161 -0.07283671
0.035268273 0.07657662 0.012072333 -0.021572685 0.01681652 -0.0781354 0.03372716 0.054945197
-0.07705678 -0.018511718 -0.06739809 0.02594915 -0.03087544 0.026471041 0.017408438 0.031042168
0.06973807 0.007704546 -0.07294791 0.016583184 -0.06463795 -0.04763883 0.021508396 0.060100194
0.014678663 -0.09247537 0.09002416 -0.031008227 -0.059356414 -0.013423423 0.05548683 -0.063958175
0.059413552 0.012478759 -0.09045871 0.09692409 -0.05653464 -0.064751804 0.010918616 0.10535811
-0.23926589 0.030348126 -0.07108639 -0.037414234 -0.109776154 -0.13927384 0.058158617 -0.031850222
-0.07557823 -0.07420774 0.04671369 0.09761157 -0.05661461 0.041496247 0.0790275 -0.10234164
0.011588303 -0.07733257 0.009015765 -0.07995124 -0.074378 -0.08652593 -0.042576965 0.05907082
-0.030706467 -0.00801456 0.0020369578 0.011780513 0.087594554 0.06393481 -0.079385236 0.08030262
-0.028075147 -0.035766996 -0.102213524 -0.059727132 -0.03434079 -0.02516602 0.10245542 -0.12373712
-0.012743204 -0.08776573 -0.0077793584 0.023518654 -0.020222351 -0.09451918 0.017862339 -0.08187378
-0.062124543 0.12250218 -0.04554735 -0.040726602 0.07776423 0.11875008 -0.31601864 -0.14658834
-0.016394125 -0.039057266 -0.058143876 0.017280087 -0.06038579 0.044110782 0.116129234 0.08608812
-0.050713092 -0.03489686 0.023540191 0.01956887 0.034117658 -0.033158977 0.043855283 0.009803635
-0.07787554 0.029927876 0.043248735 0.046038494 0.11955369 0.0040202974 -0.08081155 0.042224355
-0.015738295 0.00018380137 0.09057356 -0.16794993 -0.13867795 0.10639678 0.04216183 0.052669436
0.07320194 -0.009140166 -0.001833653 0.016200922 -0.068982564 0.07029244 0.0028537095 -0.28536162

network.2.bias f4 [128]
00000000: 8edd 8f3d 09ff 883d eebd 333c 5c7a 9dbd
00000010: d4a5 56bd 6687 343d 8b53 9e3b 2bc5 9c3d
00000020: 9d25 553d 505d c6bd 2092 92bd 56e4 a3ba
00000030: 3a2b f53c 1649 c63d 0bd4 953d e3b6 d7bc
00000040: d08a 833b 41b7 cfbd cb78 babd 9d4b 833d
00000050: d29d 253b 0f23 bd3d 73fb 363d da7f 5bbd
00000060: 7ef8 fe3c e5fc cbbd 9de0 e73b b357 b43d
00000070: ef92 e53c b53f 243c 93d9 7d3d c59b 6d3d
00000080: fadb 9dbb 4eab 62bd c758 a43c 4420 ab3d
00000090: 6955 89bd db75 ed3c abe6 85bc 34c9 1a3d
000000a0: b174 a3bd abcc e1bb d715 0d3c 23ad 89bd
000000b0: 840d 5ebd 777a 7dbd 001c 09bd 0256 32b9
000000c0: ebad 123c 1f56 01bd 640e 09bd 4365 a7bd
000000d0: 20aa 9e3d c063 d63c 4b9b 8b3d 9025 bf3d
000000e0: b0a4 f53c da5b 39bd 334a 8c3d b281 273d
000000f0: e8ce 0c3d db32 8cbc 468a 343d 41ef acbd
00000100: 0d3a 4e3d 7b18 bcbc fd74 70bd 6cfe 5f3c
00000110: af07 6bbd acfb 163d ad7e acbc 823a 11be
00000120: 40c8 c23d 0e04 e2bc af23 c8ba 2b5e aa3d
00000130: 024f 18bd 4b74 a23d eb5b 0abc e329 2bbd
00000140: 550d 063d ee5e ec3b fc20 d53c f143 163a
00000150: 2fa3 9cbd 7603 a5bd 89e8 493d 16c3 9abd
00000160: c646 28bd 4271 60bd 067b 873d 1a5a a6bc
00000170: 0cfd 14bd 9fd1 843b 9d56 103d 811e 733d
00000180: 599e 60bd 8a1e 733d 1452 96bd 14a8 47bd
00000190: f89a 093d 2307 a1bd d745 3cbd 01a1 51bd
000001a0: efd5 a3bd 7db8 783d 80c5 dabd 9a64 3bbd
000001b0: 4d06 443d c222 1bbd 8d6e 993d 4133 833d
000001c0: 6576 863d 034e f3bd 0bb7 b63d 04fd a0bd
000001d0: d559 d43b 0c69 f63c 84a3 b0bd 990c 75bd
000001e0: 9da0 1c3d ce4b 50bd 9d7c 8a3b f38e dabc
000001f0: 6d29 b33d 9c76 00bd 70cb 063d 95da 9f3c
0.0702468 0.06689269 0.010970576 -0.07689354 -0.05240424 0.04407444 0.0048317364 0.07654794
0.052037824 -0.09685767 -0.071567774 -0.0012503962 0.029927839 0.09681909 0.073158346 -0.026332324
0.0040143505 -0.10142375 -0.09105071 0.064109065 0.002527107 0.092352025 0.044673394 -0.053588726
0.03112435 -0.09960345 0.0070763365 0.0880579 0.028024165 0.010024955 0.061975073 0.05800988
-0.004817483 -0.05533915 0.020061864 0.083557636 -0.06705744 0.028986862 -0.016345343 0.03778954
-0.079812415 -0.0068908534 0.008611164 -0.06722476 -0.05421211 -0.06188437 -0.03347397 -0.00017007443
0.008952598 -0.031576272 -0.03346099 -0.08173611 0.077472925 0.026170611 0.06816729 0.09333336
0.029985756 -0.045253612 0.0685009 0.04089517 0.03437701 -0.017114094 0.04407718 -0.084440716
0.05034833 -0.022960892 -0.05870532 0.013671499 -0.057380375 0.036861107 -0.021056497 -0.14182475
0.09510851 -0.027589824 -0.0015269424 0.08318742 -0.037184723 0.079323374 -0.0084447665 -0.041787993
0.03272756 0.007213465 0.026016705 0.000573217 -0.07648312 -0.08057301 0.04929403 -0.07556741
-0.04108312 -0.05479551 0.06615262 -0.020306636 -0.036374137 0.004053309 0.03523885 0.059355263
-0.054838512 0.059355296 -0.07339874 -0.048744276 0.033595055 -0.07862689 -0.045965042 -0.051178936
-0.07999789 0.060722817 -0.106822014 -0.045750238 0.04785757 -0.037874945 0.07491789 0.0640626
0.06565551 -0.11880114 0.089216314 -0.07860759 0.0064804354 0.030079387 -0.08624938 -0.059826467
0.03823911 -0.050853543 0.004226281 -0.026679492 0.08748136 -0.031363115 0.032908857 0.019513408

network.4.weight f4 [128, 128]
00000000: 6eb4 a83d 2bc1 3cbd 70f2 353d c368 34bd
00000010: 996c d43d ee49 a3bc 30aa 8f3d bb5b 51bd
00000020: c4f5 0fbc 5137 593d 02fc 923d 71d9 9dbe
00000030: 326c 7cbd 29dd 15bd dfcb 673e a078 4ebd
00000040: d107 403d 9411 55bd 9da1 8ebd 4781 863d
00000050: 42c8 8fbc 1f06 f23d 9cb9 f5bc a0a6 713b
00000060: b0df 95be e3c3 a1bd 1878 42be a1ee 893d
00000070: 0438 923c bc31 003d 9a1e 77be 704f 7abd
00000080: 76b2 d83d e650 a6bd 4f36 d53d 455c 35bd
00000090: f4c9 503d 0ffe ba3c 9b3d 353b 02bd 993c
000000a0: 8a40 b33d 6935 393d 0655 d4bc 724b 533d
000000b0: 5545 57bc f172 19bd 25cc 7dbd c71d 193e
000000c0: c2a2 02bc 8950 803d 7cd6 dcbd 7f27 4ebd
000000d0: db0a cb3d c426 573d c146 933b dd6a ecbc
000000e0: 7c76 31bd 909f f9bc 5dba ea3d f141 da3c
000000f0: f31e dc3d b436 813d 0a2a b7bd 25be 21bd
00000100: f949 ddbd 3d20 2e3d b542 05bd 4536 6c3d
00000110: cf54 84bd cfab 9dbb 82fb 8bbd 6d0b 1dbc
00000120: 18d6 3f3b 03e5 3e3d 9e2c 8cbd 89aa f43d
00000130: 0f1f 39be b8c8 523e ab02 483d 891c 13bb
00000140: 2cb3 e9bd 0764 3f3d 483a 7dbd f2d8 60bd
00000150: 8d43 793d 4b95 a7bd 6a4f 4e3e 2bee 6f3c
00000160: 084e cf3c d28d dbbd 0b3a 92bd eec5 16bc
00000170: 9fa9 3f3d 0339 3c3d b006 bcbb 5d5c c93d
00000180: 0493 4abb 1750 213d e08e 84bd 9a87 e5bd
00000190: 5fb6 ecbc 3d58 9ebb 7a09 06be 8d95 a53c
000001a0: eb59 8a3d 8f89 10bd 7187 743d 837c 1a3c
000001b0: 1a98 e23d acf6 f3bc 79b8 c13d 58de 63bc
000001c0: 9eeb 693d 0f05 51bd a733 983d 5292 e4bc
000001d0: 6463 82bd 26f0 ee3d 2d3a cd3c 7a7c 8cbe
000001e0: 37cb 26bc e30d f33b 82a5 af3d db26 163e
000001f0: 6167 1fbe 460d 6bbd bf27 3ebc adcb 2bbd
00000200: 8994 30bd 1c51 d23d 8c93 19bd 822c 61bc
00000210: c40c c5bc bf6f d53c ca0c f33b 2826 03be
00000220: 353e b8bd 0986 aa3c f278 debc 28e3 66bd
00000230: 5521 24be 3dd0 7a3d ae7c 38be 0b07 b43d
00000240: 4109 5cbb b81a 193d 8a20 f33d 7cd3 1b3b
00000250: 57dc 09bd 42ea 6fbe d92e 093d 5ba2 25bd
00000260: 61dd c73d fa1c 9fbc 3186 1cbc 8311 713d
00000270: ec23 aebd 5edf 1a3d d1b3 dd3c af71 4c3d
00000280: f7e6 74bd ce78 e83c dbc9 cb3d a2d8 32bd
00000290: d254 2fbd 1ded 7e3d 56c2 153c 0b04 13bc
000002a0: d89d e03c 91b3 fabd 3a17 773d 4cd2 8ebe
000002b0: b4ef a3bd 9a76 723d 7d58 953d b7ef 323d
000002c0: 7e77 ea3d bec1 ed3d 7467 d13d f47a 0fbe
000002d0: 084c f2bc c4e8 9bbb 7dc1 793d 7fe8 f03d
000002e0: ec46 babd af68 8f3d ab19 27bd a601 97bc
000002f0: a08f b63c cb0f 113c e50c 883a e873 b9bd
00000300: 9425 a73d 2e88 3abd 08cb 323a 2a12 dd3c
00000310: 2d6c 97bd 5d4c 7a3d c5b3 8abc b07c d2bd
00000320: 25c3 503d 0666 533c 9a39 783d b679 63bd
00000330: c364 863d 7d66 29be 5f0d 9fbd 1ac9 963d
00000340: 909c 393d 6098 45bc 3727 223d 6ac9 0fbe
00000350: 09ed e13d 0b9f b7bc 04b5 94bc 254a cd3c
00000360: 8c12 bb3d 3ba9 c5bc 9a4a 523b 6840 5d3d
00000370: 8e06 653d 49ac 2fbd 6d2a 6e3d 9745 da3d
00000380: 060f 613d 1bc8 843c c624 febb 8aea 513d
00000390: 3fc9 cc3d a77b bd3d e16c c33d 1769 05be
000003a0: 5b06 ac3c 11e8 90bd 34db 623c 4f1e 4d3c
000003b0: 724c 473d 9888 37bc addb 48bd f949 8e3d
000003c0: da90 babd 12ed b4bd eb31 773d 6214 f23c
000003d0: cf16 b43d eb27 1ebe 79a0 3a3d 3a09 04bc
000003e0: 0f2c 1d3e 0d8f 10bd 20cd 52bc f62e 113e
000003f0: de62 7f3d 1e6b bf3c 19e9 07be 51f5 60bd
0.08237539 -0.046082657 0.04442066 -0.04404522 0.10372276 -0.019932713 0.070148826 -0.05111287
-0.008786622 0.05303127 0.07176973 -0.30829957 -0.06162662 -0.036587868 0.22636364 -0.050408006
0.046882454 -0.052018717 -0.06964419 0.065676264 -0.017551545 0.11817574 -0.029995732 0.0036872998
-0.29272223 -0.078986906 -0.18991125 0.06734968 0.017848976 0.03129743 -0.24132767 -0.061110914
0.10580914 -0.08120899 0.10410749 -0.04427745 0.050973848 0.022826223 0.0027655128 0.018766884
0.08752544 0.04521695 -0.025919449 0.051585622 -0.013139089 -0.037463132 -0.061962266 0.14952765
-0.007973375 0.06265361 -0.10783097 -0.050330635 0.0991418 0.052527204 0.0044945185 -0.02885955
-0.043325886 -0.030471593 0.11461327 0.026642771 0.107480906 0.06309262 -0.08943565 -0.039487977
-0.10805125 0.042511214 -0.03253432 0.057668943 -0.064614885 -0.004811741 -0.06835081 -0.009585244
0.0029271897 0.04660512 -0.068444476 0.119465895 -0.18078254 0.2058438 0.04883067 -0.0022447428
-0.114111274 0.046726253 -0.06182316 -0.054894395 0.060855437 -0.08182772 0.20147482 0.014644186
0.025305763 -0.107204095 -0.07139977 -0.009202464 0.046792623 0.045952808 -0.005738102 0.0983207
-0.0030910382 0.03938302 -0.06472564 -0.112075046 -0.028895555 -0.004832296 -0.13089553 0.020212913
0.06755432 -0.035287436 0.05969948 0.0094291 0.11064167 -0.029780708 0.094590135 -0.013907991
0.057109468 -0.051030215 0.07431727 -0.027901802 -0.063666135 0.116668984 0.025052154 -0.27438718
-0.010180286 0.007417427 0.0857649 0.1466326 -0.1556678 -0.057385705 -0.011606156 -0.041942287
-0.043110404 0.10269377 -0.037494227 -0.013743522 -0.024053939 0.026054261 0.007417296 -0.12807524
-0.0899624 0.020815866 -0.02715728 -0.056368977 -0.1602834 0.061233748 -0.18016312 0.08790406
-0.0033574852 0.037378997 0.11871441 0.0023777178 -0.033657398 -0.23429206 0.033491943 -0.040438037
0.097590216 -0.019422997 -0.009553478 0.05885459 -0.08502945 0.037810676 0.027063282 0.049913105
-0.059790578 0.028377917 0.0995061 -0.04366363 -0.0428055 0.062237848 0.009140572 -0.008973132
0.027419016 -0.12241281 0.060324885 -0.2789482 -0.08004704 0.05919514 0.072922684 0.04368564
0.114485726 0.11609219 0.1022481 -0.14011747 -0.02957727 -0.0047579724 0.06097554 0.11763095
-0.090955585 0.07002389 -0.040795963 -0.018433403 0.022285283 0.008853863 0.001037982 -0.090553105
0.08161464 -0.045540027 0.0006820415 0.0269862 -0.0739368 0.061107982 -0.016931424 -0.102776885
0.050967354 0.012902742 0.060601808 -0.055535994 0.065621875 -0.16543002 -0.07766222 0.07362576
0.045315325 -0.012060255 0.03958818 -0.14041677 0.11031539 -0.022414705 -0.018152721 0.025059769
0.09134397 -0.024128547 0.0032087923 0.0540165 0.055914454 -0.042888913 0.05814593 0.106578045
0.054945968 0.016208699 -0.0077558486 0.051249065 0.09999322 0.092521004 0.095422514 -0.1302837
0.020999124 -0.07075513 0.013846207 0.012519433 0.04865689 -0.011202 -0.049037624 0.06947703
-0.091096595 -0.0883428 0.06035034 0.029550735 0.08793413 -0.15444915 0.045563195 -0.00805884
0.15348838 -0.035292674 -0.012866288 0.1417807 0.062350146 0.023366507 -0.13272513 -0.054921452

network.4.bias f4 [128]
00000000: 29d5 f5bc c077 59bd 7e8d e0bc 70e9 b0bd
00000010: 38ab b73d 3f6b 843d 0a50 a5bc 1190 783d
00000020: cbf0 7d3d 67d7 d2bb 7ad8 503d b376 1abd
00000030: eda9 103c 533e 57bc f0f7 f73b 4999 82ba
00000040: 45e7 63bd 8727 d33d 1073 9e3d e559 103d
00000050: 7311 aabc ea4f 393d 6358 b33b 7e78 703d
00000060: 9df0 0cbc 36a6 c03d abe1 303d 2327 25bb
00000070: 3e0f 33bd 48f7 6dbc 31b4 9b3d 18b5 b1bd
00000080: b906 933d 3b21 b83d e07f 7d3d 8eaa 5a3d
00000090: 222c 113d d59d ab3d e4c3 d8bc 1e80 a9bd
000000a0: 0f60 8dbd 3885 4cbd a058 a63d 25ca ba3c
000000b0: de32 23bc dfb7 a6bc e512 a2bb 432c 9c3d
000000c0: 9a04 67bd 0852 c53c 26e9 61b9 055c 45bd
000000d0: fbd4 9fbd 58e1 f23d 04fa c6bd 151f 233c
000000e0: 6976 40bd bba6 a3bd deaa 2fbd 2b79 3cbd
000000f0: a6c1 a63d b0ff b3bd 33bf 8e3d 5852 84b8
00000100: d94f 843b a3e2 523d 5a16 6bbd f500 8ebc
00000110: 0032 5f3d 9c7f 2cbd 379b 0a3d a536 acbd
00000120: de26 a13d 95f2 643c 278c 1abc b08f 8cbd
00000130: 2dbd 8abc ce41 07bd 4013 6d3d 4a01 9d3d
00000140: e15f 743d b6f9 633d 015e 91bd 0007 98bd
00000150: 3214 0e3d 5cec 35bd d704 493c ba4a 91bc
00000160: 7cf3 d03c 6634 873d b4f4 dd3c e889 58bd
00000170: 998f 81bd 28b4 293d 8fcb 7f3d 21d7 dcbd
00000180: 68ba 3f3d e48e 553d 487b d13c 63a9 edba
00000190: 582f a03d 6740 813d 29b9 8d3b b4d1 a33d
000001a0: b652 913d f39a a6bd a861 3fbd b7f2 a9bd
000001b0: 44d6 ea3d 4862 a9bc 0567 82bd 722c 773d
000001c0: 3225 acbd 8fa3 913d 23b3 633d 560d 963d
000001d0: 72a7 13bd 30e4 ea3d a38e 753d 1a30 b2bd
000001e0: 68c3 2d3d 6dd1 b5bc b1b9 203d 304c 5ebc
000001f0: c603 9b3c 04a7 a93d 1d04 1bbd 9680 a33d
-0.03000887 -0.053092718 -0.027411219 -0.08638275 0.08968204 0.06465768 -0.020179767 0.060684267
0.061997216 -0.0064343694 0.0509877 -0.037710857 0.008829576 -0.013137418 0.0075673983 -0.0009963895
-0.055640478 0.103102736 0.0773679 0.03524198 -0.020760274 0.045242228 0.005473183 0.05870866
-0.008602289 0.09406702 0.043183964 -0.002520033 -0.043715708 -0.0145242885 0.07602728 -0.08677119
0.071790166 0.08990713 0.06188953 0.05338531 0.03544248 0.083797134 -0.026460595 -0.082763895
-0.06903087 -0.049931735 0.081223726 0.022801468 -0.009960858 -0.020351348 -0.0049461 0.0762563
-0.056400873 0.024086967 -0.00021544527 -0.04818346 -0.07804295 0.11859387 -0.097156554 0.009956141
-0.046987925 -0.07990786 -0.04288756 -0.046013992 0.08142404 -0.08789003 0.06970062 -6.309588e-05
0.004037839 0.05148567 -0.057394363 -0.01733444 0.054491043 -0.042113885 0.03383943 -0.0840886
0.078687415 0.013973852 -0.009432829 -0.06863344 -0.01693591 -0.03302174 0.057879686 0.076662615
0.05966175 0.055658065 -0.07098008 -0.0742321 0.03468723 -0.044414863 0.01226922 -0.017735828
0.025506727 0.06601791 0.027094223 -0.052865893 -0.06326217 0.041431576 0.062449988 -0.1078322
0.04680863 0.052138224 0.02557148 -0.0018132146 0.0782153 0.06311112 0.0043250513 0.07998982
0.07095854 -0.08135023 -0.04672399 -0.08298247 0.11466649 -0.020676747 -0.06367306 0.06034512
-0.08405532 0.071112745 0.05559076 0.073267624 -0.03604836 0.114693046 0.059950482 -0.08700581
0.042422682 -0.022194589 0.03923959 -0.013567969 0.018922698 0.08283809 -0.03784572 0.0798351

network.6.weight f4 [128, 128]
00000000: 72c6 87bd 04ac a6bd 6ad7 0cbc d690 26bd
00000010: c9a8 293d 3f00 84bd f274 fb3c 9571 20bd
00000020: 7345 f1bc 24f8 7bbc 4fd8 a33d dd7a e0bc
00000030: bb34 1f3d 4691 1fbd 1cb3 29bc bd61 8d3d
00000040: 9b06 4abd d783 1c3d fd70 a7bd f49a 5a3d
00000050: e6e3 d73d 6096 e9bc 7ec6 bf3d 658d 12be
00000060: e499 c1bd 623b 66bd af76 243b 7281 68bd
00000070: 3f19 fbbc 1644 0d3d ae00 af3d 92d2 9d3d
00000080: 17e1 983d 800b d9bc 928c aabd d783 1abd
00000090: 4664 88bd a277 89bd f97b ec3d f470 dabd
000000a0: 8cc0 a43d 5095 6bbd df27 c03a 8481 b23d
000000b0: a576 46bd d499 ff3d 0a61 f53c 327f 7fbd
000000c0: bea9 383b dd5c 21bd 8b55 c0bc dedc 92bd
000000d0: 0bfb c73b b4ab 373c 3382 1cbe 58d4 4fbc
000000e0: 69ff ee3c efb0 b53a 1fc2 d83d 3fb7 85bd
000000f0: e925 613d bbf6 0a3d e8e1 b4bd 0c85 06bc
00000100: 5e71 9e3d b0ec 8bbb 7171 2e3c 1b29 6bbd
00000110: d66d 3b3d 426f 733c 5356 b03c f433 543c
00000120: 22e6 f63d 7ead 313d 9096 5b3c e375 c13d
00000130: 625f 533d 4aac 733d 8815 a9bd e046 a83c
00000140: 2665 3ebd ef52 0b3e adc4 0bbd 94c3 0b3d
00000150: 0ae8 26bc aa6f 99bd 9047 e1bc 0e8a c7bd
00000160: 5ba8 fd3c c59b 533d fa35 a6bc 0c6d 6e3b
00000170: 2b67 15be a1d7 ccbc 4095 a7bc f4b3 0e3e
00000180: 2f93 07bc c956 413d 0a1c 973c a304 4e3d
00000190: 7150 17bd 3a29 6cbd a7a0 e0bc efe8 93bd
000001a0: b9c1 d63d 2360 febc 0a51 ec3d 207b 9dbd
000001b0: bf8b d13d f179 d3bd 3913 9bbd dfae 283e
000001c0: d085 953d da3e eabc b43d 4fbd fb9a ce3c
000001d0: 19f6 a5bc a45f d63d 89c7 12be 4b0b edbd
000001e0: 515d 743d 74ca c73d 3026 ec3d e932 a53b
000001f0: fb06 683d 96af 8d3c e74d a7bc d451 85bb
00000200: 3bbe 48be 3646 4a3c d443 eebd ecfa 95bd
00000210: a136 043d 6b05 9fba 9259 543d eb17 dbbc
00000220: 8acd 8abc 2546 28bd 2ee3 b7bb 997f cebd
00000230: 5928 dfbd ac92 ae3b 4586 883d 18fc ab3d
00000240: 1db7 c7bc dabd ef3d 0fba 84bb e51c 3b3d
00000250: df9d 983d 24f6 b9bd 5d3b 973d 4744 d23c
00000260: 0255 4dbe 6bd0 8e3d 8254 9d3d 053b b2bd
00000270: bb2f 893d dffe bb3d 7804 06bd 65d3 78bd
00000280: bfa1 843d 332d 6a3d 6177 2fbd 2ae6 0c3c
00000290: afe2 dfbc 1756 ddbc c253 cc3d c52f c5bd
000002a0: 7056 973d 0197 3f3d ae47 543d f0fd 5f3d
000002b0: d978 be3b 06dd 643e 911d 2fbd c2b8 0d3c
000002c0: d7e4 d93c 86a7 95bd 7c39 d8bc e926 f2bc
000002d0: d928 b23d 26b0 273c 0389 68bc 33ed b1bc
000002e0: 8783 e8bc d537 20bb 38b1 f33d b6aa 383d
000002f0: 6005 db3d 9910 e0bc abca 3ebd 5145 2bbd
00000300: 84db 113d d6b0 bcbb 00df 92bd b9c7 14bd
00000310: 58c6 5b3d c626 9dbd 4941 97bd 4679 b6bd
00000320: 9502 f93d 152e fa3c 1b31 683d fa31 80bc
00000330: 7a64 b83d 3b87 fcbc d13d 573d b779 883d
00000340: 7f83 d43c 90f8 a33b 90f7 333c 7154 3ebb
00000350: 4c85 c53d fc80 ee3c 1f7c 613a 94f6 9ebc
00000360: 9cd3 8d3d dc86 213c 205d 80bd a29e 3dbd
00000370: bdb1 5fbd e265 06be f819 a43d 829b ad3d
00000380: ed73 77bd a732 8e3d 9dd8 d43d a0a2 143e
00000390: d6f2 b5bc 2afc 2a3a d6c7 ca3d 3d5c 2ebd
000003a0: 9707 913d 4700 4ebc f64e 183e 31da 1ebc
000003b0: 2341 9b3b 023d 55bd ea77 293d 9a35 c43d
000003c0: f734 39bd a85d 3cbd 5828 f3b9 ae23 06bd
000003d0: 85e2 9f3d 5adc 7cbc 224e 3dbd 3f5d 4cbd
000003e0: e374 d1bb 1b07 123a 6449 333c e859 183e
000003f0: 46f4 f43b 764d 4b3c fe71 253d fc1a 5a3b
-0.06629647 -0.08138278 -0.008596281 -0.04066547 0.04142073 -0.064453594 0.030695412 -0.03917082
-0.029452061 -0.015378986 0.08000242 -0.027402336 0.038868647 -0.038956903 -0.010357644 0.06903408
-0.049322706 0.03821167 -0.08175848 0.05337043 0.10541515 -0.028514087 0.09364031 -0.1431175
-0.094531804 -0.056208976 0.0025095155 -0.056764074 -0.030651687 0.03448876 0.085450515 0.07706179
0.074648075 -0.026494741 -0.08327593 -0.03772339 -0.06659751 -0.06712271 0.115470834 -0.10666075
0.08044538 -0.057515442 0.001466032 0.087161094 -0.048452992 0.12480512 0.029953498 -0.062377162
0.0028177346 -0.039395202 -0.02347829 -0.07171033 0.0061029247 0.011210371 -0.15284042 -0.012684904
0.029174523 0.0013861934 0.10583901 -0.06529092 0.054967795 0.033926707 -0.08832151 -0.008210432
0.07736467 -0.0042701587 0.010647164 -0.057412248 0.045759045 0.014858069 0.021525538 0.01295184
0.12055613 0.043378346 0.013402596 0.09446313 0.051604636 0.05949048 -0.0825606 0.020541608
-0.04648318 0.13605855 -0.03412311 0.034122065 -0.010187158 -0.07492001 -0.027499944 -0.09743129
0.030964067 0.051662225 -0.02028941 0.0036380915 -0.14590137 -0.025005164 -0.02045691 0.13935834
-0.008274837 0.047201905 0.018445987 0.05029739 -0.03694195 -0.057656504 -0.027420355 -0.07222163
0.104861684 -0.031051701 0.115388945 -0.076895 0.102317326 -0.10325993 -0.07572026 0.16472958
0.07300913 -0.028594423 -0.050595954 0.025220385 -0.02025895 0.10467461 -0.14333929 -0.115744196
0.059659306 0.09755412 0.11530721 0.0050414694 0.056647282 0.01729564 -0.020422889 -0.0040685926
-0.19603817 0.012345841 -0.11634031 -0.0732325 0.03227866 -0.0012132352 0.051843233 -0.026744803
-0.016943712 -0.04108252 -0.0056117987 -0.10082931 -0.108963676 0.0053275432 0.06666235 0.083976924
-0.024379307 0.11706133 -0.0040505 0.045681853 0.074519865 -0.09080151 0.073843695 0.025667323
-0.20051959 0.06973346 0.07682134 -0.08702663 0.06698557 0.09179472 -0.032719105 -0.060748477
0.06476163 0.05717201 -0.042838458 0.008599797 -0.02732977 -0.02701859 0.09976913 -0.09628252
0.073895335 0.046774868 0.05182617 0.054685533 0.005812746 0.22349939 -0.042752806 0.008650007
0.026598377 -0.07307343 -0.026394598 -0.02955957 0.08699197 0.010234868 -0.014192822 -0.02171955
-0.02838303 -0.002444734 0.11899036 0.045084678 0.106943846 -0.027351664 -0.046579998 -0.041814152
0.035609737 -0.005758385 -0.0717144 -0.036323283 0.053655952 -0.07673411 -0.07385499 -0.0890985
0.121586956 0.030539552 0.056687456 -0.01564883 0.090035394 -0.030826202 0.052549187 0.0666384
0.025941608 0.005003996 0.0109843165 -0.002904203 0.09644565 0.029114239 0.00086015643 -0.019404687
0.06925127 0.009858813 -0.06267762 -0.046293862 -0.054612864 -0.13124803 0.08012766 0.084769264
-0.06041329 0.06943255 0.10392878 0.14515162 -0.02221052 0.0006522561 0.09901397 -0.042568434
0.07081526 -0.012573308 0.14873871 -0.009695576 0.0047379895 -0.052060135 0.041374125 0.09580536
-0.045216527 -0.045987755 -0.0004637863 -0.03274887 0.07806877 -0.015433395 -0.04621709 -0.049893614
-0.006392108 0.0005570517 0.010942791 0.14878047 0.0074754087 0.012408605 0.040391915 0.0033280244

network.6.bias f4 [128]
00000000: 5b59 9f3d 4c5a e63c 895f 95bd 5708 98bd
00000010: 0880 ccbb 4cc7 9d3d 7d7b 35bd a7b4 29bd
00000020: 81bb 033d bf95 4b3c 4112 de3c fc79 253c
00000030: f3e0 b73d aaa7 36bd ec14 49bd 76b7 fbbc
00000040: 30e2 99bd 0abc 943d 72e0 9b3d 71eb c73d
00000050: b94c 57bd cc53 053d 8d35 b13d eed0 d53c
00000060: 2ac9 8dbd e251 cfbc 56d7 53bc 50de 593d
00000070: b858 bbbd 49bc a53d f838 97bc 2a05 843d
00000080: 0890 4d3d b00f a53d 4d40 da3d 0977 4cbd
00000090: 82ba 093c 5c94 443d b8bb c73d a49d 1abd
000000a0: a077 4b3c ab03 6dbd 3815 4c3d 48d2 bdbd
000000b0: d05a 853d e75f edbc 68b0 83bd 4cc9 163d
000000c0: 4310 b9bd 90f6 32bd f8dc 943d 9fd2 983c
000000d0: 9d5f 903d aee3 afbd d9f9 3bbd 95c9 2c3c
000000e0: 40a3 8b3b 799c 853d 2d5d 39bd 21f3 41bd
000000f0: bc51 76bd 0af4 c43d 46d6 9e3d 62e1 153d
00000100: a57d 073d f23a 783d 820f 90bd a41b 32bd
00000110: c511 ca3c e3b6 913d ea4c 74bd 6a55 7d3c
00000120: 55b5 e0bb cc87 7d3d 9c47 5cbd 4dd3 88bd
00000130: 72af 153d 7e5e c0bd f402 debc 8826 703d
00000140: 64ac 52bd ccf2 a53d c53c ffbc dd74 c93c
00000150: ff38 c83a f725 163d a110 27bd 5a91 953d
00000160: d14a 3c3d 2568 aa3d 0af4 aa3d 4d4e a63d
00000170: 8135 dcbc ddc5 b83d ed32 3b3c 922c b53d
00000180: 25d8 ba3d 8083 8a3d 42e5 bc3d 9cf5 723d
00000190: ca28 da3b d27e 123d d77c 3abd 509f c03d
000001a0: e240 a43d da1d 9cbd e738 c43d e34c 1bbd
000001b0: f829 86bb 29cf 25bd da4a 543b fb3e 583d
000001c0: 5454 293d 5c47 abbd e3ab a73c 3e97 ba3d
000001d0: c583 c7bb 7f38 5a3c 5cec febc 21a9 3abd
000001e0: c9f2 16bd b337 c6bd ab21 5e3d b3e6 9dbd
000001f0: 4f71 ce3d 6e92 873d 25c8 203d 09d7 433d
0.07780715 0.028119229 -0.072936125 -0.07423466 -0.0062408485 0.077040285 -0.04430722 -0.04143205
0.03216124 0.012425839 0.027108314 0.010099884 0.089784525 -0.04459349 -0.04909222 -0.03072713
-0.07513845 0.07262428 0.07611169 0.09761704 -0.052563403 0.032550618 0.08652792 0.026100602
-0.069231346 -0.0253076 -0.012929758 0.05319053 -0.09147781 0.08092553 -0.018459782 0.064462975
0.050186187 0.08059633 0.10656796 -0.04991821 0.008406283 0.04799305 0.097526014 -0.037747994
0.012418658 -0.057864826 0.049824923 -0.092686236 0.06511462 -0.028976394 -0.06430131 0.036813065
-0.09036305 -0.04369217 0.07268709 0.01865512 0.07049487 -0.08588348 -0.04589257 0.010546108
0.0042614043 0.065239854 -0.045254875 -0.047351006 -0.06013654 0.09616859 0.07755713 0.036591895
0.03307881 0.06060309 -0.07034208 -0.04348339 0.024666676 0.07114961 -0.059643663 0.015462259
-0.006857554 0.061897084 -0.05377923 -0.066809274 0.03654427 -0.09393023 -0.027101018 0.058630496
-0.051433936 0.081029505 -0.031156907 0.024591858 0.0015275775 0.0366573 -0.040787343 0.07303114
0.045969788 0.08320645 0.08347328 0.081204034 -0.026880981 0.090221144 0.011425716 0.08846392
0.091232575 0.06763363 0.09223415 0.059316263 0.0066576945 0.035765477 -0.045529213 0.094053864
0.08020188 -0.07622881 0.09581166 -0.03791512 -0.0040943585 -0.040480766 0.0032393248 0.052794438
0.041340187 -0.0836322 0.020467704 0.091108784 -0.006088706 0.013319134 -0.031118564 -0.04557145
-0.03685263 -0.096785925 0.054231327 -0.07710018 0.10080206 0.06619726 0.039253373 0.047812495

network.8.weight f4 [1, 128]
00000000: 65fe cd3d 6d1a 053e ae6d 74bd a5c1 23be
00000010: b418 69bd 8e40 cbbd 9841 8dbd 2493 0fbe
00000020: 3910 583e db0c 003e e34e dfbd 9d6f cdbd
00000030: a62d 11be 5962 cebd 697d bb3d d279 3cbd
00000040: 439d 9fbd dc72 e0bd 05f9 a43d 5e0b 773d
00000050: be9f 71bd 85fc b83d acd6 87bd 01b3 eb3d
00000060: 0762 2bbc e03d 21be d85b 863d e179 9f3d
00000070: 6baa 9d3d 7cda 203d e577 a63d d25f 943d
00000080: 799b d5bd 8b11 2a3e bfb5 d13d f3a3 9abd
00000090: d9bb c9bd 74a6 ebbd d044 ebbd 29bf 4d3d
000000a0: 7f17 143e b3e1 14bd a4f2 fcbd e4a1 bfbc
000000b0: c1e5 b73d 55f9 28bd bfe1 83bd ef4e b4bd
000000c0: d6b9 433d 9007 9cbd b5b5 ab3d 75a2 e93d
000000d0: 3442 dc3d c9bc 66bd 4b91 c7bd ff21 26be
000000e0: c0fa 7ebd 90d7 f1bd e1e9 2dbb 3ec4 b3bd
000000f0: 2e69 49be 5e96 f53d aa74 c43d 2061 e6bd
00000100: b3af 42be 68a0 f73d ac5a 66bd c3e9 6abd
00000110: c5b8 d9bd 2fba 11be bab6 c33d d1d4 d33d
00000120: a176 0f3e bfbb 923d 2f87 22be 4232 b53d
00000130: 1fea f4bd e490 f63a 9604 8c3d 1e4b 7a3d
00000140: d9c0 d1bd fbe2 d23d 8963 773e 8360 f63d
00000150: 60fc 153e cae8 bdbd e5cc 733d 81ad d63d
00000160: 257f 933d 194c f7bd d692 b1bd b3af cd3d
00000170: 40a8 f5bd 9039 82bd 7ac6 79bb ccee 76bd
00000180: 3bae 563d 0b69 4a3d 89bb f7bd 9c32 15be
00000190: f0c2 b3bd 259a aebd 92f4 22be 68ed 5ebd
000001a0: a6a6 c33d dc13 a5bd 289b 273e 0115 17bd
000001b0: b582 ca3d 7f21 bbbd ec32 c63d 8b84 f83d
000001c0: 7d3a c6bd 0386 c0bd bb12 163e 88f2 033e
000001d0: 2554 4e3d 2cd9 b3bd 2b69 65bc 1f8f 00be
000001e0: 10e1 e5bd a1e7 833d f2db fb3d e440 84bd
000001f0: 241f d73d 50b1 9bbd 3d38 eb3d c3a3 c1bd
0.100582875 0.12998362 -0.05967491 -0.15991838 -0.056908324 -0.09924422 -0.06897277 -0.14020973
0.21099938 0.12504904 -0.10903718 -0.10031054 -0.1417757 -0.10077352 0.091547795 -0.046014614
-0.07793667 -0.10959408 0.08055309 0.060313575 -0.058990233 0.09032539 -0.06632742 0.11508752
-0.010460383 -0.1574626 0.065604866 0.077869184 0.0769852 0.039270863 0.08128337 0.07244839
-0.10430045 0.16608255 0.102397434 -0.07550802 -0.09850282 -0.11506358 -0.11487734 0.050231133
0.14462088 -0.036348056 -0.123509675 -0.023392625 0.08979369 -0.041253407 -0.06439542 -0.08804118
0.04778465 -0.0761863 0.08384267 0.11407939 0.10754815 -0.056332383 -0.09744509 -0.16223906
-0.062250853 -0.118086934 -0.0026537108 -0.087776646 -0.19669029 0.11991571 0.095925644 -0.11248994
-0.19012336 0.12091142 -0.056238815 -0.05735184 -0.10630945 -0.1423118 0.09556337 0.10343326
0.14010097 0.07164716 -0.15871881 0.088474765 -0.119587176 0.0018811491 0.06836812 0.061106794
-0.10241861 0.10297199 0.24159063 0.12030127 0.14647055 -0.092729166 0.059521575 0.10482312
0.07201985 -0.12075061 -0.08670585 0.100432776 -0.11994982 -0.063586354 -0.0038112686 -0.06028633
0.052412253 0.049416583 -0.12096316 -0.14570087 -0.08777416 -0.085254945 -0.15913609 -0.054425627
0.0955327 -0.080604285 0.16367781 -0.036885265 0.09888212 -0.09137248 0.09677681 0.121346556
-0.096791245 -0.09400561 0.14655583 0.12885487 0.050373215 -0.087816566 -0.014002125 -0.12554596
-0.11224568 0.06440664 0.122978106 -0.064576894 0.105039865 -0.07602179 0.11485336 -0.09455063

network.0.weight f4 [128, 5]
00000000: 10ff b83e f65a 78be 1064 57be ef35 5c3c
00000010: 3ff1 94bd 59ea e53e 452e a7be b333 95be
00000020: fcf6 84be c437 523e a4cd 073f 84c1 843e
00000030: 4b58 d7be 7b43 c4be e263 c0be 99e0 953e
00000040: 9603 8dbe f5c0 e93d 4034 843e 72ba b4bd
00000050: 228a 1cbf da07 093c 1f22 783e 54f4 40be
00000060: b247 8abd 20d6 013e 7bec fabe 4415 85be
00000070: a20e 42be 6f00 b7be a4dd 783d 7477 b1be
00000080: 0858 bb3e 658e fd3c 8bbe b43e d753 9cbd
00000090: 8221 2dbd 3503 183e 39cc cf3e c2bb 8ebe
000000a0: 8e93 e53e 8efc adbd 0042 d13d 986b cdbc
000000b0: fcf4 313d a71b 09bf e480 823e 1f98 b63e
000000c0: 0a08 473d cd49 efbd 72d9 ca3d 1b31 553e
000000d0: c9f6 d1be 7843 f43d b929 0abe 0c8d 8d3e
000000e0: 0407 e6bc 3b92 b53e 09a5 883e 7456 c5bc
000000f0: 6a2f 91be 77f6 3d3e e6e3 a43d c73a c63d
00000100: 33f0 9d3e deb7 9bbe 2cab 2bbd edf9 4d3f
00000110: 69f1 12bc de93 363e a7a7 753e d925 c33e
00000120: c554 acbe 96cc b43e f3ce adbd 1564 63bd
00000130: 25a0 2ebe 320c b4be 0581 83be 008d e03d
00000140: e143 37be 48ec 2dbe 50d9 de3e a814 89bd
00000150: 1f11 193e 5707 15bf 8184 c2be 3011 3a3e
00000160: 9435 babe 6779 bc3e 6b1e 4bbe f234 383e
00000170: e21a 123f b359 c63e c8d1 023e 7c5c 9dbb
00000180: bb09 d43d 66b1 bf3e 017e 12bf b0bd 7a3c
00000190: 37ad c63d 7a1c 7dbe 302d 0cbf 4619 c83d
000001a0: 05b0 bc3e f9eb 3dbe dba4 6cbc 7ae9 8dbe
000001b0: a2c2 ed3e 6e18 06be 01ab dd3e 97c2 a73e
000001c0: a998 4abe 7024 01bf 2a88 9d3d 90e7 79be
000001d0: 4720 ba3e 6583 01bf 5755 94bd 6c79 b83e
000001e0: 6af7 143f 9e0d c5be 45bd 873e c697 a23e
000001f0: b811 70be 69c8 c4be dbb1 963e a6f6 b6be
00000200: b54d 613d f0b6 853e 1c18 17bf 8ff1 84be
00000210: 93f2 623e 05f6 933b ba64 353e b0a6 653e
00000220: b218 043d fd08 3e3e b799 043f 3e24 af3d
00000230: 5130 28be 2b9c ffbc 02da fd3e abb7 03be
00000240: caa6 983e e6b2 10bf 1066 c1bd 72eb 23bf
00000250: ba0b 0dbf d3f1 cebd 0ae9 f6be e646 3ebe
00000260: 0a87 be3c 0181 2fbe 5c29 263e 9101 ebbe
00000270: 1517 b63e 4e96 763e d4d1 edbe df8b 18be
00000280: 9a9c c9bd 0c63 c93e 2ed6 8fbe 2bb0 923e
00000290: cbbc 293e 32e9 f83e 474d 6f3e d418 09bf
000002a0: 44e9 583d f694 80be f162 f0be bbfc 9bbe
000002b0: 6eb4 91be 646b 033f 0b95 91bd 6c73 cf3e
000002c0: a816 61be e2f5 b1bd e687 373d ef1f 16bd
000002d0: 9171 a03e 462d 853e 1acc 423e 7ec8 c5be
000002e0: 4059 58be 2bd4 d5be 1d9e b6be 046d e5bd
000002f0: 8345 52bd fd15 993e 6ef0 f7be 4d97 313e
00000300: ef80 84be 2533 f93e 882c 48be d905 d43d
00000310: 03d0 b9bd ead3 75be 768c 683e b28d 373e
00000320: 42ec 953e b471 69bc 6d09 f83c 5dc4 183e
00000330: d91a 3e3e ceb5 c53e 2df5 a53e b697 8dbd
00000340: 69c1 cb3e ec23 94be 6edb cf3e 4216 71bb
00000350: 1891 f53e cf6f aa3e cacd 163e 2206 22bf
00000360: ecc7 923e f13e a8be 4beb cabe cae5 45bd
00000370: 8e93 66bd 2568 703e 0005 05be eebb 023f
00000380: 188a 96be 3981 2fbe 7b23 c6be ac78 c83e
00000390: bd1b f2be 69ce 223e 41a3 81be 49cc a7bd
000003a0: 638a 053e 8fa9 78be d835 bbbe 6f07 813e
000003b0: 8fe6 913b 9ba6 31bf de10 9f3e 5523 843d
000003c0: df9c 91bd d3d2 04be 0db6 ff3e f792 0dbf
000003d0: 6ce6 903e f0d5 d4be c509 98be 7808 eabd
000003e0: 5b04 f9be 4892 8f3d a8b4 133f 7b15 b53e
000003f0: da5d e83e 1692 4cbe edd2 f23c 4902 753e
0.36132097 -0.24253449 -0.21034265 0.013440593 -0.072725765 0.44905356 -0.32652488 -0.29141006
-0.25969684 0.20529085 0.5304816 0.2592889 -0.4205955 -0.38332734 -0.37576205 0.29272917
-0.27541798 0.11413757 0.25821114 -0.08824624 -0.61148274 0.008363688 0.24231766 -0.18843204
-0.06751956 0.12679338 -0.49008545 -0.25992787 -0.18950894 -0.35742518 0.060758248 -0.34661448
0.365906 0.030951688 0.35301623 -0.07633179 -0.042268284 0.14844973 0.40585497 -0.27877623
0.44839138 -0.084954366 0.102176666 -0.025075719 0.043446526 -0.5355782 0.2548896 0.35662934
0.04859165 -0.11683998 0.09904756 0.20819513 -0.41008595 0.11926931 -0.13492478 0.27646673
-0.028079517 0.35463127 0.26688412 -0.024089076 -0.28356487 0.1855105 0.08051281 0.0967918
0.3084732 -0.30413717 -0.04191129 0.8045948 -0.0089686895 0.17829844 0.23989736 0.38114813
-0.33658424 0.35312337 -0.08486738 -0.055515368 -0.17053278 -0.35165554 -0.25684372 0.109643936
-0.17896987 -0.16984665 0.4352517 -0.06693393 0.14947937 -0.58214325 -0.37991717 0.18170619
-0.36369002 0.36811373 -0.19835822 0.17988947 0.5707227 0.3874031 0.12775338 -0.0048022848
0.103534184 0.37440032 -0.57223517 0.015304014 0.09701007 -0.24717894 -0.5475645 0.097704455
0.36853042 -0.18547048 -0.0144436015 -0.2771719 0.46437556 -0.13095257 0.43294528 0.32765648
-0.19784798 -0.50446224 0.07691987 -0.2440474 0.3635275 -0.5059112 -0.0724284 0.36030138
0.58190024 -0.38486952 0.2651159 0.3175642 -0.23444259 -0.3843415 0.29432568 -0.35735053
0.055005748 0.26116133 -0.59021163 -0.25965545 0.22162847 0.004515412 0.17714205 0.22426867
0.032250114 0.18558116 0.5179705 0.085518345 -0.16424681 -0.031202396 0.4958039 -0.12863033
0.2981475 -0.5652298 -0.09443295 -0.64031136 -0.5509602 -0.10104718 -0.4822467 -0.18581733
0.023257751 -0.17139055 0.16226715 -0.45899633 0.35564485 0.24080774 -0.4644915 -0.14897107
-0.098443225 0.3933338 -0.28093094 0.2865003 0.16575925 0.48615414 0.23369323 -0.5355351
0.052956834 -0.25113648 -0.46950486 -0.30466256 -0.2845797 0.5133574 -0.07108506 0.40517747
-0.21981299 -0.086894765 0.044807337 -0.036651548 0.31336644 0.26011103 0.19023171 -0.38629526
-0.21127796 -0.41763434 -0.35667506 -0.11202434 -0.051335823 0.29899588 -0.4842562 0.17342873
-0.2587962 0.48671833 -0.19548237 0.10352678 -0.09072878 -0.2400662 0.22709832 0.17925146
0.29281813 -0.0142483 0.030277932 0.14918657 0.18564929 0.38615268 0.32413617 -0.06913702
0.39795998 -0.28933656 0.405971 -0.0036786948 0.4796226 0.33288428 0.1472694 -0.6329061
0.28668153 -0.3286052 -0.3963264 -0.048314847 -0.056293063 0.23477228 -0.12990189 0.5106801
-0.29402232 -0.17139138 -0.38698944 0.39154565 -0.47286788 0.15899052 -0.25319865 -0.08193261
0.13041072 -0.24283431 -0.36564517 0.25200984 0.0044525336 -0.69394845 0.31067556 0.064520516
-0.07109999 -0.12971048 0.4994358 -0.55302376 0.28300798 -0.4156947 -0.29694954 -0.114273965
-0.48636135 0.07010323 0.57697535 0.3536795 0.45384103 -0.19977602 0.029641593 0.23926653

network.0.bias f4 [128]
00000000: 36c4 fcbe a7a0 d53e c4b2 9fbe 473f f2bd
00000010: e3d2 bbbe 9af6 c43d ebf1 9bbd 2c5b 5a3c
00000020: 8825 0bbe 8c6e b13e 4de7 923d f429 ba3e
00000030: 7863 d53c c0bb 9c3e 20f9 a43e bf47 353e
00000040: c15a e03d e2d2 f2be a2a6 623c e4ad 1d39
00000050: 361a 77bd c631 c3be e17b b9bd fbe4 e03d
00000060: efdb 703e b6c6 8d3e 2ed2 4fbe b8ca 063d
00000070: f679 00be e523 83be b18e 4f3e 151c 49bd
00000080: b9c4 63be f422 a6bc 9f5d 1cbe 72d3 cc3e
00000090: 4cab 9ebe a66f b7be b306 ebbe 3e58 9dbe
000000a0: edbb 02bf 40a1 db3b 6abb 98be c29b 86be
000000b0: a329 8e3e 05f4 8a3e b47f 0ebc 3f51 75be
000000c0: b974 503e 9bdf f23e aae4 003f ecc2 b23e
000000d0: 3574 acbe 316b 09be a46d bc3e dbdd 2f3e
000000e0: e622 94be 00ff 91be 49ca 16be 3ec2 d3be
000000f0: f52e b8be 3986 a4be 7f90 573e 10ef eabe
00000100: 95b7 f5be 8f79 1d3e 92fa 663e 9b0d 043e
00000110: 4c9c b3be ea08 cbbe 17b9 853e 2c8f f5be
00000120: ffed 923e a134 78be 23e7 123e 6b82 34be
00000130: 9c0d 5c3e 1bc9 7abe 51d6 1b3d a351 033e
00000140: 50d2 f3bd 3df9 bebc 9b1c 183d 32a3 9b3e
00000150: 4045 02be 278b 96be 0512 c93e 4a17 953d
00000160: 833f 663e 242a 853d be82 bcbd 7e2b bfbe
00000170: e960 eebe d06c 4bbe a846 0f3e 2bbe f9be
00000180: 59b9 903e 81af 9bbc f403 853d c6f1 02bf
00000190: a0e8 393d dc72 7a3e 5ef5 d43e ced1 b23e
000001a0: 2a46 aa3e 4ffd 53bc 215a 07be b74f ad3e
000001b0: 7226 a3bd 7db4 e43d f13a 42bd 92aa 8bbe
000001c0: 7436 e6be 474b 12bd cdf5 bebe e53b ab3e
000001d0: 4b0a 753e c3bf b03d 4e0f 81be e893 42ba
000001e0: 2c52 c23e 27dc b63e 38f2 a63e b453 c13e
000001f0: 595a 43be bea0 4b3c d0a6 1abe 8c59 51be
-0.49368447 0.4172413 -0.31191075 -0.118284754 -0.3668433 0.09617348 -0.076145016 0.013327401
-0.13588536 0.34654653 0.071730234 0.36360133 0.026048407 0.30611992 0.32221317 0.1770315
0.1095481 -0.47426516 0.013833674 0.00015037466 -0.06032773 -0.38123912 -0.09056831 0.109811746
0.23521398 0.27690667 -0.20295021 0.03290817 -0.12546524 -0.25613323 0.20269276 -0.049099047
-0.22243012 -0.020280339 -0.15270089 0.4000507 -0.30990064 -0.35827368 -0.4590355 -0.30731386
-0.51068 0.006702572 -0.29830486 -0.2629071 0.2776614 0.27139297 -0.008697439 -0.23956774
0.20357026 0.47436222 0.50348914 0.3491434 -0.3368241 -0.13419797 0.368024 0.17174475
-0.28932875 -0.28514862 -0.14725603 -0.41359133 -0.35973325 -0.32133654 0.21051215 -0.45885515
-0.47991624 0.15378402 0.22556522 0.12895815 -0.35080183 -0.39655238 0.26117775 -0.47960794
0.28697202 -0.24238826 0.14345984 -0.17627876 0.21489567 -0.24490778 0.038046185 0.1282411
-0.11905348 -0.023312205 0.037136655 0.30397946 -0.1272173 -0.2940304 0.3927156 0.07279833
0.22485165 0.06502178 -0.092046246 -0.3733787 -0.46558312 -0.19865727 0.13991797 -0.487779
0.2826641 -0.019004585 0.064948946 -0.51150167 0.045387864 0.24457878 0.4159345 0.34925693
0.33256656 -0.012938811 -0.13217975 0.3384988 -0.07966317 0.11167238 -0.047419492 -0.27278572
-0.4496342 -0.03571632 -0.37296906 0.33444133 0.23929708 0.08630326 -0.2520699 -0.00074225524
0.37953317 0.35714838 0.32606673 0.37759173 -0.19077434 0.012428461 -0.15102696 -0.20444316
