reports/CartPole/cartpole_nn_ppo/001/policy.pt (torch, 409090 bytes, 18 tensors)

network.0.weight f4 [128, 5]
000000 2f 13 0f bf a0 4f cc be f4 14 dd be b9 fc 21 be
       -0.55888647 -0.399045 -0.43180048 -0.15819062
000010 28 46 97 be 33 aa b3 be e0 8c 09 3e 7b ce de be
       -0.29545712 -0.3509079 0.13432646 -0.43516907
000020 67 ce 59 be 5e 66 2d be cc 52 87 3e 8a 54 8b b9
       -0.21270142 -0.16933581 0.26430357 -0.00026575133
000030 1a ea 03 bf 42 34 b0 be 7b 29 65 be fa 2b 94 be
       -0.51529086 -0.3441487 -0.22379105 -0.289398
000040 48 76 80 be ff 6f a9 3e 19 28 b0 bc 22 66 ad bd
       -0.2509024 0.3309326 -0.021503495 -0.08466746
000050 6d f9 6e 3d 53 1e a8 3d a3 5d e2 3e b9 11 00 be
       0.05834334 0.08208909 0.44212064 -0.1250676
000060 52 ad 4f 3e 8e b9 60 3e 7d b4 1e 3e 0f 17 c7 bd
       0.2028096 0.21945783 0.15498538 -0.09721195
000070 e1 3a d2 be ea 21 e2 3e 52 ab 40 be 38 15 af 3e
       -0.41060546 0.441665 -0.18815354 0.34195876
000080 54 da 04 3e 86 58 cc 3d 3e 21 55 3d b3 be 83 bd
       0.1297391 0.09977822 0.052033655 -0.06432857
000090 06 cd bd 3e 6a 7d 17 be 48 f1 d7 3e e8 10 ae 3e
       0.37070483 -0.14793935 0.4217627 0.33997273
0000a0 85 73 3d bd 84 cd 58 be 02 eb 93 bd a8 a3 01 bf
       -0.046252746 -0.21172148 -0.072225586 -0.50640345
0000b0 d8 44 4a be 0f fd 95 3e 7a 64 c7 3d 56 ca c6 3e
       -0.19752824 0.2929463 0.09735961 0.38826245
0000c0 89 b4 b5 be 87 68 b5 be 46 20 56 3e 3a c8 9b 3e
       -0.354893 -0.3543131 0.20910749 0.30426198
0000d0 8c b8 31 bf 5b 93 69 3e 42 9c 74 be 76 05 23 3e
       -0.6942222 0.22810118 -0.23887733 0.15920052
0000e0 30 3f cb be 70 43 0e 3e 3f 75 8c 3e 22 53 a9 3e
       -0.39696646 0.13892913 0.27433202 0.33071238
0000f0 30 72 28 3e d8 5f 10 be 2f f2 28 be a2 8e 3f be
       0.16449809 -0.14099061 -0.16498636 -0.18706754
000100 b1 cb 98 be d1 49 af be 51 9d c6 be 4c d2 70 3d
       -0.29842904 -0.34236005 -0.38791898 0.058794305
000110 a5 41 92 be 4f 89 aa be ae 4f 89 3e 91 83 9c 3e
       -0.28565708 -0.33307883 0.26818603 0.30569127
000120 46 23 cf 3c af f3 e0 be ea 22 a4 3c 9f e3 38 3e
       0.025285374 -0.43935916 0.02003618 0.1805558
000130 06 92 b8 be ca ed ac 3e af e5 c2 3e 5e c5 b7 3e
       -0.36048907 0.3377517 0.3806586 0.35892767
000140 22 7b 36 be 7f 0e 29 3d a7 67 bb bd 86 e7 46 be
       -0.17820409 0.04127359 -0.091506295 -0.19424257
000150 f9 f8 28 bc fe 77 c5 bd 12 05 80 bd 7a 85 a7 be
       -0.010313266 -0.09642027 -0.06250967 -0.32719022
000160 92 a0 a1 bd d8 05 ba 3d 2b 9f 08 bf 2c 13 27 bd
       -0.078919545 0.09083146 -0.5336787 -0.040789768
000170 07 dd 0b bf 31 1e a1 bd 49 54 69 be 9b 8c c9 3e
       -0.54634136 -0.07867087 -0.22786058 0.39365086
000180 df 1c e6 3d 42 d4 21 3e b1 ba 93 3e 2c 68 8c be
       0.112359755 0.15803626 0.28853372 -0.27423227
000190 5f c0 e4 3e 2e fe 0c 3e 9a 23 2e 3e 1c a6 2c 3c
       0.44678017 0.13768837 0.17005768 0.01053765
0001a0 f3 14 97 3d fe 94 fc 3e d4 01 ec bd fe d3 49 be
       0.073770426 0.49332422 -0.11523786 -0.19709775
0001b0 44 6a a2 3d 23 4a c7 bc 8d 9f b8 be 6f 44 a3 be
       0.07930425 -0.024327343 -0.36059228 -0.31888148
0001c0 59 c6 a7 3e 82 4a d4 3e 29 ad a2 3d 12 e9 4f be
       0.32768515 0.41463095 0.07943184 -0.20303753
0001d0 df 11 c2 be ee c9 d4 be 4f 06 bc be c6 e4 ae be
       -0.3790426 -0.4156031 -0.36723563 -0.34158915
0001e0 c5 b3 09 bf 98 7f 65 be a9 c0 bd be 97 f4 c8 3e
       -0.5378993 -0.22411954 -0.3706105 0.39249107
0001f0 cf 67 22 be d4 e8 a1 be 60 a0 8f be 02 f5 2b bc
       -0.15859912 -0.31622946 -0.28052044 -0.010495426
000200 2e af e9 be 15 03 d2 bd 35 d1 ff be 4e 41 26 bd
       -0.45641464 -0.10254494 -0.499643 -0.040589623
000210 d8 97 ad 3e 44 96 a5 be 76 1b a9 be 1e fe 8c 3e
       0.3390491 -0.32341206 -0.33028764 0.27537626
000220 59 21 5c be 80 95 86 3e f3 19 df 3e b4 85 42 be
       -0.21497096 0.26285934 0.43574485 -0.18996316
000230 da a6 d8 bb 48 d7 06 3f ec 53 1c be 16 96 d2 3e
       -0.006611687 0.52672243 -0.15266389 0.4113013
000240 47 b5 cd 3c b4 2b 65 3e f7 bc 7a 3e d0 ac cc be
       0.025110854 0.22379953 0.24486147 -0.39975595
000250 25 5d bd be 1a 5d 8a 3e 7c 34 7b be 8f 42 cb 3e
       -0.36985126 0.27024156 -0.2453174 0.39699218
000260 81 a6 12 3f 76 d8 a0 3e 2f 50 30 3e e6 41 91 be
       0.57285315 0.31415147 0.17218088 -0.2837059
000270 57 02 a2 be 21 08 91 be 15 71 d8 3c d5 44 b7 3c
       -0.3164241 -0.28326514 0.02642111 0.022371689
000280 95 fe 92 bd 6c 3f cf be 53 1a c4 be f1 37 9b 3e
       -0.07177464 -0.40478075 -0.38301334 0.30316117
000290 dd d7 22 3e ab 5e 62 bd 79 f3 6e 3e 4c 31 44 bf
       0.15902658 -0.055266064 0.23335065 -0.7663772
0002a0 5f d2 0e 3e 7e c1 8c be 9e 8b ab bd 12 73 94 bd
       0.13947438 -0.27491373 -0.08376239 -0.072485104
0002b0 a3 ca 12 3d 4c be ac 3e 5e 01 58 be fa c7 c9 3e
       0.03583778 0.33738935 -0.21094272 0.39410383
0002c0 a2 85 58 3e 05 e7 d8 3e e5 61 b4 3e 50 a5 c7 3e
       0.21144727 0.42363754 0.35230938 0.3899331
0002d0 f4 c2 07 bf cf 02 67 3c 2f 45 a0 be 1e d0 b9 3e
       -0.5303185 0.014099791 -0.31302783 0.36291593
0002e0 88 a1 a3 be 94 49 d2 3e 6d f8 dc bd c1 1a bb be
       -0.31959176 0.4107176 -0.10789571 -0.3654385
0002f0 51 27 b7 3e 69 29 6f 3e c6 bf 56 be ab 07 d6 be
       0.35772184 0.2335564 -0.20971593 -0.41802725
000300 c6 98 8e be 14 c3 85 3e 80 54 6f be 90 b0 b1 bc
       -0.27850932 0.26125395 -0.23372078 -0.021690637
000310 28 a2 12 bd e0 38 87 bc a0 72 08 3d 80 02 0c 3b
       -0.035799176 -0.016506612 0.03331244 0.0021363795
000320 9e f5 b1 3e c8 4b c7 3e 7e 29 ea be 9c 1f 8a be
       0.34757704 0.38925004 -0.4573478 -0.2697724
000330 ba 6a 96 3e dc 2a f2 be 06 b0 eb be 4b a0 e9 bd
       0.293783 -0.47298324 -0.46032733 -0.114075266
000340 5c 03 78 be bf ff bc be 14 50 c7 be 06 a7 fd bd
       -0.24220031 -0.3691387 -0.38928282 -0.12385373
000350 f4 c6 bb be 6a ef d4 bc 87 03 8f 3e 82 0f f6 3e
       -0.36675227 -0.025993068 0.2793238 0.48058707
000360 be 4d 71 be 4a 6b 5f 3e 03 73 d9 3e 28 36 88 3e
       -0.23564813 0.21818271 0.4247056 0.26603818
000370 b3 79 20 bd 0b b3 8c 3e 3c 5f 0a 3f 62 32 1b be
       -0.03917856 0.2748035 0.54051566 -0.15155938
000380 17 f6 a9 bd d8 73 b3 be ca 02 88 3e da 6c 9a 3e
       -0.08298891 -0.3504932 0.26564628 0.30161172
000390 bc 3e cf 3d 13 86 9c 3c a7 c4 67 be c8 5a d9 be
       0.101193875 0.0191069 -0.2263361 -0.42452073
0003a0 f9 8a 8b be 59 55 98 bd 7b c7 50 3e 42 25 bb 3d
       -0.27254465 -0.07438154 0.20388596 0.09137966
0003b0 f7 9d ad be d6 d9 c7 3e e3 10 8c be e4 e5 a3 3d
       -0.3390958 0.39033383 -0.27356634 0.080028325
0003c0 f4 03 e5 3e fa c7 e2 bd 7b c8 b9 3e 67 87 a5 bd
       0.44729578 -0.11073299 0.36285767 -0.080824666
0003d0 bc 9e de 3d 82 a3 0f bd ae cd d0 be 32 dc 48 3e
       0.1087012 -0.035068043 -0.4078192 0.19615248
0003e0 38 a2 69 3e 67 26 5e 3e 68 22 a2 be 07 84 c5 be
       0.22815788 0.21694337 -0.31666875 -0.3857729
0003f0 03 4a 0a bf 3f bd ee 3b 89 ac 95 bc b5 61 c0 be
       -0.5401918 0.0072857435 -0.018270748 -0.37574545

network.0.bias f4 [128]
000000 c2 fd f4 3e cf 8a df 3d 4d 7d b6 3e 9e eb 71 be
       0.47849852 0.109151475 0.35642472 -0.23625037
000010 1f 77 1f be 11 2f 51 3e 16 54 36 3e 2a f2 25 be
       -0.15572785 0.2042811 0.17805514 -0.1620566
000020 7f ca cf 3e 98 d3 94 be 1c a4 49 3d 7b 99 04 3d
       0.4058418 -0.29067683 0.049228773 0.032372933
000030 75 ab d6 3d d8 9f 4d be 8f ff ef be cc ed d1 3e
       0.104819216 -0.20080507 -0.46874663 0.41001737
000040 ba a7 ef 3d 99 92 88 3c 12 e8 c2 3e 95 da 01 bc
       0.11701913 0.016671466 0.3806768 -0.007925649
000050 8c 81 df 3e 28 05 9d 3e f1 88 8b 3c 88 6a b4 3e
       0.43653524 0.30667996 0.017033072 0.35237527
000060 73 49 07 3e 7e 1c db be 81 49 f9 3e 68 69 ff 3d
       0.13211612 -0.42795175 0.48688892 0.124712765
000070 09 2d db be b9 28 a1 3d b1 0d 09 be 96 ba 70 bc
       -0.42807797 0.07869095 -0.13384129 -0.014692923
000080 2c fa 6e be 2f be a9 3d 09 d9 2d be 2a 4d 2c 3c
       -0.2333762 0.08288228 -0.16977324 0.010516444
000090 17 74 b0 be 3a d6 e7 bd 53 22 d8 bd 7a 83 06 be
       -0.3446357 -0.11320157 -0.10553422 -0.13136092
0000a0 60 ff 60 be 16 e5 b3 3e dc c6 7b be e7 0f 6e bc
       -0.21972418 0.35135716 -0.24587578 -0.014530159
0000b0 e5 53 9d 3e 67 fe a0 3e 44 5f 2f be a5 d9 ec bc
       0.3072807 0.31444094 -0.17126185 -0.028912375
0000c0 6a d9 93 be 8c 0b 8d bd 77 59 64 be c2 6e 11 be
       -0.2887681 -0.06886968 -0.22299753 -0.14202407
0000d0 26 47 c3 bd 89 91 92 be e5 c6 8e be 38 14 b4 be
       -0.09535055 -0.2862666 -0.2788612 -0.35171676
0000e0 e3 57 d4 bd a2 58 f6 3d 67 1b 24 3e 44 8c c7 bc
       -0.103683256 0.12028624 0.16026078 -0.024358876
0000f0 66 c6 1b 3e d5 1f 30 3d 0e 2a 4a 3e 04 10 77 3d
       0.15212402 0.042999107 0.19742605 0.060318008
000100 64 c3 cb 3e 8a bf de 3e a7 11 7a be 5b 84 73 be
       0.3979751 0.43505508 -0.24420796 -0.23780958
000110 a4 06 dd 3e 1a 4f e5 3d 35 82 a3 be a6 66 2a 3e
       0.4316913 0.11196728 -0.31935278 0.1664072
000120 ea 00 a0 bd 06 dd 43 3e 92 50 8d 3e a8 aa a7 be
       -0.07812674 0.19127283 0.27600533 -0.32747388
000130 ca 5b ac be 8d 1f a1 3e 9c b5 af be 18 06 8b be
       -0.3366378 0.31469384 -0.34318244 -0.27153087
000140 ab 07 24 be 1d 49 94 bd 67 c4 bc bb 87 ae 84 be
       -0.1601855 -0.07240508 -0.0057607177 -0.25914404
000150 d5 dd c4 3e f4 48 87 3e 3e 7a 4f be 0b 70 e4 3e
       0.38450494 0.26422846 -0.20261475 0.44616732
000160 24 27 9f 3e d3 d2 47 3e de e7 92 3e 15 1c 4c 3e
       0.3108455 0.19514017 0.28692526 0.19932587
000170 8a 76 aa bd 6a 7b ce be cf 36 b7 be 0a 05 c9 bd
       -0.08323391 -0.40328532 -0.35784003 -0.09815414
000180 ac b5 c7 be dd 62 aa be e8 d2 23 3d 5c 47 a7 bd
       -0.39005792 -0.33278552 0.039996058 -0.081679076
000190 f3 96 55 bd 02 3d be 3e 97 e3 0d be 82 72 1b 3d
       -0.05214591 0.3715592 -0.1385635 0.037951
0001a0 fb 71 76 3d df 3a 8a be ff 47 e9 3e 06 13 c3 3d
       0.060167294 -0.2699804 0.4556274 0.09525113
0001b0 ca dc 7b 3d 33 5c 9f be ff 6c b5 3e 47 00 93 3e
       0.061489858 -0.3112503 0.3543472 0.2871115
0001c0 b8 96 4b 3e 52 e4 5f 3e 39 d4 e0 be 99 9d ff 3d
       0.19881713 0.21864441 -0.43911913 0.12481231
0001d0 90 ad c0 be 34 f7 45 be de 46 6f 3d 91 a0 db 3e
       -0.37632418 -0.19332582 0.058417194 0.4289594
0001e0 cf 21 eb bd e8 2e 85 bd 5c b9 87 3e 4d da 0b be
       -0.11481058 -0.06503087 0.26508605 -0.13657494
0001f0 e4 c5 d8 bd 48 fb 2e be 61 d3 8e be e9 3d c8 bc
       -0.1058462 -0.17088044 -0.27895644 -0.024443584

network.2.weight f4 [128, 128]
000000 91 c7 74 bd 55 20 8e 3c 9a a2 90 3c 1b cf f5 3b
       -0.059760634 0.017349401 0.01765566 0.0075014955
000010 80 5d ce bc b8 fc 55 bd c4 f9 9b ba 9b 9e 8e bd
       -0.025191069 -0.052242965 -0.0011899997 -0.06963845
000020 53 50 7d 3d d8 a5 4a bd a2 d5 d7 3d 6b f7 2b bd
       0.06184418 -0.049474567 0.10538794 -0.041984003
000030 37 63 90 bd 2b e0 fd 3c e1 bb f1 bd 23 aa 98 3b
       -0.07050174 0.03099068 -0.11803413 0.0046589538
000040 5d 3d 8f 3d 22 a3 e1 3d ed f7 b8 bc 1d c8 86 3d
       0.06994126 0.11017443 -0.022579158 0.06581137
000050 04 c9 73 3d 60 b3 05 bd df 76 a7 bd 6a d8 4d bd
       0.059517875 -0.03264177 -0.0817697 -0.050255217
000060 6b 09 29 3d 2b 93 5f bd a3 8d aa 3d 87 46 b7 3d
       0.041268747 -0.05458371 0.08327796 0.08948999
000070 78 52 3b 3c b0 12 39 bd 5f 9d 86 3c 85 42 02 3e
       0.011433236 -0.045183837 0.016432462 0.12720688
000080 8b 8f d7 3c e7 32 b4 3d 9c a1 02 3d 6a 7e 36 bd
       0.026313564 0.08798771 0.031892404 -0.04455415
000090 92 d7 87 3d b9 0c b1 3c 21 c7 0e 3d 63 f7 b2 3d
       0.06632914 0.021612512 0.034857873 0.087385915
0000a0 8e d2 65 3d 61 e9 60 3c f4 f3 a3 3d a8 98 ee bd
       0.056109004 0.013727517 0.08005515 -0.116502106
0000b0 e7 15 2a bd 6a a6 a3 3d 15 77 b9 bc ab 5d 21 3e
       -0.041524794 0.07990725 -0.02263979 0.15758388
0000c0 6c 89 0f 3e 45 34 65 3d 13 25 1d 3d 1e eb 0e bd
       0.14017266 0.05595805 0.038365435 -0.034892194
0000d0 3f d6 5e 3b 9b 72 ab 3d d7 24 95 bd 52 e9 10 be
       0.0034002212 0.08371469 -0.07282417 -0.14151505
0000e0 66 67 da bc 62 96 e7 3b c0 91 69 bd 61 e0 a8 bd
       -0.026660632 0.0070674876 -0.057023764 -0.08245922
0000f0 fd 63 5f bd 13 05 37 bd 3f 88 a7 bd 1e 57 e1 3d
       -0.054538716 -0.044682574 -0.08180284 0.110029444
000100 8b b3 58 3d 6a 44 bd bc d0 68 02 3e 10 0a 85 bd
       0.0529056 -0.023103911 0.12735295 -0.0649606
000110 0c 6b d7 bc 77 6e 85 3d 3f f2 df 3d 8a a7 94 3c
       -0.026296161 0.0651521 0.10934877 0.018146295
000120 cd 7a 26 3d 59 3b 25 bc 24 42 df 3c 1a 93 82 bd
       0.040644456 -0.01008495 0.027253218 -0.06375714
000130 c1 21 18 3d 4f fe a6 3d 83 fa df 3d c0 0c 07 bd
       0.037141565 0.08153974 0.10936453 -0.032971144
000140 3c 04 de bc ac c7 a1 bd 67 93 2f 3c e6 0e 08 3d
       -0.027101628 -0.078994125 0.010716296 0.033217333
000150 b4 84 b2 3d d2 7b fc 3c 13 94 a9 bd 45 96 78 3d
       0.08716717 0.03082076 -0.08280196 0.060690183
000160 3d f2 8e bd 6b e1 89 3d 6f 06 ee bd 60 fc 54 3d
       -0.06979797 0.06732448 -0.11622321 0.051998496
000170 7e 4c 1c 3e 11 f0 5c bc 7c d1 48 bd 48 22 d2 bd
       0.15263554 -0.013484971 -0.049027905 -0.10260445
000180 68 6b a5 bd 65 91 ca bd 46 c7 3a 3b 59 49 e7 bd
       -0.08077127 -0.09891013 0.0028500124 -0.11293287
000190 2a 87 2d bd f9 04 3a 3d d7 d1 7f bd 7c bd 75 3d
       -0.04236523 0.0454149 -0.06245598 0.05999516
0001a0 05 9f 9a bd ce 0f 62 bd 98 e2 ac 3d dc 12 b1 3c
       -0.07549862 -0.055190854 0.08441657 0.021615438
0001b0 35 bd 83 bc db 65 b7 3d b0 6c d1 3a 0a 55 14 3d
       -0.016081432 0.08954974 0.0015977826 0.036213912
0001c0 36 f0 2f 3d 00 f6 14 3d 5b f1 c7 3c 4f 28 2a 3d
       0.042953692 0.036367416 0.02440708 0.041542348
0001d0 0b 6f 0a 3d a3 96 24 3e 2d 51 88 3d 57 5e 09 3e
       0.033797305 0.16073088 0.06656108 0.13414894
0001e0 22 6a 91 bd 82 63 1f bd 3c 9a 57 bd 74 6b 34 bc
       -0.07100321 -0.038913257 -0.052637324 -0.011011947
0001f0 6c cc f3 38 f2 e0 9b 3c 72 39 31 bd 29 45 95 3c
       0.000116252195 0.01902816 -0.043267675 0.018221455
000200 c9 12 e0 3b ac 3c 8f bd cc cc 0a 3d 6e 9b cb bd
       0.006838177 -0.06993994 0.033886716 -0.09941755
000210 5d cb 02 bd 94 05 91 bd 70 7a a0 bd f7 72 57 bc
       -0.031932224 -0.07081142 -0.07835853 -0.013149968
000220 7f 23 4e 3d e0 7a 22 bd 8d 2c f4 3a 52 f4 9e 3c
       0.05032682 -0.039667964 0.0018629 0.01940361
000230 6a 88 75 bd 57 e5 94 bd fc e8 2c 3c 96 e6 d4 bd
       -0.059944548 -0.072703056 0.010553595 -0.10395543
000240 e6 e1 a5 3d 5f 20 86 3c 32 da a2 bd 98 07 96 bd
       0.08099727 0.016372858 -0.07951774 -0.07325667
000250 12 63 26 3d 9d 91 47 bc 45 40 26 be bb cd 65 3d
       0.040621825 -0.012180713 -0.16235454 0.056104403
000260 24 8e ec bc 7d f5 19 3b a0 3f 9d bd 56 1f 3d 3c
       -0.028876372 0.002349227 -0.07678151 0.011543116
000270 26 e7 0d 3e 97 c6 84 bc ed 66 03 be 33 54 dc bd
       0.13857707 -0.016207976 -0.12832232 -0.10758247
000280 94 d1 ca bc ae 29 93 3d 64 4d c5 bd cd 79 b4 bd
       -0.024758138 0.07185684 -0.09633902 -0.08812294
000290 20 08 4f 3d 7b f8 aa bd 82 2d 0c bd 05 0f 9f 3d
       0.050544858 -0.08348175 -0.034223087 0.077665366
0002a0 af 76 c0 bd ef ad 93 3d e7 81 0b be 15 4f 75 3d
       -0.09397637 0.072109096 -0.13623773 0.05988987
0002b0 c3 f2 91 3d 44 4c 80 bc 54 ed e7 bd 48 14 0d 3d
       0.07126381 -0.015661366 -0.113245636 0.03444317
0002c0 9c 62 5c bd e9 76 84 3a 3d 50 93 bd 10 6c 8a bd
       -0.05380498 0.0010106239 -0.071930386 -0.067588925
0002d0 e4 ec 00 3b 6a 63 27 3b ac f5 7d 3d be f0 df bd
       0.0019672448 0.0025541433 0.06200187 -0.1093459
0002e0 65 0d a6 bd 0f 6a 9d bd 2c f1 b6 3d 64 6b 90 3d
       -0.081080236 -0.07686245 0.08932719 0.07051733
0002f0 ca a2 9f 3c 8c bb a0 3a 7f ec e4 bd d7 fa d9 bc
       0.019486804 0.0012262925 -0.111779206 -0.026608868
000300 a3 98 d9 bb 72 c9 f0 bc e7 40 5e bd 4e 23 93 3d
       -0.00664051 -0.029392932 -0.054261114 0.07184468
000310 cf 6c f8 3c b1 44 97 bd d3 7b a7 3c dd 10 24 bd
       0.030325321 -0.07386149 0.020444786 -0.040055145
000320 64 1a 7b 3d d1 a0 56 bd c8 8a dc bd 98 7a 89 bc
       0.061304465 -0.05239946 -0.10768658 -0.01678209
000330 16 52 99 3d 4f 5b a6 bc 80 23 09 bd 85 71 3e bd
       0.0748636 -0.020307211 -0.03348112 -0.04649498
000340 48 8d 95 3d bc 4b 20 3e f4 b7 23 3b 56 cf 90 3d
       0.07302338 0.1565389 0.002498147 0.07070796
000350 c5 e5 d4 3c ce d9 6b bd 2c 05 d9 3d 3b 26 34 3d
       0.025988469 -0.05758076 0.105966896 0.043981772
000360 36 5d 11 3c 53 83 84 3d 47 4a e4 3a 18 34 7d 3d
       0.008872321 0.064703606 0.0017417156 0.06181726
000370 a8 51 1f be 5f 67 18 be 2c ff 8f 3c ca 5e 66 bd
       -0.15558493 -0.14883183 0.01757773 -0.05624274
000380 25 d0 2c 3c a8 f6 06 3d 0d b1 46 bb 3f fd 39 3d
       0.010547672 0.032950073 -0.0030317933 0.04540753
000390 9b a3 46 bd bc 33 a7 3c 0a df b5 3c 81 a9 85 bd
       -0.04849587 0.020410411 0.02220108 -0.06526471
0003a0 db dc 3e bd 88 f9 44 3b 53 1a 27 bd ac bc 8b bc
       -0.046597343 0.0030055959 -0.04079659 -0.01705774
0003b0 8b 69 33 3d da 89 d9 bc ff 81 bb 3d 77 e8 45 bd
       0.043801825 -0.02655499 0.09155654 -0.0483174
0003c0 ea 8f 3f 3d 47 f8 a2 3d a6 21 2a 3d 58 62 0c bd
       0.046768107 0.079575114 0.041535996 -0.034273475
0003d0 69 a3 b4 3d c0 c1 a0 bc d5 9a c2 3c 29 6d 08 3c
       0.088202305 -0.019623637 0.02375547 0.008326807
0003e0 0d b2 8b bc cd c5 03 3e 8b e2 f3 bc 6c 25 c5 3d
       -0.017052675 0.12868424 -0.02977111 0.09626278
0003f0 06 8e a4 bd 04 20 28 3d 7d 20 6b bd 97 5c 14 bd
       -0.08034901 0.041046157 -0.05740403 -0.036221113

network.2.bias f4 [128]
000000 05 d0 0b 3d da a4 80 3d 2c 27 4a 3c fa 24 04 bd
       0.03413393 0.06281443 0.012338441 -0.032261826
000010 57 b5 a6 3d db 38 bd 3c 26 50 9f bd 86 c1 b3 bb
       0.081400566 0.0230984 -0.07778959 -0.0054857163
000020 6d 93 66 3a f5 17 a7 3d 5e c3 8e 3d e6 8b 11 3d
       0.0008795772 0.08158866 0.06970857 0.03553381
000030 e3 de 45 3d ec ef 0d bd 37 0c 1b bd 99 9f 9e bc
       0.048308264 -0.034652635 -0.037853446 -0.019363211
000040 76 00 bf 3c 42 35 17 3d 6f b1 0b bd af c6 75 bd
       0.02331565 0.036916025 -0.03410476 -0.060003933
000050 4b 24 b4 bb b4 53 df 3d 36 5c f3 bc fc b3 a6 3c
       -0.0054974905 0.10904637 -0.029707056 0.020349495
000060 9e 16 a7 3d 3a 47 89 bd 82 e0 b0 3d 1c 2f 83 bd
       0.08158611 -0.067030385 0.086365715 -0.0640547
000070 46 1f f4 bc a7 d1 a9 3b fa 66 f9 bc 26 a9 e2 bd
       -0.029800069 0.005182463 -0.03044461 -0.11067419
000080 fa ad 63 bc a7 43 3f bd e3 3b 01 3c 1c 11 b7 3d
       -0.01389646 -0.046695378 0.007887813 0.0893881
000090 8d 54 a6 bd 0b 5d 8a bd dd 2b 81 3d f2 dd 26 3d
       -0.081215955 -0.06756028 0.063071944 0.040739007
0000a0 b7 79 e1 bd a1 b3 aa 3d 1d 75 5f 3d 79 b5 af bc
       -0.110095434 0.08335043 0.054555047 -0.021448838
0000b0 48 06 a8 bd 62 a6 94 3c dc 32 99 bc be 81 b3 3c
       -0.08204323 0.018145744 -0.01870101 0.021912452
0000c0 a3 00 30 bd 49 31 9d bd e9 3b bc 3d 8b 30 8c bd
       -0.042969357 -0.07675416 0.091911145 -0.06845196
0000d0 4a 17 22 3d 85 b9 38 bc d3 06 dd 3c de 41 1f 3d
       0.03957299 -0.0112747 0.026980793 0.038881175
0000e0 41 85 4a 3d 89 3a c4 3b 28 65 8a bd 98 81 31 bd
       0.049443487 0.0059884232 -0.06757575 -0.04333648
0000f0 b4 a9 29 3d 4d 39 7c bd da 16 c8 bc c5 c7 ad 3d
       0.041421607 -0.061578084 -0.024424959 0.08485369
000100 5e 6e 83 bc fa e4 6f 3d e9 e0 7b 3b b4 b2 9f bd
       -0.016043838 0.05856798 0.0038433617 -0.07797757
000110 7d 5f c5 3c 6f 8c b2 bd 43 d5 d2 bc 09 3d 3b 3d
       0.024093384 -0.08718192 -0.025736457 0.045712505
000120 18 ce 3b 3c f7 dd 98 3c 29 86 c3 3d 9b 8f 33 bb
       0.011462711 0.018660529 0.095470734 -0.0027398828
000130 a1 ce 40 bd 40 f7 c8 bc 59 62 65 bd ae 26 bc bc
       -0.047072057 -0.02453196 -0.056001995 -0.022967663
000140 61 19 94 3c 46 61 31 3d 55 01 5c bd 33 f8 82 bd
       0.018078508 0.043305658 -0.053712208 -0.063949965
000150 da 4b 43 bd 50 86 77 3d c6 05 25 bd b9 4a 9d bd
       -0.04767976 0.060430825 -0.04028871 -0.07680268
000160 9b 96 f0 3c 61 01 43 3d 26 05 df bd da 0d 3e 3d
       0.02936869 0.047608737 -0.10889654 0.04639993
000170 0c fd 36 bc 60 d1 2a 3d f1 55 5e bb 1e dc 79 3d
       -0.0111687295 0.04170358 -0.0033925737 0.061000936
000180 d4 27 ef bc 35 dd 95 bb 92 3e ba 3d 53 36 d6 3c
       -0.029193796 -0.004573489 0.090939656 0.02614895
000190 4b 6b 8e 3c 51 9e 92 bd 84 d9 7e 3d 53 79 36 bd
       0.017385146 -0.07159103 0.062219158 -0.044549298
0001a0 72 66 67 3d 9f 14 28 bd 07 85 97 bd b5 27 30 bc
       0.056494184 -0.04103529 -0.0739842 -0.010751654
0001b0 e8 c9 ae 3c 7a e5 91 bd 67 74 0c bb 5c 9b 25 3d
       0.02133651 -0.07123847 -0.0021431686 0.040431365
0001c0 82 fc b3 bc 49 c2 74 3d 3f 5a 06 bd 8a 94 3d bd
       -0.021970991 0.059755597 -0.03280091 -0.046284236
0001d0 4c 48 7b 3c 83 3b 44 bd df 53 a0 3d e6 b4 97 bc
       0.015337061 -0.047908317 0.07828497 -0.018518876
0001e0 89 8f 51 bc 46 55 84 3d f8 2e 7b bd 75 88 96 3d
       -0.012790569 0.06461577 -0.06132409 0.07350246
0001f0 35 3c 24 3d 3a b4 b6 3d 8d 47 da bb ff 8e 98 3a
       0.04009648 0.08921094 -0.0066613615 0.0011639296

network.4.weight f4 [128, 128]
000000 fe b0 88 3d 35 2a a5 bd f3 2e 80 3d 5d b9 b7 3c
       0.066743836 -0.08064691 0.06258955 0.022427255
000010 3a 2f f6 bc 0b af 8c 3d f8 fc 47 bd 0d c0 77 bd
       -0.030051816 0.06869324 -0.048825234 -0.06048589
000020 aa fd 89 bd 7d b4 cd bc 96 5c aa b9 3a 9f 45 3d
       -0.06737836 -0.025110478 -0.0003249391 0.048247553
000030 fd bd cc 3b b7 18 d5 3d 3f bd ff bb c6 54 73 3d
       0.0062482343 0.104051046 -0.0078045423 0.059407018
000040 71 3c ef bc 42 dd ef bd 59 7c 9f 3d 8c 62 01 bd
       -0.029203625 -0.117121235 0.07787389 -0.031588122
000050 48 97 5f bd b9 11 7e bd 08 7c 8e bd 44 5d 5b bc
       -0.054587632 -0.06202862 -0.06957251 -0.0133889355
000060 78 c2 6e 3d 4b cf 38 3d 96 ba e2 bc 70 8d 67 bc
       0.05829093 0.045119565 -0.027676862 -0.014132842
000070 a6 a5 bf bd 56 d7 d4 bd d5 95 cb bc 33 49 45 3c
       -0.09357767 -0.103926346 -0.024851719 0.012041378
000080 0a be f9 3c 0d 5a bf bb 15 5e 22 be 5b 4d 42 bd
       0.030486125 -0.0058395923 -0.15856202 -0.047437053
000090 c2 de 97 3d 8d f5 7b 3c b3 6e 69 bd 52 48 ca bb
       0.074155346 0.015378368 -0.056990337 -0.006173172
0000a0 49 c1 5d 3a 76 c4 c3 bd 1c ac 57 bb a8 49 28 bd
       0.00084592827 -0.09558956 -0.0032908982 -0.04108587
0000b0 83 1a af bd 43 29 5e 3c 20 a2 08 be f4 26 88 3a
       -0.085499786 0.013559642 -0.13343096 0.0010387585
0000c0 3e 71 a2 bd cd 28 0d bd 7c 2c c4 3d 3b 3f 9c bd
       -0.079317555 -0.03446274 0.09578797 -0.07629248
0000d0 bc cf 30 3d 94 ff 9f bc ad ac a1 bd 5f 0f 94 3d
       0.04316686 -0.019531049 -0.078942634 0.07229494
0000e0 07 c7 c7 3c 43 8f 95 3b 96 e9 70 3d 6f 85 b5 bd
       0.024386896 0.0045641973 0.058816515 -0.08863341
0000f0 9b 3a 4b 3d 9e f9 01 be eb 28 ef 3b 72 26 f9 3c
       0.049616437 -0.12692878 0.007298579 0.03041384
000100 e6 ff 4a bd ba a9 5d bd 0f de f9 3b 96 36 a1 bd
       -0.04956045 -0.054116942 0.0076253484 -0.078717396
000110 0c 59 b6 3c b0 5c 95 3d 9e 7a cc bd fb 8a 6f bb
       0.022259258 0.07293069 -0.09984325 -0.0036551345
000120 3f 24 56 3d 52 f3 b8 bd a1 dc e8 bd 28 23 58 bc
       0.05228066 -0.09030785 -0.113702066 -0.013191976
000130 e6 be b8 3c ff ce 9c bd 6e 68 03 3d bd 77 b7 3d
       0.022551965 -0.07656669 0.032082014 0.08958385
000140 60 e1 d3 3d 7b 2f a6 bd 01 30 4d 3d 8b 47 4f bb
       0.10345721 -0.08114525 0.05009461 -0.0031628336
000150 2c db 3b 3d d8 4a f6 bc 12 1f ea 3b e5 b0 16 3c
       0.045863315 -0.030064985 0.007144817 0.009197448
000160 b4 a2 0b 3c 7a 3c 51 3c 6e c2 b6 bd 1e 8f fd 3c
       0.008522678 0.012770766 -0.08923803 0.030952033
000170 20 41 e3 b9 2b fe c9 bd a4 b6 13 be 60 bb 2a bb
       -0.00043345336 -0.09862932 -0.1442514 -0.0026051626
000180 82 38 a7 bc b4 dc 5e bd d9 0b 97 bc bb 91 fa bd
       -0.020412687 -0.054409698 -0.018438267 -0.12234827
000190 1b 2d 9e bd 90 42 00 be 4b 4d 8c bd e7 6e bc 3a
       -0.07723447 -0.12525392 -0.0685068 0.0014376313
0001a0 96 47 c8 bc 4c 85 aa bd 2f b9 65 bd b7 74 db bd
       -0.024448197 -0.083262056 -0.056084808 -0.10715621
0001b0 b9 70 40 ba 8a a9 9c 3d b3 f9 04 bd 88 d4 eb bd
       -0.0007341016 0.076495245 -0.032464694 -0.115151465
0001c0 29 26 02 be 6f 86 bb 3c 4d 47 2d bd 7b cc d0 bd
       -0.1270987 0.022891251 -0.042304326 -0.101952516
0001d0 f6 b8 86 3d 0f 00 88 3c ed ed 60 bc 10 34 02 bd
       0.06578247 0.01660159 -0.013728601 -0.031787932
0001e0 55 e6 0a 3d 01 1a 6d 3c 0d 0f 49 3d 9c 2a a5 39
       0.033911068 0.014471532 0.04908662 0.00031503
0001f0 98 e9 51 3d 6c b5 d0 3d 1b 0a eb 3b 61 21 69 bd
       0.051248163 0.101908535 0.0071728355 -0.0569166
000200 99 67 a6 3d 8b 9a 99 bd 02 57 aa bd 01 ff dc 3c
       0.081252284 -0.0750018 -0.08317377 0.026977064
000210 7c fd d8 bc d3 87 ee bd 90 a0 aa 3d 63 5e 29 bd
       -0.026488058 -0.11647 0.08331406 -0.04134978
000220 3c 57 b5 bd 8b db 26 be 0a ce 9f 3d 56 3a d0 bd
       -0.08854529 -0.16294686 0.07802971 -0.10167377
000230 0f 19 f6 bd 45 01 bc 3d 3d 32 5c 3c 42 3a 31 be
       -0.12016498 0.0917993 0.013439712 -0.1730738
000240 f9 d5 c5 bc ea b9 6e bd 4c 8b f7 bd 1b ed a1 bd
       -0.024149882 -0.05828277 -0.12087116 -0.079065524
000250 c5 d7 82 3d 5d 1c 28 3c ac 81 c9 bc a1 6c 2a 3d
       0.06388811 0.010260669 -0.024597965 0.041607503
000260 81 66 0c 3b 75 07 0d bd a9 19 73 bc d9 06 27 3c
       0.0021423402 -0.03443094 -0.014837661 0.010194504
000270 e2 c7 66 bc 9a fa dc 3c 4b a8 5b bd 05 1f e4 bd
       -0.014085742 0.026974965 -0.053627294 -0.11138729
000280 a7 cc e0 bc 8c 1a 50 bd 22 0c 93 3d 6f 09 cb bd
       -0.027441336 -0.050806567 0.071800485 -0.09913909
000290 8b 8b 43 3d 33 6a ba 3b a3 e5 e2 bc b9 b7 14 bc
       0.0477405 0.0056889295 -0.02769739 -0.009077006
0002a0 99 d4 69 bc c8 ef 0e bd ec a6 0c bd 0a 6a 7e 3d
       -0.014271879 -0.034896642 -0.034338877 0.062112845
0002b0 0c 49 31 3d a7 2c 88 bc fa 16 ed bd cc 93 bc bd
       0.043282554 -0.016622854 -0.11576648 -0.092078775
0002c0 be e5 26 bd 6e 53 7c bd ec cc 9b 3d c0 19 bf bd
       -0.040746443 -0.061603002 0.07607445 -0.09331083
0002d0 30 f0 58 bd 21 4e 42 3d 64 7d c5 bd db c6 bc bc
       -0.052963436 0.04743779 -0.09643057 -0.02304404
0002e0 73 07 f7 bd 6d bb 16 3d fd 2e d5 3d 0a 5c 96 3d
       -0.12061968 0.036799837 0.10409353 0.07341774
0002f0 1c c0 4a 3d 85 a2 cd bd 28 4c 5e 3d 7a 56 d1 bd
       0.049499616 -0.10040764 0.054271847 -0.10221572
000300 96 a6 0a be 9a 1e 9e bc 89 49 95 bc 89 fb a5 3d
       -0.1354011 -0.019301701 -0.01822354 0.08104617
000310 a0 b0 1b bc 22 f1 ca ba f2 af 84 bd cb a5 c8 bd
       -0.00950256 -0.001548324 -0.064788714 -0.097972475
000320 39 63 03 be 2c 6d 02 bc 6c 71 d4 bc b0 25 22 3d
       -0.12830819 -0.007960599 -0.02593299 0.039586723
000330 7c 42 4a 3d 68 5d 31 bd c1 4f 13 bc bc 71 f6 bc
       0.04937981 -0.04330197 -0.008991183 -0.03008353
000340 a7 5b 07 bd c5 d1 4f bd 31 ce 96 bb 18 56 04 be
       -0.03304639 -0.05073716 -0.0046022166 -0.12923467
000350 a1 25 42 bc b0 08 1e 3d 47 f7 df bd 0b 66 98 3d
       -0.011849792 0.038582504 -0.10935836 0.07441338
000360 99 09 cc bb 6d a4 bb bd 42 1b fb bd cd 5d df bd
       -0.00622673 -0.09162221 -0.122610584 -0.10906563
000370 5d d4 89 3c cd 1b 24 bd 5a f0 1f bc 57 00 83 bd
       0.016824896 -0.040065575 -0.009761894 -0.06396549
000380 38 10 1e 3d 07 49 9b bd c9 17 49 be bc bb db 3c
       0.038589686 -0.07582288 -0.1963798 0.026822917
000390 7b 89 c0 bd 70 98 94 3c b8 93 50 bc 48 95 73 3d
       -0.09401222 0.018139094 -0.012730531 0.059468538
0003a0 0c c7 c7 bc d7 98 a2 bc d0 d5 e7 bd ef 8b 3a 3c
       -0.024386905 -0.01984827 -0.113200784 0.011385902
0003b0 f9 91 47 bd 23 67 a1 bd b5 d8 18 3d 3e 53 3e 3d
       -0.048723195 -0.07881 0.037316043 0.046466105
0003c0 ff d9 87 3d 97 5c 51 bd df 80 75 bd 08 78 0b be
       0.06633376 -0.05111369 -0.059937354 -0.13620007
0003d0 16 9f 96 bd b2 bf c8 bd d5 2b ab bd e6 76 6b bd
       -0.07354562 -0.09802188 -0.0835797 -0.057486437
0003e0 2f b2 97 3c 13 67 34 bd 2f 15 f5 bc e0 0b c9 bd
       0.018517582 -0.04404361 -0.029917328 -0.09816718
0003f0 d7 0a a5 bd f7 7d 32 bd e3 32 57 bd f7 92 41 be
       -0.08058708 -0.04357716 -0.052538764 -0.18903719

network.4.bias f4 [128]
000000 0e 9d 93 bd 92 1a 71 3d 31 d8 cc 3d 8a 6c 93 3d
       -0.0720769 0.05886323 0.10002173 0.071984366
000010 3b 43 2e 3d 66 4b 9c bd 2f 22 2f bd 45 18 1b bd
       0.042544585 -0.076315686 -0.04275721 -0.037864942
000020 ff 38 a6 bd c9 08 6f 3d e2 87 9d 3d d8 b1 30 3d
       -0.0811634 0.058357988 0.07691933 0.043138355
000030 d2 0f a0 3d fd 2a 17 3e 06 53 ae bd ce 6c 02 3d
       0.078155175 0.14762492 -0.08511929 0.031842045
000040 9e cb a9 3d d5 a8 42 3d ca 99 9e bc b5 2d 8f 3c
       0.0829079 0.047524292 -0.019360442 0.01747785
000050 8b 28 f0 bb 09 e8 d5 bd a2 13 d6 3b 68 ce e9 3a
       -0.007329052 -0.10444648 0.006533102 0.0017838003
000060 54 3d 64 3d 83 6e 9b 3d 93 fe ab 3d e0 5f 86 bd
       0.05572255 0.07589438 0.083981656 -0.065612555
000070 2a 32 94 bd 28 e2 2d bd c4 f2 5d 3d 38 30 84 3c
       -0.072361305 -0.042452008 0.054186597 0.016136274
000080 8c 75 92 3d 44 82 16 bd 6a bc 82 3c e2 03 85 bc
       0.071513265 -0.036745325 0.015958983 -0.016237203
000090 c6 8e 85 3d bb 86 b1 ba 54 6f c5 3c 16 a8 a3 3d
       0.065213725 -0.0013544181 0.024100937 0.07991044
0000a0 b0 8d 9e 39 8e c9 f9 bc 57 05 3e 3d 3d a0 0a 3d
       0.00030241674 -0.030491617 0.04639181 0.03384422
0000b0 19 f7 3a 3d a2 cb 36 3d 1c 3e 6b bd 85 df d3 bd
       0.045645807 0.044627793 -0.05743228 -0.10345367
0000c0 4f f4 44 3b 91 01 28 3d 16 cf 97 3c f6 34 a2 3c
       0.0030052846 0.04101712 0.018531363 0.019800644
0000d0 e5 7d 8c bd c5 14 fd 3c 4a c2 c7 bc 0f 3c 9c bd
       -0.0685995 0.030893693 -0.024384636 -0.07628643
0000e0 d4 a4 02 bd e6 3a df bc 5e 55 25 bc 61 20 d6 bc
       -0.031895474 -0.027249765 -0.010091154 -0.026138486
0000f0 86 bf 57 3d 92 a8 e6 3c 98 61 4b 3d b5 46 ba 3c
       0.052672885 0.028156552 0.04965362 0.022738794
000100 81 07 a6 3d 10 5f 08 bc 12 cc 9f 3d 5e 7e 41 3d
       0.081069 -0.008323446 0.07802595 0.047239654
000110 22 71 f3 bc 00 b9 d2 3d db 9e 77 ba 48 6e 3c bd
       -0.029717032 0.10289192 -0.00094459736 -0.04600361
000120 c8 11 73 3d fd 3b 95 bd 8c 5f 8a bd 48 a7 c8 bd
       0.05934313 -0.072868325 -0.06756505 -0.09797531
000130 96 73 e3 bc 7d 81 8f 3d 44 d4 7c bd 97 b8 08 bd
       -0.027765077 0.0700712 -0.06172587 -0.033379164
000140 0b b1 cd 3c ca d5 51 3d 7d 2d 80 ba b9 40 0b 3d
       0.025108835 0.051229276 -0.0009779182 0.03399727
000150 87 80 7a bb 95 84 c8 3d 93 0a 73 3c d9 94 45 3d
       -0.003822358 0.09790913 0.014834064 0.048237655
000160 cd f8 0a bd 6c 15 68 bd 79 d4 07 bc 19 bb 91 bd
       -0.03392868 -0.056661054 -0.0082904035 -0.07115764
000170 d8 70 9d 3d 6f f2 c0 bd ee 22 6b bd 2a 25 29 3d
       0.07687539 -0.094212405 -0.05740636 0.041295208
000180 9a b7 84 3d 40 95 72 bd a6 80 64 bd c1 bd 65 3d
       0.06480332 -0.059224367 -0.05578675 0.056089167
000190 68 ec 22 3d 60 75 bf bc 6b 12 aa bd 81 4e 2b bc
       0.039776236 -0.023371398 -0.08304294 -0.0104557285
0001a0 ed ec af bd 46 29 4f bd 67 39 7b bd 52 59 09 bc
       -0.08590112 -0.05057647 -0.06133404 -0.008383112
0001b0 eb 23 95 3d 40 7c c3 b7 43 2b de 3d 23 c0 a3 bd
       0.072822414 -2.330367e-05 0.10848095 -0.079956315
0001c0 cf 8c 17 bd ce f2 b9 bd 30 a1 29 3d 22 75 3a 3c
       -0.03699952 -0.090795144 0.041413486 0.011380466
0001d0 45 19 80 bd c7 7f 0e bd 4a 05 11 3d 71 36 44 bd
       -0.0625482 -0.034789827 0.035405435 -0.047903482
0001e0 4f 5e 15 3d de b7 76 3d 9e db 2a 3d 96 bb 67 bc
       0.036466893 0.060233943 0.04171335 -0.014143845
0001f0 0d 44 11 bd c6 fd 2b bd c8 bb 89 bb 5f ea 8d 3c
       -0.03546529 -0.041990064 -0.0042032935 0.01732367

network.6.weight f4 [128, 128]
000000 3a 9e ae bc 8c ca 41 3d 15 c4 d2 ba 1a 8c b9 3c
       -0.021315683 0.047312304 -0.0016080166 0.022649813
000010 3d 2e 93 3d 8a 46 3e bd 14 19 72 bd 73 c3 a5 3d
       0.071865536 -0.04645399 -0.059105948 0.080939196
000020 84 18 1d 3e 42 f8 c0 3c 41 ac 39 bc 0c 15 81 3c
       0.15341383 0.023555879 -0.011332572 0.015757106
000030 c6 73 13 3d b3 c4 6d 3d bb ae b1 3d d1 eb 8b bd
       0.035999082 0.058048915 0.08675905 -0.06832088
000040 b4 c3 95 3d bf d7 ec 3d 83 a6 aa 3d 63 f8 55 3d
       0.07312718 0.11564588 0.08332541 0.052238833
000050 c6 b2 43 3d 76 38 b9 3b 30 ee 4b 3b d1 f9 9f bd
       0.047777914 0.0056524826 0.0031117313 -0.078113206
000060 21 b3 a2 3d 39 2f 4b 3d 9b 3c a9 bd 41 36 22 bd
       0.079443224 0.049605582 -0.08263513 -0.03960252
000070 4f 02 2a bd e1 b8 51 3c 2b 4b 5f bc 7f 46 ee 3d
       -0.041506108 0.012800426 -0.013628761 0.1163454
000080 91 b6 1a bb 9f cb 03 3e 44 c2 cb bd fc e4 31 3d
       -0.0023607353 0.12870644 -0.099491626 0.043431267
000090 c5 96 62 bd c3 a2 9b bd ad 2c fd 3d 97 34 b0 3d
       -0.055319566 -0.07599404 0.12362037 0.08603781
0000a0 91 07 71 3c 58 85 5f 3d 73 f7 a5 3d 79 7e 6d 3d
       0.014711277 0.054570526 0.08103838 0.05798194
0000b0 18 df ae bd d8 c0 01 bc 13 9e a5 bd 30 e7 05 bb
       -0.085386455 -0.007919513 -0.08086791 -0.0020431988
0000c0 cd 66 b2 3c 85 1a 49 bd 36 7a 83 3d 11 9b ae bd
       0.021777535 -0.049097557 0.06419794 -0.0852567
0000d0 59 20 ee 3d 52 e4 c1 3d 05 e0 80 bd 37 3f 5f bd
       0.116272636 0.09467377 -0.06292728 -0.054503646
0000e0 34 e0 ce bd e4 b5 9e bd 0f f3 e1 bd ca 49 03 3e
       -0.10101357 -0.07749537 -0.11032688 0.12821117
0000f0 12 2b 6d 3c 46 33 2b 3d 9b fa 97 3d ac d3 d6 bd
       0.014475601 0.041796945 0.07420846 -0.10489592
000100 db 42 c4 bc ce c6 77 3d 3a 05 df bd a7 de 6f bd
       -0.02395766 0.06049233 -0.10889669 -0.058561947
000110 ff 51 34 3d 03 c4 26 bc f3 31 47 bd c8 5c 7d bd
       0.04402351 -0.010178569 -0.04863162 -0.06185606
000120 bc 82 09 be b3 4b 43 bd 7d fe fb bc 76 15 94 3c
       -0.13428777 -0.047679614 -0.030760998 0.01807664
000130 b8 2f b0 bc de 87 22 bb e2 e9 df 3b 60 df c9 bc
       -0.02150713 -0.0024800221 0.006833301 -0.024642646
000140 71 ec b0 3d 23 94 36 3d 70 e4 75 3c 89 1b a4 bd
       0.086388476 0.044574868 0.015008077 -0.080130644
000150 e9 0f 7b bc 30 64 b2 3d f4 65 34 bd e2 85 c3 bd
       -0.0153236175 0.087105155 -0.044042543 -0.095470205
000160 4e d2 00 3e 8e 20 bb 3d da 5a 34 3d 54 e8 a9 b8
       0.12580225 0.09137069 0.044031955 -8.1018225e-05
000170 b5 68 06 3c 53 76 1c bd 5c 01 96 bd c2 42 5c bb
       0.008203675 -0.03819878 -0.07324478 -0.0033609127
000180 f7 58 46 3d 91 a6 02 be 2e a2 a0 bd 99 2d e9 3c
       0.048424687 -0.12758853 -0.07843433 0.028464125
000190 50 3f 34 be 07 0c 02 3e cc 74 32 3c 4c e4 b4 3d
       -0.17602277 0.126999 0.010892104 0.08832607
0001a0 58 40 1a bd 06 27 41 be f6 48 3f 3d d7 04 27 bd
       -0.03765902 -0.18862543 0.04670044 -0.0407761
0001b0 90 e2 89 bd 12 01 ee 3d 93 02 13 3d 96 12 2d bd
       -0.067326665 0.11621298 0.035891127 -0.042254053
0001c0 13 52 78 bc c4 21 f0 bd 87 8e c6 3e 50 d3 8e 3b
       -0.015156287 -0.1172519 0.38780615 0.0043586865
0001d0 4b 16 89 3c 17 a7 ec bd 1f c9 0f 3e b6 77 26 bd
       0.016734263 -0.11555307 0.14041565 -0.04064151
0001e0 b9 d7 7e 3d 76 42 e2 bc d9 b7 b7 bd 4f 71 98 bd
       0.062217448 -0.027619582 -0.08970613 -0.07443487
0001f0 d0 83 2b 3d 6a 2b 0c bd da 1e 0f 3e 73 57 63 bb
       0.041873753 -0.03422109 0.13976613 -0.0034689575
000200 2e 0d 83 3d 35 51 24 3e c0 a6 a1 3c 7f fa 3c 3d
       0.06398998 0.16046603 0.019732833 0.04613733
000210 40 fb 07 3d e0 a6 b0 3c de d9 39 b9 26 2d 8f 3c
       0.033198595 0.021563947 -0.00017724137 0.017477583
000220 c0 87 88 3d 76 8c ca 3d b0 f1 a3 bd ef 21 12 3d
       0.06666517 0.09890072 -0.080050826 0.035676893
000230 9f ed af bd b3 ad b5 ba 71 12 d7 3b f7 7d 8e bd
       -0.085902445 -0.001386097 0.0065634777 -0.0695762
000240 29 62 bb 3d 4a f4 9c 3d a7 37 2e 3e 45 4b 3a bd
       0.09149582 0.07663782 0.17013417 -0.04548194
000250 38 db d1 bd 45 3f 76 bd 69 98 9d bb c0 29 20 bc
       -0.10246891 -0.060118932 -0.0048094285 -0.009775579
000260 c3 d6 fb 3c ed ea 90 3d 42 df bb bd a0 ff 97 bd
       0.030742055 0.070760585 -0.091734424 -0.074218035
000270 6d 67 79 3d 67 15 80 3d 5b 39 37 3c af 62 23 3b
       0.06088965 0.06254082 0.011183108 0.0024930646
000280 e2 56 76 bc 3c cf c3 3d dc 51 34 3d 40 d9 97 3d
       -0.015035363 0.09561011 0.04402338 0.07414484
000290 4f cc ab 3b 2e 6e 19 bd b2 44 b3 bc e0 9b 7d 3b
       0.0052428613 -0.03745859 -0.021883342 0.0038697645
0002a0 f6 d4 6c bd cf 90 15 3d 31 5e 19 bc fd b3 d1 3d
       -0.057820283 0.036515053 -0.009360836 0.10239408
0002b0 e0 7d 34 be 12 58 47 3d cf f4 a9 bd 4e d9 05 bc
       -0.17626143 0.048667975 -0.08298647 -0.008169485
0002c0 03 a4 8c bd e6 49 c4 bd 6c c5 48 3d b8 05 1d bc
       -0.0686722 -0.095844075 0.0490164 -0.009583883
0002d0 af 6f 05 3d 3f b2 3c bd 78 75 b8 bd e7 79 11 bd
       0.032577213 -0.046068426 -0.090067804 -0.035516646
0002e0 d8 b9 44 be da 52 5e 3d b8 50 33 3d 23 c5 79 3c
       -0.19211519 0.054278232 0.04377815 0.015244755
0002f0 d4 b6 01 bd 82 b7 fd bc 5c 3b 8b bd 4b bf d5 bb
       -0.0316685 -0.030971292 -0.06798431 -0.006523048
000300 09 fa 57 bd 47 e9 d4 bc 19 e9 04 be b3 5d 33 3d
       -0.052728686 -0.025990142 -0.12979545 0.04379053
000310 3f 9e 4f 3d 8d 1b 71 bc 83 a5 67 bc 7e cb 7b 3d
       0.050688025 -0.014716041 -0.014138582 0.061473362
000320 db f3 0b bc 5a 2f 33 3d 08 a8 c3 bb fc 41 7b 3d
       -0.008542026 0.04374633 -0.0059709586 0.061342224
000330 65 f1 46 3d 6d fb 9e bd 14 e9 2f 3d b7 00 c5 3b
       0.048570056 -0.077627994 0.04294689 0.006012048
000340 bd f1 bf bc 10 3f d5 3c d8 26 97 bd c4 e1 62 bc
       -0.0234307 0.026031047 -0.07380456 -0.013847772
000350 ce 06 60 bd 62 81 4e 3d d3 0c 85 3d be 7e f6 bd
       -0.05469399 0.050416358 0.06496587 -0.12035893
000360 34 0e c5 3d ca 55 2c bc 21 86 36 3d 96 94 0b bb
       0.0962185 -0.010518501 0.04456151 -0.002129828
000370 f2 18 9c bd e4 14 f9 bd 04 e4 e5 bc ff 73 15 3e
       -0.076219454 -0.12162188 -0.028062828 0.1459503
000380 bb 2c 5d 3d e1 56 be bd b3 d9 9f bc 80 c3 bc 3b
       0.053997736 -0.092939146 -0.019512987 0.00576061
000390 0a d7 4d bd 3f dd 83 3d 33 58 5c 3c 95 59 2c bd
       -0.050253905 0.06438684 0.013448763 -0.04207762
0003a0 93 5b 62 bd c9 58 4f 3c 02 ac 82 bd 13 bc f8 bd
       -0.055263113 0.012655445 -0.06380464 -0.12145247
0003b0 6a fa a1 bd 87 26 37 3d a7 13 bf bd 54 d9 7e 3d
       -0.07909091 0.044714477 -0.0932992 0.06221898
0003c0 3a c8 84 3d 21 71 1f bd 7e e1 82 3e 7b ba 84 bc
       0.06483503 -0.038926248 0.25562662 -0.016202202
0003d0 96 5c 06 bd 70 90 bb bd fd c0 21 3d 77 0e 03 bd
       -0.03280314 -0.09158409 0.03949069 -0.031996217
0003e0 42 05 81 bd 17 cc 9e 3b 73 89 3e 3c d6 2c 42 be
       -0.06299831 0.0048461067 0.01162945 -0.18962416
0003f0 54 20 2c 3c cf eb 00 3d 92 8f d3 3d 9b 54 33 3d
       0.0105057545 0.031474885 0.10330118 0.043781858

network.6.bias f4 [128]
000000 34 7e ce 3d b3 88 86 3c fc 10 4e bd 40 ae d1 ba
       0.10082665 0.016422605 -0.050309166 -0.0015997365
000010 4b 1c ba bd e2 3e a4 3d db 59 a3 3c 0b 71 a6 3d
       -0.09087428 0.080198064 0.019940307 0.0812703
000020 b7 63 8d bd a4 b5 bd bc e3 ab 39 bc 04 d7 ab 3d
       -0.06903785 -0.023157902 -0.011332485 0.0839062
000030 34 6f 92 3c f1 37 bf bd 1e 65 01 bd c4 32 ba bd
       0.017875291 -0.09336842 -0.031590573 -0.09091714
000040 65 28 be bd 5b 08 8c 3d be 27 3a bd 5f 35 b8 3d
       -0.092850484 0.06837531 -0.045448057 0.08994555
000050 d6 13 21 bc 76 70 87 3d e3 41 16 3c 50 9b 95 3d
       -0.009831389 0.06613247 0.009170982 0.07305014
000060 0c 05 7e 3d 7c fc 2b 3d 7a b7 b6 3c 40 fd 08 3d
       0.06201653 0.041988835 0.022304285 0.033444643
000070 ac e9 08 3d 3c 4e 22 bd b9 40 ff 3c 39 0f 89 bc
       0.033425972 -0.03962539 0.031158792 -0.016730892
000080 18 3c b4 bd 6b ef c6 bd 1a 0e 83 bd a3 0a eb bc
       -0.088005245 -0.09713634 -0.06399174 -0.028691595
000090 4c 3a be 3d df ba 91 3d 45 ed cd 3d 74 bb 5e 3d
       0.09288463 0.07115721 0.10055021 0.054377988
0000a0 1c af aa 3b 03 0e f1 3b 59 5b 56 bb 3e 41 24 3d
       0.005208863 0.0073564067 -0.0032708256 0.040101282
0000b0 67 b9 8c 3c 17 c4 a5 3d 1f 6f bc bc 04 ff 82 3d
       0.01717825 0.08094042 -0.023002205 0.063962966
0000c0 39 2b b5 3d a8 fd 4c 3d 52 50 84 3d d9 bd 8f 3d
       0.08846135 0.050046593 0.064606324 0.070186324
0000d0 4d 85 28 bd 69 8c b7 3d 24 13 9c 3d 41 11 8d 3d
       -0.04114275 0.08962328 0.07620838 0.068880565
0000e0 5b 1f 0e 3d d0 68 a5 3d ad ab c7 bd 90 63 95 bd
       0.03469787 0.08076632 -0.097495414 -0.07294381
0000f0 cd 53 2d 3d 7d 09 63 bd 8d 65 dc bc 8f da 2f bd
       0.042316247 -0.05542897 -0.026903892 -0.042933043
000100 48 ba 2d bd ec f1 6f 3d 61 53 8c 3d 0c 53 26 3d
       -0.04241398 0.058580324 0.06851841 0.040606543
000110 bc 54 b9 bd 41 4d 8c 3c 09 38 1f bc 02 73 6e 3d
       -0.09049365 0.017126681 -0.00971795 0.05821515
000120 4c f6 a7 3d 6e 53 0f 3d c7 3a bd 3d 74 3c 09 bd
       0.08201274 0.034991674 0.092397265 -0.03350492
000130 a6 73 f5 3c cd 5f e8 bb 99 90 46 3c c0 4b 5b 3d
       0.029962372 -0.0070914985 0.012119436 0.053539038
000140 b8 e0 b9 bd cb 76 82 3d a4 74 e2 3d 16 88 6d 3d
       -0.09076065 0.06370314 0.11057404 0.05799111
000150 ab f4 8b bd d7 a5 8a bd eb 83 be 3d c1 19 c4 bd
       -0.06833776 -0.06769913 0.09302505 -0.09575225
000160 32 5b 8e bd 7b ba 09 3d 94 ad ac 3d 82 59 a4 bb
       -0.06950988 0.033625107 0.08431545 -0.005015553
000170 ef a2 b0 3d 0c 6c 31 bd 19 97 cb 3b 33 16 cc 3c
       0.08624827 -0.043315932 0.0062130806 0.02491293
000180 8c 91 e4 3d 82 ce 8e 3b 87 2a f2 bc 9b 89 80 3d
       0.11160573 0.0043581137 -0.029561294 0.06276246
000190 fd 6d 3a bd b1 38 0b 3c 1d 7b ab 3d 77 66 3d 3d
       -0.04551505 0.008497403 0.08373091 0.046240296
0001a0 18 d2 17 bc 84 0e 45 bd bc 8a a8 3d 15 2f 04 bd
       -0.009266399 -0.048109546 0.082295865 -0.032271463
0001b0 82 2a 1b bd 6b 18 92 3d 45 e2 9f 3d 8f 56 3d 3d
       -0.037882335 0.071335636 0.07806829 0.046225127
0001c0 28 26 d4 3d 58 dd 60 3d e9 57 81 bd b9 44 9c 3c
       0.1035884 0.05489859 -0.06315596 0.019075738
0001d0 73 e5 34 bd 46 52 ed 3d d0 9b d5 3d 5a 8f bd 3d
       -0.044164132 0.11587958 0.104301095 0.09255858
0001e0 1c c5 b1 bd 9d 5e 48 bd 4d 2a db bd 2d 33 6d 3b
       -0.08680174 -0.048918355 -0.107014276 0.0036193833
0001f0 a5 c6 ff 39 1b d6 b5 3d 06 3c a0 3d 3e a9 49 bd
       0.00048785392 0.08878728 0.078239486 -0.049233668

network.8.weight f4 [1, 128]
000000 ba dc 3d be a7 88 7f bd 7d ad b1 3d ba 39 7d 3d
       -0.18541232 -0.06238618 0.086756684 0.06182263
000010 51 f0 61 3d 0a 43 3c bd 25 a3 49 3a 71 2e 27 be
       0.055160824 -0.04596237 0.0007691852 -0.1632631
000020 42 b2 41 bc 08 62 11 3e 04 a5 ca bd ad b5 21 bd
       -0.011822285 0.14197552 -0.098947555 -0.0394799
000030 6a 46 ed 3d 34 3b 9e bd 09 0f d2 3d db 69 3c bc
       0.11585696 -0.07726136 0.10256774 -0.011499847
000040 a9 a8 d7 bb 39 44 eb bd c1 08 05 bd 8a c4 21 be
       -0.006581385 -0.11487622 -0.03247905 -0.1579763
000050 4f f2 a9 3d cc 6d ea 3d 25 4e 09 3d 33 ce 16 3e
       0.0829817 0.11446723 0.03352179 0.14727096
000060 a2 1a 99 bd 5d 73 b8 bd 54 c1 86 bd e2 e2 88 bd
       -0.07475783 -0.09006379 -0.06579843 -0.066838995
000070 81 cb 14 be 6e f5 24 3d c5 dd 0c 3e 98 3c a5 3d
       -0.14530756 0.040273122 0.13756473 0.08068198
000080 0b 38 68 bd 67 c2 c3 bd fd 8c 34 bb f9 3e 23 bd
       -0.05669407 -0.09558564 -0.0027549856 -0.039854977
000090 14 1e ff bd bc 18 e2 3d 1c 6d bb 3d 80 18 bf 3d
       -0.12456909 0.11039874 0.0915167 0.09330845
0000a0 1a f7 6c bd 13 af 8f bd 59 b3 ef bd 8f 78 a0 bd
       -0.057852842 -0.07015815 -0.1170413 -0.07835495
0000b0 e0 5e be bd e8 9a 20 3e 04 e5 55 3d 57 00 38 3d
       -0.0929544 0.15684092 0.05222036 0.0449222
0000c0 dd c4 aa bd d2 64 06 3e bd 6b ac bd 95 26 fc 3d
       -0.0833833 0.13124397 -0.08418987 0.123120464
0000d0 83 54 a3 3d fd dc 1d be d3 64 a1 bd ae 1e 73 bd
       0.07975104 -0.15416332 -0.07880559 -0.05935543
0000e0 5c a3 c4 3d f9 72 a6 bd f1 78 c3 3c 30 30 87 3c
       0.09601471 -0.08127398 0.02386138 0.01650247
0000f0 df eb c5 3d 7a 99 68 bd b2 0a a7 bd 27 75 d8 bd
       0.096641295 -0.05678699 -0.08156337 -0.1056922
000100 74 e4 8c bd 0c ff de 3d 9f ea 52 3d 81 e5 40 be
       -0.068795115 0.1088849 0.051493283 -0.18837549
000110 77 e0 f7 bc 2c 90 cb 3d fd 2e d8 bd 15 62 87 3d
       -0.0302584 0.09939608 -0.10555837 0.066105045
000120 f2 c5 77 be ec 42 db bd 4a 08 76 bd a6 00 b6 3d
       -0.24196604 -0.10706124 -0.0600665 0.088868424
000130 30 e8 8f 3d d4 59 ba 3d f0 dd 88 bd 85 68 6a 3d
       0.07026708 0.090991646 -0.06682956 0.057228584
000140 11 24 84 3d c4 ba bb bd b1 3f 02 be 33 78 c2 bd
       0.064521916 -0.09166482 -0.12719609 -0.094955824
000150 97 42 30 bd 8b 2b 85 bd 18 f5 b4 bd 89 52 28 3d
       -0.043032255 -0.06502446 -0.088358104 0.041094337
000160 7d f6 a2 3c 4f e1 06 3e dc 13 0a 3e 6f 9c 88 bd
       0.019892925 0.13171886 0.13484138 -0.06670462
000170 fd ec 6f 3d 8e 0f e4 bc 63 b7 9f 3d 2e 1d ff bd
       0.05857562 -0.027839448 0.0779865 -0.124567375
000180 a5 61 29 3e 39 42 67 bd cf 60 1e bd 4a 9c 9d bd
       0.16541155 -0.05645964 -0.038666543 -0.076958254
000190 28 ab ef 3d f0 4a 92 bd f0 a9 6f bd af 0f fb 3d
       0.11702567 -0.071431994 -0.058511674 0.12258851
0001a0 cf be ec 3d 9f 93 8a bd 83 44 90 bd c6 59 05 3e
       0.11559831 -0.06766438 -0.070443176 0.13022527
0001b0 90 5e 82 bd b8 82 ec bd fe e1 83 3d 03 de ec 3d
       -0.063656926 -0.1154837 0.06439589 0.11565783
0001c0 c0 56 08 3e e3 6d d9 3d 8c 41 a8 bd 8a 07 95 bd
       0.13314342 0.10616662 -0.08215627 -0.072768286
0001d0 b7 41 b4 3d 54 45 77 be 53 86 fe bd 44 72 fc bd
       0.088015966 -0.2414754 -0.12427964 -0.12326482
0001e0 d6 58 e7 bc b0 b4 69 bd 06 7b d5 bd 19 53 9e bd
       -0.028240602 -0.057057083 -0.104238555 -0.07730693
0001f0 d7 36 d9 3d 34 31 dc 3d b1 7e ec bd 22 a4 8d bd
       0.10606163 0.10751572 -0.11547602 -0.069160715
