reports/CartPole/cartpole_nn_ppo/001/policy.pt (torch, 276050 bytes, 14 tensors)

network.0.weight f4 [128, 5]
0	0x3f118268	0.5683961
1	0x3db1c82d	0.086807586
2	0x3f300b6e	0.6876744
3	0x3e6682fc	0.22510904
4	0x3eb2112f	0.34778735
5	0x3dcd0805	0.10011295
6	0x3e5c731d	0.21528287
7	0x3f2e5a75	0.68106776
8	0xbe45f654	-0.19332248
9	0x3e3e5026	0.18585262
10	0xbea5ebd5	-0.32406488
11	0xbd1c5f80	-0.038177013
12	0x3e716f26	0.23577556
13	0xbee76378	-0.45193076
14	0xbe4d917b	-0.20075028
15	0xbecaf6e4	-0.39641488
16	0xbe8976d9	-0.26848486
17	0x3e324085	0.17407425
18	0x3e5c987f	0.21542548
19	0xbe4dc9f3	-0.20096569
20	0x3c2f7a78	0.010710351
21	0x3ead9d23	0.33908948
22	0x3f0062e5	0.501509
23	0x3e1ee77a	0.15517989
24	0xbdf5202a	-0.119690254
25	0x3eb22a3b	0.34797844
26	0x3e3fb8f6	0.18722901
27	0xbed056cb	-0.40691218
28	0xbdffb2ea	-0.12485297
29	0xbdd396c6	-0.10331492
30	0x3ec26902	0.3797074
31	0x3ea9d42b	0.33169684
32	0x3f3e163a	0.74252665
33	0x3e69abf6	0.22819504
34	0x3e89047a	0.26761228
35	0xbdc45cab	-0.095879875
36	0x3ea017ba	0.31268102
37	0xbeae4912	-0.34040123
38	0xbe4e9b72	-0.20176485
39	0x3b98b3c6	0.0046601025
40	0xbe45d288	-0.19318593
41	0x3dc09e7c	0.094052285
42	0xbf095dce	-0.5365876
43	0xbe9698c7	-0.29413435
44	0x3e943743	0.2894841
45	0xbdf1da77	-0.11809247
46	0xbd87edc3	-0.06637146
47	0xbf387436	-0.72052324
48	0xbd23303a	-0.039840914
49	0xbe15224f	-0.14563869
50	0x3e2a7401	0.16645814
51	0x3e84d385	0.25942627
52	0x3dd313f3	0.103065394
53	0xbe828318	-0.25490642
54	0xbe86dbc0	-0.2633953
55	0xbd91196e	-0.070849285
56	0x3e923575	0.2855641
57	0x3eef8a91	0.46785405
58	0xbedb33d4	-0.4281298
59	0x3e40ddd8	0.18834627
60	0xbeb6c292	-0.3569532
61	0xbd404ea3	-0.046949994
62	0xbefe324f	-0.49647757
63	0x3e47ecf1	0.1952398
64	0xbc2b9db8	-0.010474615
65	0xbeb3bae1	-0.35103515
66	0x3ea1f03a	0.3162859
67	0xbefe05af	-0.4961371
68	0xbeaf2d79	-0.3421438
69	0x3e3e5b9b	0.18589632
70	0xbe4fe08a	-0.20300499
71	0x3e78f35d	0.24311586
72	0x3ec4acac	0.38412988
73	0x3ed5582e	0.41668838
74	0xbe8d7a65	-0.27632442
75	0xbea8a776	-0.32940263
76	0x3e41edb4	0.18938333
77	0xbe8cb89c	-0.27484596
78	0xbe16242b	-0.14662234
79	0x3ca03afa	0.019559372
80	0xbdfe1732	-0.12406768
81	0xbec2fad4	-0.38081992
82	0xbe6894aa	-0.22712961
83	0xbd69df7a	-0.05709789
84	0x3ed65b77	0.41866657
85	0x3e9e6511	0.30936483
86	0x3e890472	0.26761204
87	0x3dc37a95	0.09544865
88	0xbede3609	-0.434006
89	0x3e24fe31	0.16112591
90	0xbec16245	-0.37770286
91	0x3f05947b	0.5217969
92	0xbef88f51	-0.48546842
93	0x3e0e201c	0.13879436
94	0xbe82a16e	-0.25513786
95	0x3f13163e	0.57455814
96	0x3e5b61be	0.21424004
97	0x3f2c4e7d	0.67307264
98	0x3df9c589	0.1219588
99	0x3e0fbe12	0.1403735
100	0x3e2fad4b	0.1715595
101	0x3e6c290f	0.23062538
102	0xbf2a939b	-0.6663148
103	0x3eddd95b	0.43329892
104	0xbd97929a	-0.07401009
105	0x3e2830ec	0.16424912
106	0x3e13cf92	0.1443465
107	0xbeb5f537	-0.35538647
108	0x3e825ce0	0.25461483
109	0xbe8c03ea	-0.27346736
110	0xbf25a09d	-0.646982
111	0x3ee50630	0.44731283
112	0xbd6d4d0c	-0.057934806
113	0x3e2a409d	0.1662621
114	0x3d3534ae	0.044239692
115	0x3e5cebba	0.21574298
116	0x3dc796c5	0.09745554
117	0x3e3db685	0.18526657
118	0xbed59841	-0.41717723
119	0xbed7f83f	-0.42181584
120	0xbec580f2	-0.3857494
121	0x3e94fe72	0.29100376
122	0xbe116c33	-0.14201431
123	0xbef5cdac	-0.48008478
124	0x3e8cd27f	0.27504346
125	0xbe147277	-0.1449679
126	0x3ded1662	0.11576535
127	0x3e43cad5	0.19120343
128	0x3eb9b219	0.3626869
129	0x3e26d13c	0.16290754
130	0x3eb74db7	0.3580148
131	0xbe241d60	-0.1602683
132	0x3e90e1d8	0.28297305
133	0x3ce501f1	0.027955027
134	0xbe8165a3	-0.25272855
135	0x3e80db85	0.2516748
136	0xbd59bb99	-0.053157423
137	0x3f0c74f2	0.54865944
138	0x3e5a0677	0.21291529
139	0x3f039cd3	0.5141117
140	0xbe8c7e74	-0.27440226
141	0xbe8aecfe	-0.27133936
142	0xbe8283f3	-0.25491294
143	0xbd417bf9	-0.04723737
144	0xbeb3a9d6	-0.35090512
145	0xbeaaf9cf	-0.33393714
146	0xbe1929f8	-0.14957416
147	0xbe4cc75c	-0.19997925
148	0x3eac7319	0.33681563
149	0xbdda1dee	-0.1065024
150	0xbe77229d	-0.24134298
151	0x3ee21e96	0.4416396
152	0x3e56978c	0.20956248
153	0x3f0ac66b	0.5420901
154	0xbe6f3bae	-0.2336261
155	0x3eb0c890	0.34528017
156	0x3e924879	0.28570917
157	0xbd2e50ff	-0.042557713
158	0xbe421819	-0.18954505
159	0x3ee023fa	0.43777448
160	0x3ea376ad	0.3192648
161	0x3ebafc3f	0.36520573
162	0x3f398381	0.72466284
163	0x3eee8988	0.46589303
164	0x3ed992f5	0.42494932
165	0xbe5c7f03	-0.21532826
166	0x3ee56910	0.4480672
167	0x3f0e8412	0.55670273
168	0xbe69712b	-0.22797076
169	0x3eaa4a7a	0.33259946
170	0xbe496d3d	-0.19670577
171	0x3e848ce2	0.25888735
172	0xbe91e8f0	-0.2849803
173	0xbd8d17e9	-0.06889326
174	0x3e6b9eb6	0.23009762
175	0x3eb9538f	0.36196563
176	0x3d9dd83f	0.07707261
177	0x3e60be48	0.21947587
178	0xbefae893	-0.49005565
179	0xbe525132	-0.20538786
180	0x3d01e609	0.03171352
181	0xbf2b88e9	-0.67005783
182	0xbf143094	-0.57886624
183	0x3c023c95	0.007949014
184	0xbeb3c8eb	-0.35114226
185	0x3e32cd62	0.1746116
186	0xbd934993	-0.071917675
187	0xbe9b0f95	-0.30285326
188	0x3ebde255	0.3708674
189	0x3e84808b	0.2587932
190	0x3dd0a2e4	0.10187319
191	0x3b759697	0.0037473792
192	0x3f34026d	0.703162
193	0x3decf7e2	0.115707174
194	0x3ef08792	0.46978432
195	0x3e789ae7	0.2427784
196	0x3db98335	0.09058229
197	0x3d9ec460	0.07752299
198	0xbe5dc4ce	-0.21657106
199	0xbdbd748d	-0.09250746
200	0x3eedfc1e	0.46481413
201	0x3e5cb178	0.21552074
202	0xbe34d520	-0.17659426
203	0x3d9f8070	0.077881694
204	0x3de8a4d7	0.11359566
205	0xbf067cea	-0.52534354
206	0x3cad369e	0.021144208
207	0x3d681ab0	0.056666076
208	0x3ee63efb	0.44969925
209	0xbd9aa93a	-0.07551809
210	0xbd8ee8e6	-0.069780156
211	0xbd4baf3f	-0.049727675
212	0x3f1410ab	0.57837933
213	0x3d6d491f	0.05793106
214	0x3ea79125	0.32727924
215	0x3e2ed010	0.17071557
216	0xbeca95d1	-0.39567426
217	0x3e756d42	0.2396746
218	0x3e61281d	0.21987958
219	0x3e206043	0.15661721
220	0xbc860c5f	-0.01636332
221	0xbeb3a8c4	-0.35089695
222	0xbeee2fc6	-0.46520823
223	0xbe862a6f	-0.2620425
224	0xbeae7e8e	-0.3408093
225	0xbea5f66d	-0.3241457
226	0x3edccc85	0.43124786
227	0x3f0ec8ca	0.5577513
228	0xbdc92c9e	-0.09822963
229	0xbecde131	-0.4021087
230	0xbf001cdd	-0.5004404
231	0xbe8f4fe6	-0.27990645
232	0x3ed4bd07	0.41550466
233	0xbd66cd14	-0.05634792
234	0xbe0efc15	-0.13963349
235	0x3ee1c861	0.4409819
236	0x3e4d1eb0	0.20031238
237	0xbe149a38	-0.14511955
238	0x3eddd507	0.4332659
239	0x3e355f1e	0.17712066
240	0x3f0e3c6c	0.55560946
241	0x3c732a77	0.014841667
242	0xbdeeed64	-0.116663724
243	0xbe501437	-0.20320211
244	0xbe766807	-0.24063121
245	0x3e3fdd05	0.18736656
246	0x3e8b9e4e	0.27269214
247	0xbcc598c5	-0.024120698
248	0xbeaa80e7	-0.3330147
249	0xbdc315aa	-0.095256165
250	0xbc9e607c	-0.019333117
251	0x3e0f3fa8	0.13989127
252	0xbdcb10b4	-0.09915295
253	0xbebff54b	-0.3749183
254	0xbdac732f	-0.08420407
255	0x3dee4449	0.11634118

network.0.bias f4 [128]
0	0xbe9d9899	-0.30780485
1	0x3df08018	0.11743182
2	0x3e8a94ba	0.27066594
3	0xbe2bfb60	-0.1679511
4	0x3e55f950	0.20895886
5	0xbe155228	-0.14582121
6	0x3ec44e61	0.38341048
7	0xbece97c2	-0.40350157
8	0x3de98ca4	0.11403778
9	0x3e987f43	0.29784593
10	0xbea60343	-0.32424363
11	0x3eb5af31	0.35485223
12	0xbde0158b	-0.10941609
13	0x3e69e3fc	0.22840875
14	0xbec43c71	-0.38327363
15	0xbeaf0fd5	-0.34191766
16	0xbe20c118	-0.1569866
17	0x3ec5e1d5	0.3864886
18	0xbe67902c	-0.22613591
19	0x3e88fb23	0.26754102
20	0x3e87b319	0.26503828
21	0xbe582d97	-0.21111141
22	0x3d3e7a9e	0.046503656
23	0x3e083080	0.13299751
24	0xbd9a5054	-0.075348526
25	0xbeeeca4d	-0.46638718
26	0x3e02768f	0.12740539
27	0xbe04bf28	-0.12963545
28	0x3dac8832	0.08424415
29	0x3e806fa2	0.2508517
30	0xbe096311	-0.13416697
31	0x3d171f26	0.03689494
32	0xbeaed0a7	-0.34143564
33	0x3e3860cc	0.18005675
34	0xbe7ab0ef	-0.24481557
35	0xbe8c9fe7	-0.27465746
36	0xbe7ab64a	-0.244836
37	0x3ec0de08	0.37669396
38	0xbd8dae93	-0.06918063
39	0x3eafaf19	0.34313276
40	0x3db1c8b0	0.08680856
41	0xbe785324	-0.24250466
42	0xbd155164	-0.036454573
43	0xbb9a3201	-0.004705668
44	0x3e2d3c9a	0.16917649
45	0x3ede5d28	0.43430448
46	0xbeddca2d	-0.4331831
47	0x3e6d58b2	0.23178366
48	0xbe11c67d	-0.14235874
49	0xbe09216b	-0.13391654
50	0xbea451e1	-0.3209372
51	0xbeabbbdb	-0.3354176
52	0x3e378146	0.17920408
53	0xbe674560	-0.22585058
54	0x3ec08904	0.37604535
55	0xbe165ff1	-0.14685036
56	0x3e5affe0	0.21386671
57	0xbed57b7d	-0.41695777
58	0xbe5c2753	-0.21499376
59	0x3e4f509e	0.20245597
60	0xbea4ce0f	-0.3218846
61	0xbc8b7ff0	-0.017028779
62	0x3e0fa6db	0.14028494
63	0x3e47bb5f	0.1950507
64	0x3c3393da	0.0109605435
65	0x3ed760a3	0.42065915
66	0xbd261404	-0.040546432
67	0x3e10532d	0.14094229
68	0xbeb2b0c2	-0.3490048
69	0xbe2775d7	-0.16353546
70	0xbdf03320	-0.11728501
71	0xbe702cf6	-0.23454651
72	0x3d1e44ee	0.038639955
73	0xbe8d0608	-0.27543664
74	0x3caa8d4f	0.020819334
75	0x3ebad954	0.36493933
76	0x3dc1769a	0.094464496
77	0xbd2dd90e	-0.042443328
78	0xbed74b3b	-0.42049584
79	0xbd6a5a17	-0.057214823
80	0xbdc8b443	-0.09800007
81	0x3ea97e20	0.33104038
82	0xbe7a4686	-0.24440965
83	0xbec607e6	-0.386779
84	0x3e49ee4e	0.19719812
85	0x3e3dc873	0.18533497
86	0xbe8fbba6	-0.28072852
87	0xbecefa5d	-0.40425387
88	0xbdd00d6d	-0.10158811
89	0xbe05841a	-0.13038674
90	0xbe13713d	-0.14398666
91	0x3eca8fbd	0.3956279
92	0xbe81d660	-0.25358868
93	0x3e55f4ad	0.20894118
94	0x3e6dde59	0.2322935
95	0x3e5fec16	0.21867403
96	0x3eb4ff70	0.35351133
97	0x3ed2d38a	0.41177016
98	0x3d3c0450	0.04590255
99	0xbe02292d	-0.1271102
100	0xbc817051	-0.015800627
101	0x3eadfb70	0.33980894
102	0x3e815fa6	0.25268286
103	0x3d6fdb78	0.05855891
104	0xbe3c1118	-0.18365896
105	0x3e929f92	0.28637367
106	0x3e55a344	0.20863062
107	0x3e18fba1	0.14939739
108	0x3e05d7e8	0.13070643
109	0x3e7f061e	0.24904677
110	0x3cbd2adc	0.023091726
111	0x3e227cc0	0.15867901
112	0x3e475ce5	0.1946903
113	0xbb550ac7	-0.0032507645
114	0xbe9e8a2b	-0.3096479
115	0x3e96e2ce	0.29469913
116	0x3eb94f5b	0.36193356
117	0x3ee05a26	0.43818778
118	0xbeb678d8	-0.3563907
119	0x3dfe3bd4	0.12413755
120	0xbd2b2471	-0.0417828
121	0x3d973d45	0.07384733
122	0x3e98f3d5	0.2987353
123	0x3d53f567	0.051747706
124	0x3ced82a2	0.028992955
125	0x3e8a1b8e	0.26974148
126	0x3e2e0777	0.16995035
127	0xbc7a3a6c	-0.015272718

network.2.weight f4 [128, 128]
0	0xbd9793b6	-0.074012205
1	0xbdfcc8de	-0.12343
2	0xbd59aba0	-0.05314219
3	0x3ce4fdd1	0.02795306
4	0x3cfc9570	0.030832976
5	0x3d291678	0.041281193
6	0x3e0a17c6	0.13485631
7	0xbe067560	-0.13130713
8	0x3d87fbb7	0.06639808
9	0xbe0a3f91	-0.13500811
10	0xbe0b4f03	-0.1360436
11	0xbd20b75e	-0.039237373
12	0xbe02a296	-0.12757334
13	0xbda511aa	-0.0806001
14	0x3b46aa12	0.0030313772
15	0xbe2cf872	-0.1689165
16	0xbd6a86b9	-0.057257388
17	0xbc284199	-0.010269546
18	0x3d00d1a9	0.031449948
19	0x3dbfe123	0.09369113
20	0xbdbd58de	-0.09245466
21	0xbdb96a05	-0.09053425
22	0xbdb75e04	-0.08953479
23	0x3c0a0ca2	0.008425863
24	0x3d9b1966	0.07573204
25	0xbd5be5d0	-0.053685963
26	0x3d864bae	0.065574035
27	0xbd367ea7	-0.04455438
28	0xbdf6fef4	-0.12060347
29	0xbcd4ab58	-0.02596061
30	0x3dd370cb	0.10324248
31	0xbcfb5189	-0.030678527
32	0x3ca4273c	0.02003824
33	0xbd2f1d91	-0.042752806
34	0xbd7c2bb2	-0.06156511
35	0xbe1ecbc1	-0.15507413
36	0x3d899a72	0.06718911
37	0xbc0da90c	-0.008646261
38	0x3cf29fd0	0.02961722
39	0xbcb174d6	-0.021662157
40	0xbc68410c	-0.014175665
41	0xbc7c9c08	-0.01541806
42	0x3c9aad91	0.018881591
43	0x3d3a8db9	0.045545314
44	0xbd0345b3	-0.032048892
45	0xbd4ff631	-0.050771896
46	0xbd142981	-0.036172394
47	0x3d232b47	0.039836194
48	0xbc3a0bdc	-0.011355367
49	0x3d8c7da8	0.068599045
50	0x3d00b209	0.031419788
51	0x3d5c152f	0.05373114
52	0x3cb3ce6a	0.021949012
53	0x3de9b893	0.11412158
54	0x3d2acf50	0.041701615
55	0x3cb203e0	0.021730363
56	0x3cd5248a	0.0260184
57	0x3c97e5e1	0.018542232
58	0xbdb4da3f	-0.0883069
59	0x3d8d8b5f	0.069113486
60	0xbe06b83c	-0.13156217
61	0x3d07f290	0.03319031
62	0x3dfad81e	0.12248252
63	0xbc46d89d	-0.012136606
64	0xbe756bb8	-0.23966873
65	0x3d23ed5b	0.04002128
66	0x3da1075c	0.07862732
67	0x3d600c22	0.05469907
68	0x3d80b2c9	0.062841006
69	0x3c813904	0.015774257
70	0xbe19364a	-0.14962116
71	0xbc88bf74	-0.016692854
72	0xbd9ec2de	-0.07752012
73	0xbd58bc28	-0.052913815
74	0x3d8477c7	0.06468158
75	0xbd25cca4	-0.040478364
76	0x3bc9f840	0.006163627
77	0xbd702e38	-0.058637828
78	0x3d8fb2e2	0.07016541
79	0xbd02b026	-0.03190627
80	0xbd1a518a	-0.037675418
81	0x3cc8b74d	0.024501467
82	0xbd0ba366	-0.034091376
83	0xbcec9541	-0.028879764
84	0xbdc9678e	-0.098342046
85	0x3dc7be19	0.09753055
86	0xbdfa614e	-0.12225591
87	0xbb9e867a	-0.004837808
88	0x3da19152	0.07889046
89	0x3db4a57d	0.08820627
90	0x3b54907e	0.0032434757
91	0xbcbad165	-0.022804925
92	0xbe15c9b0	-0.14627719
93	0x3d8aa962	0.067705885
94	0xbdf2f59d	-0.11863253
95	0xbc1c66fa	-0.009546036
96	0xbd1d5300	-0.038409233
97	0x3c5d9a83	0.013525608
98	0xbc713f67	-0.014724589
99	0xbd5a90a4	-0.053360596
100	0x3cb97ec8	0.022643462
101	0x3ceb8319	0.028749036
102	0xbdd7a98f	-0.105303876
103	0x3d77e135	0.06051751
104	0x3c3ff6d5	0.011716564
105	0xbcb43e27	-0.022002293
106	0xbd6ca61c	-0.0577756
107	0xbd84698b	-0.06465443
108	0xbde4dcdb	-0.11174937
109	0xbd8f0d1e	-0.06984924
110	0xbd69c3ce	-0.0570715
111	0xbd515309	-0.05110458
112	0xbdf66fe7	-0.120330624
113	0x3d13555e	0.035970084
114	0x3d0a327d	0.033739556
115	0x3d202296	0.039095484
116	0x3d6cf1d1	0.0578478
117	0x3da35e92	0.07977022
118	0x3dc56ab6	0.09639494
119	0xbd5d5b17	-0.05404195
120	0x3d645cc5	0.055752534
121	0xbc40af50	-0.011760548
122	0xbb428495	-0.0029681076
123	0xbdc261ab	-0.09491285
124	0xbc6413ca	-0.013920734
125	0xbd85f7d4	-0.0654141
126	0xbd65353d	-0.055958975
127	0xbd8f5e02	-0.070003524
128	0xbc9b1bb7	-0.018934114
129	0x3da4de83	0.08050253
130	0xbd880522	-0.06641604
131	0x3ca0ce3b	0.019629588
132	0xbd52811b	-0.051392656
133	0xbaafc050	-0.0013408754
134	0xbc46ca49	-0.0121331895
135	0x3e0892e7	0.13337289
136	0xbd3b748d	-0.04576545
137	0xbd005c3f	-0.031337973
138	0x3d5ddd8e	0.05416637
139	0xbd5658a2	-0.05233062
140	0x3c703c77	0.014662853
141	0x3b267d56	0.0025404296
142	0xbdab176b	-0.08354076
143	0x3df55bb9	0.11980385
144	0x3d52e17d	0.051484574
145	0x3b6a28ab	0.0035729806
146	0x3b974691	0.0046165665
147	0x3d30a7a4	0.043128625
148	0x3b0a6aa8	0.00211207
149	0xbb9e1624	-0.0048244167
150	0xbdd0acfb	-0.101892434
151	0xbd4ff28c	-0.05076842
152	0xbcb6694a	-0.022267003
153	0x3d25c1cc	0.040468022
154	0x3b4dba47	0.0031391548
155	0x3c8d919d	0.017281348
156	0xbb5a32a8	-0.0033294354
157	0xbd737b51	-0.059443776
158	0xbd2c0a8d	-0.04200225
159	0x3cd26776	0.0256841
160	0x3dcd871d	0.100355364
161	0x3d91b041	0.07113696
162	0x3da00639	0.07813687
163	0x3d4a615b	0.04940925
164	0xbd1da14f	-0.038483914
165	0xbce710dc	-0.028206281
166	0xbd43ec7f	-0.047832962
167	0x3db92cf2	0.09041776
168	0x3d32f465	0.043690104
169	0xbdd1e5a5	-0.10248879
170	0x3cf17213	0.02947334
171	0xbcbf015f	-0.023316083
172	0x3daa21da	0.08307238
173	0xbdb83cf1	-0.08995999
174	0xbd4f9e94	-0.05068834
175	0x3d7c442c	0.06158845
176	0xbd536cb5	-0.051617343
177	0xbc87a490	-0.016557962
178	0xbacc6f5d	-0.0015597154
179	0xbd1909f0	-0.037362993
180	0x3d979bc5	0.074027576
181	0xbcb1dfc9	-0.021713154
182	0x3be254e6	0.0069070933
183	0xbd936846	-0.07197623
184	0x3b04e4ea	0.0020278045
185	0xbd857e16	-0.065181896
186	0x3da7c56f	0.08191954
187	0x3d8ad3d8	0.06778687
188	0xbd1ab5ab	-0.03777091
189	0x3d3d48ce	0.04621201
190	0xbd9269a2	-0.07149054
191	0x3d3a9bf3	0.04555888
192	0x3e001e30	0.12511516
193	0x3d83b867	0.06431656
194	0xbd532aaf	-0.051554378
195	0x3cc7e3a1	0.024400534
196	0xbb8b4e35	-0.0042512664
197	0xbd5c096d	-0.053719927
198	0x3d37a0cf	0.044831093
199	0xbd1073f0	-0.035266817
200	0xbdc56ff0	-0.09640491
201	0x3c54ba4b	0.012983869
202	0x3c8eb877	0.017421944
203	0x3cd7c5b6	0.026339393
204	0xbd80d9c2	-0.06291534
205	0x3cdcca6b	0.02695199
206	0x3d1744df	0.036930915
207	0x3cd2d6f8	0.02573727
208	0xbc8ad7db	-0.016948631
209	0x3db4917f	0.08816814
210	0x3d9d46a2	0.07679488
211	0xbcdc9c53	-0.02693001
212	0x3d143318	0.03618154
213	0x3c3d311e	0.011547355
214	0x3d6b18a4	0.057396546
215	0x3c1b3990	0.009474173
216	0xbd52259b	-0.051305395
217	0x3c06cf2b	0.008228104
218	0xbdb2567c	-0.08707902
219	0x3d308527	0.043095734
220	0xbd04c1d7	-0.032411423
221	0x3db1ccbd	0.08681629
222	0x3c5162ca	0.012779901
223	0xbcab3ed9	-0.020903992
224	0x3d70e2e1	0.05881012
225	0xbd234252	-0.03985817
226	0xbd284712	-0.041083403
227	0x3ca9faf6	0.02074955
228	0x3cbf277d	0.02333426
229	0x3d2f33d5	0.04277404
230	0x3deda587	0.116038375
231	0x3bb90e2a	0.0056474404
232	0x3d953374	0.072852045
233	0xbd95fb3e	-0.07323311
234	0x3b99a2be	0.00468859
235	0xbcb96c41	-0.022634627
236	0xbd70582f	-0.05867785
237	0x3db54d1b	0.08852597
238	0x3dba71a5	0.09103707
239	0x3d2b6081	0.04184008
240	0xbd902be0	-0.070396185
241	0x3d61aa3f	0.055094
242	0xbd57d1d4	-0.052690342
243	0xbd9519a6	-0.07280283
244	0xbd92bd13	-0.07164969
245	0x3d4aa5f6	0.04947468
246	0xbc9b56d9	-0.01896231
247	0x3d71eb59	0.059062336
248	0xbdb81ce4	-0.089898854
249	0x3c377d74	0.011199344
250	0xbd1f1e52	-0.038847275
251	0x3d79aa90	0.060953677
252	0xba15484d	-0.00056946726
253	0xbd4b8748	-0.04968956
254	0x3cde4a9f	0.027135191
255	0xbc944f03	-0.018104082

network.2.bias f4 [128]
0	0xbd8879dc	-0.06663868
1	0xbdb358d4	-0.08757177
2	0x3cc8e8f5	0.024525145
3	0xbdc113b7	-0.094275884
4	0xbd838837	-0.06422465
5	0x3cb98476	0.02264617
6	0x3d884bde	0.066550955
7	0x3d992ef1	0.074796565
8	0x3db006af	0.08595025
9	0x3dcf0c23	0.10109737
10	0x3d22bfe3	0.03973378
11	0xbc824819	-0.01590352
12	0x3cfc9273	0.030831551
13	0x3d643ea9	0.05572382
14	0x3d13d07d	0.0360875
15	0x3d6b6fb4	0.057479575
16	0xbc83a961	-0.016071977
17	0x3d1d6f5a	0.03843627
18	0xbd806e45	-0.06271032
19	0x3dcab35e	0.09897493
20	0xbd746090	-0.0596624
21	0x3d9d960a	0.07694633
22	0x3d3a8187	0.045533683
23	0x3da281cf	0.07934915
24	0x3d864d37	0.06557696
25	0xbdb1bf31	-0.08679045
26	0x3d4fb85e	0.050712936
27	0x3d09f695	0.033682425
28	0x3db70847	0.08937126
29	0xbcbdd0d6	-0.02317087
30	0x3d2c71e0	0.042100787
31	0x3d932338	0.07184452
32	0x3ce91ebb	0.028457036
33	0xbd309386	-0.04310944
34	0xbd9b7e1f	-0.07592415
35	0x3d55559e	0.052083604
36	0xbd498f4b	-0.04920892
37	0x3cc1cd81	0.023657562
38	0x3d5c6cd8	0.05381474
39	0xbcd50d27	-0.026007248
40	0xbd9ba14a	-0.07599123
41	0xbc354591	-0.011063949
42	0x3c602b11	0.013682143
43	0xbdb46851	-0.08808959
44	0xbcf74da5	-0.030188391
45	0x3c8a1aae	0.016858425
46	0x3d7ce676	0.061743222
47	0xbc2836b7	-0.010266951
48	0x3db9d783	0.09074309
49	0xbd89753f	-0.06711816
50	0x3d90e7fc	0.070754975
51	0x3c65bfe7	0.014022804
52	0x3d0deee7	0.034651663
53	0xbd222d02	-0.039593704
54	0x3d8e2196	0.0694
55	0xbd9a1daa	-0.07525189
56	0xbc814e0f	-0.015784292
57	0xbd701bf7	-0.05862042
58	0x3c2eaf67	0.010661936
59	0x3d9fd2a8	0.07803851
60	0x3c9677b6	0.01836763
61	0xbbfb18ab	-0.0076628528
62	0x3da4d871	0.080490954
63	0xbcf59a8d	-0.029980922
64	0xbdc7c89e	-0.097550616
65	0xbce8fc3c	-0.028440587
66	0x3da23a14	0.07921234
67	0x3d05b864	0.03264655
68	0xbb5ef8a7	-0.003402272
69	0x3dc9abbb	0.09847208
70	0xbcccb93d	-0.024990672
71	0x3dab9c95	0.08379475
72	0xbd3f4e81	-0.046705727
73	0x3bb9338a	0.005651896
74	0x3cfb78a0	0.030697167
75	0x3d8cd9d5	0.06877486
76	0xbd55f9c6	-0.052240156
77	0xbcade8e1	-0.02122921
78	0x3d3bcee6	0.04585161
79	0xbcc7b9aa	-0.024380524
80	0xbd2442fe	-0.04010295
81	0x3dbd04ff	0.092294686
82	0xbd234c29	-0.039867554
83	0xbcdf53af	-0.027261583
84	0xbdae9333	-0.0852417
85	0x3c901984	0.017590292
86	0xbd350633	-0.044195365
87	0xbce46708	-0.02788116
88	0xbdb4227a	-0.087956384
89	0x3d811d46	0.063044116
90	0xbd934dca	-0.071925715
91	0xbcf1f107	-0.029533876
92	0x3d421d69	0.04739133
93	0xbd38ee65	-0.045149226
94	0x3de1ec34	0.1103138
95	0x3d8f0cc8	0.0698486
96	0x3cc9aa86	0.024617445
97	0x3d2e344c	0.042530343
98	0x3d2c9475	0.042133767
99	0xbd3c473d	-0.045966376
100	0x3d7f12b6	0.062273704
101	0x3dd2ebcf	0.10298883
102	0xbda6ab52	-0.081381455
103	0xbcae1ea4	-0.021254845
104	0x3d3a9e1f	0.045560952
105	0xbd9db01c	-0.07699606
106	0xbd8fb29b	-0.07016488
107	0xbd7cc567	-0.061711695
108	0x3a1374d6	0.0005625015
109	0xbdc01039	-0.09378094
110	0xbce800dc	-0.028320722
111	0xbd4b25c5	-0.049596567
112	0x3c8885c5	0.016665349
113	0x3d83218e	0.064028844
114	0x3d1f907a	0.038956143
115	0x3c3062e2	0.010765763
116	0x3d7a1870	0.06105846
117	0xbba9d740	-0.0051831305
118	0x3d6c9ca0	0.057766557
119	0xbd397ac4	-0.045283094
120	0xbc9a34dd	-0.018824035
121	0x3b8b02a8	0.00424226
122	0x3d2edb21	0.042689446
123	0x3d4a20f9	0.04934785
124	0x3cd6820f	0.026185064
125	0x3c781431	0.015141533
126	0x3d5190a6	0.051163338
127	0x3d82b8b5	0.06382886

network.4.weight f4 [128, 128]
0	0xbe4518e0	-0.1924777
1	0x3d9ea1d4	0.0774571
2	0xbc9af5fa	-0.018916119
3	0x3d700a37	0.05860349
4	0xbd907451	-0.070534356
5	0x3d96fa2e	0.07371937
6	0xbd2b1b0f	-0.041773852
7	0xbd953d64	-0.072871
8	0xbdedd615	-0.116130985
9	0x3e5877b2	0.2113941
10	0xbd74363f	-0.059622046
11	0xbdec19a8	-0.11528331
12	0xbd3239b2	-0.043512054
13	0xbc42df8e	-0.01189412
14	0xbd6bc5c8	-0.057561666
15	0xbb14fb74	-0.0022732886
16	0x3c69c695	0.014268537
17	0x3d6299ba	0.055322386
18	0x3e467bfe	0.19383237
19	0x3e2d2141	0.16907217
20	0x3dc4bc7b	0.09606262
21	0x3c80c4d9	0.015718864
22	0xbdaca611	-0.08430112
23	0xbdc0e8bc	-0.094193906
24	0xbd9c52b3	-0.07632961
25	0xbd1b23d6	-0.037875973
26	0x3d4ef485	0.05052616
27	0xbdb61787	-0.08891206
28	0xbdec0223	-0.11523845
29	0xbd864713	-0.06556525
30	0xbd8b47e7	-0.06800824
31	0xbb34afcc	-0.0027570603
32	0xba4c373f	-0.0007790215
33	0x3c8de936	0.017323118
34	0x3c057027	0.008144415
35	0xbd999f4d	-0.07501087
36	0xbd0ca870	-0.034340322
37	0xbc7cf666	-0.015439605
38	0xbb9093f5	-0.004412169
39	0x3d8ae3f5	0.067817606
40	0x3bf8f5c7	0.0075976583
41	0xbcf8ee69	-0.03038712
42	0x3de6ce0f	0.11269771
43	0xbd03c6da	-0.03217206
44	0x3d2700c2	0.040772207
45	0x3d988106	0.07446484
46	0x3c47db34	0.012198258
47	0xbaa0bd5f	-0.0012263468
48	0xbd00c351	-0.03143627
49	0x3d943134	0.07235947
50	0x3e39fb3f	0.18162249
51	0x3d8d70ad	0.06906257
52	0xbd97a61a	-0.07404728
53	0xbce157f8	-0.027507767
54	0x3dbaaabb	0.091145955
55	0xbd601a8e	-0.054712825
56	0x3d344d61	0.044019107
57	0x3b3c83d3	0.0028765097
58	0x3ddca19b	0.10773011
59	0x3dc3445f	0.09534525
60	0x3d2cdbe8	0.042201906
61	0xbd88c80f	-0.06678783
62	0x3cd47479	0.025934445
63	0x3e16fcc6	0.14744863
64	0x3dae4b72	0.08510484
65	0x3d67f230	0.056627452
66	0x3dd16879	0.10225005
67	0x3d98c268	0.07458955
68	0x3cc0c0f2	0.023529503
69	0xbde89c68	-0.11357957
70	0xbe0b1a50	-0.13584256
71	0xbc3aa3df	-0.011391609
72	0x3e3362a2	0.17518094
73	0x3d7a55c9	0.061116967
74	0x3d367d7c	0.044553265
75	0xbe8df61b	-0.27726826
76	0x3db01c50	0.0859915
77	0xbca54687	-0.020175232
78	0x3bde171e	0.006777658
79	0xbd4d306c	-0.050095007
80	0xbc5cc968	-0.013475753
81	0x3a73757e	0.0009287222
82	0x3d99132d	0.074743606
83	0xbd66576e	-0.056235723
84	0xbcf06e11	-0.029349359
85	0x3dd7a578	0.105296075
86	0x3c975a0f	0.01847556
87	0xbd62f11a	-0.055405714
88	0x3d1812c9	0.03712729
89	0xbda89d76	-0.08233158
90	0x3ceb8b9d	0.028753096
91	0x3db8862f	0.090099685
92	0x3ddde5a5	0.10834817
93	0xbce4ff22	-0.027953688
94	0x3d255009	0.04035953
95	0xbd7031df	-0.05864131
96	0x3b68a910	0.003550116
97	0x3da20167	0.07910424
98	0xbce789e6	-0.028263997
99	0xbd87eb08	-0.066366255
100	0x3dd70d01	0.10500527
101	0x3d8f4930	0.06996381
102	0xbd4a3eca	-0.049376287
103	0xbdc67bad	-0.09691558
104	0x3d265727	0.04061046
105	0x3d6b0b6e	0.057383947
106	0xbc18414a	-0.00929291
107	0xbe00655f	-0.1253867
108	0x3d8cecff	0.06881141
109	0x3de8245a	0.113350585
110	0x3cce1cec	0.025160275
111	0xbdfb8ba5	-0.122824945
112	0xbde83f2b	-0.11340173
113	0x3dbf8b9e	0.09352802
114	0x3df91a42	0.121632114
115	0xbd8f7fd8	-0.07006806
116	0xbe10c9c9	-0.14139475
117	0xbd8c5bbf	-0.06853437
118	0x3cdbda00	0.026837349
119	0x3c8efc8d	0.01745441
120	0x3d82ac98	0.06380576
121	0x3c4ae2b3	0.012383151
122	0x3d7ccddc	0.06171976
123	0x3e8755f9	0.2643278
124	0x3da43abf	0.080190174
125	0xbd841380	-0.06449032
126	0x3d77ad16	0.060467802
127	0x3d5886f1	0.052863065
128	0x3d6fbdee	0.05853074
129	0x3dc47382	0.09592344
130	0xbd24643b	-0.04013465
131	0x3c3a9efc	0.011390444
132	0xbd09ca45	-0.033640165
133	0xbd8bcf34	-0.0682663
134	0x3df56245	0.11981634
135	0x3d9647a9	0.07337887
136	0xbc927c87	-0.017881645
137	0x3e4f0914	0.20218307
138	0xbe34ab7e	-0.17643544
139	0x3c466698	0.012109421
140	0xbdcd2af8	-0.10017961
141	0xbe009bd3	-0.12559442
142	0xbd2d8127	-0.042359497
143	0x3d78a650	0.060705483
144	0x3d791ded	0.060819555
145	0xbd268a3b	-0.04065917
146	0xbd42046b	-0.047367495
147	0x3b2deb65	0.002653801
148	0x3ba5efc7	0.005063984
149	0x3d07dd9a	0.03317032
150	0xbac2b67c	-0.001485541
151	0xbdcd9da8	-0.10039836
152	0xbd9dc45a	-0.07703467
153	0x3d8ead9b	0.06966706
154	0xbd981e05	-0.07427601
155	0xbcb02a23	-0.021504467
156	0x3d29f2b2	0.041491218
157	0x3ba551cc	0.0050451513
158	0xbd8d015c	-0.06885025
159	0xbd084eeb	-0.033278387
160	0x3dd7dfa3	0.10540702
161	0x3bacbc18	0.005271446
162	0xbca9e6d6	-0.020739954
163	0x3bf55337	0.0074867266
164	0xbc9f4742	-0.019443158
165	0xbdadc4f0	-0.084848285
166	0x3d87e76e	0.066359386
167	0xbdc54f21	-0.09634233
168	0xbc215388	-0.009846576
169	0x3d9aa678	0.07551283
170	0x3cc84853	0.02444855
171	0xbbae0d0e	-0.005311615
172	0x3c6e72b5	0.0145537155
173	0x3ccda52f	0.02510318
174	0xbd638429	-0.05554596
175	0x3d856641	0.06513644
176	0xbd0eb45a	-0.034839965
177	0x3dd2b4d2	0.10288395
178	0xbd3b30b6	-0.04570075
179	0x3d1e2699	0.03861103
180	0x3c81ded7	0.015853329
181	0x3dd256b8	0.102704465
182	0xbd013f10	-0.03155428
183	0x3c6273be	0.01382154
184	0x3e09e56b	0.13466422
185	0x3a62ccdf	0.0008651744
186	0xbd911dd8	-0.0708577
187	0x3db6d8a8	0.08928043
188	0x3b660185	0.003509612
189	0x3c83159e	0.016001519
190	0xbd28d06c	-0.04121439
191	0x3e43dc36	0.19126973
192	0x3dcfc182	0.101443306
193	0x3db1d191	0.0868255
194	0xbc192982	-0.009348275
195	0x3d73f5ec	0.0595607
196	0x3dba8703	0.09107783
197	0x3d096475	0.03354307
198	0x3cb1259d	0.02162438
199	0x3d8d7f27	0.06909018
200	0x3df598af	0.11992013
201	0xbd86c8f4	-0.065812975
202	0x3c03589c	0.008016732
203	0xbdb9ff3f	-0.090818875
204	0xbe5ecd3b	-0.21757977
205	0xbc85df0c	-0.016341709
206	0xbd3cc2b5	-0.046084125
207	0x3c081ab2	0.008307146
208	0x3a93f524	0.0011288268
209	0x3da94b0e	0.08266269
210	0xbc80a655	-0.015704313
211	0x3dd52437	0.10407298
212	0xbccbc628	-0.024874762
213	0xbc99799d	-0.018734748
214	0x3dae808f	0.08520614
215	0xbd145348	-0.036212236
216	0x3c96936e	0.018380847
217	0xbdda47e2	-0.10658242
218	0xbc7fee00	-0.015620708
219	0x3ca61dff	0.020277975
220	0xbd1629a7	-0.036660817
221	0xbd2a4fee	-0.041580133
222	0xbc0d9e46	-0.008643692
223	0xbcfce00a	-0.030868549
224	0xbaa99dc9	-0.00129407
225	0x3d753075	0.059860665
226	0xbb7aa3be	-0.003824457
227	0xbcd90c61	-0.02649516
228	0xbdafcfba	-0.085845426
229	0x3e1ff0b8	0.1561917
230	0x3dc71327	0.0972045
231	0xbd1f63dc	-0.038913593
232	0x3ca18538	0.019716844
233	0x3d4f02ef	0.050539907
234	0x3c871efa	0.016494263
235	0x3bf3e1c2	0.007442684
236	0xbd121762	-0.03566683
237	0x3dc26585	0.094920196
238	0x3cf197fb	0.029491415
239	0x3ca61042	0.020271424
240	0xbd42e8d2	-0.047585316
241	0x3c109c22	0.008826287
242	0x3df79c5c	0.1209037
243	0xbda24ac4	-0.07924417
244	0xbe1c19d5	-0.15244229
245	0x3d727451	0.05919296
246	0x3d287769	0.041129503
247	0xbda1bdff	-0.07897567
248	0xbd707668	-0.05870667
249	0x3d289103	0.04115392
250	0x3dc83ed5	0.09777609
251	0x3d9745c1	0.073863514
252	0x3cd500b2	0.026001308
253	0xba989ebd	-0.0011643987
254	0xbcf733b3	-0.03017602
255	0x3cf19d5d	0.029493982

network.4.bias f4 [128]
0	0x3dad055e	0.08448289
1	0xbd75aeaa	-0.059981026
2	0x3da28f40	0.07937479
3	0x3c974334	0.018464662
4	0x3d6a3c5d	0.057186473
5	0x3d817715	0.06321541
6	0xbd54fe72	-0.05200047
7	0xbc84fe14	-0.016234435
8	0x3d146d79	0.036237214
9	0x3d9047be	0.07044934
10	0x3cb6603a	0.022262681
11	0x3dcf3f5f	0.10119509
12	0x3d4a83b5	0.049442012
13	0xbda06b4d	-0.07832966
14	0x3ba48210	0.0050203875
15	0xbd12f5d6	-0.03587898
16	0xbd7dc630	-0.061956584
17	0x3c8cc0c8	0.017181769
18	0xbd182b02	-0.03715039
19	0xbd524036	-0.051330768
20	0x3d13790e	0.03600412
21	0x3cae4bfe	0.02127647
22	0xbd20326e	-0.039110593
23	0xbda1e093	-0.07904162
24	0xbcf597ab	-0.029979547
25	0x3dc51480	0.09623051
26	0x3d05aef6	0.03263756
27	0xbd547f47	-0.051879194
28	0xbd3f6690	-0.04672867
29	0x3b1d8648	0.0024036337
30	0x3d822d0f	0.063562505
31	0x3d40fdf8	0.047117203
32	0x3d4e38de	0.0503472
33	0xbc0c73a5	-0.008572494
34	0x3cdf5972	0.02726433
35	0xbd186cb2	-0.037213035
36	0x3de9dd2f	0.114191405
37	0xbd946d37	-0.072473936
38	0x3d151876	0.03640028
39	0xbd637d4b	-0.05553941
40	0xb8dabda6	-0.00010430375
41	0x3d4cbd3c	0.049985155
42	0xbd9cc8a0	-0.07655454
43	0xbd599ecb	-0.053129952
44	0xbd8415c9	-0.06449468
45	0x3d3f58fc	0.04671572
46	0xbcdd073d	-0.02698099
47	0x3c328da9	0.010898032
48	0xbd89b41a	-0.06723805
49	0x3da512e0	0.08060241
50	0x3d4bd213	0.04976089
51	0xbd84d9b5	-0.06486837
52	0x3d6cc301	0.057803158
53	0xbd82753d	-0.06370018
54	0xbc1591f0	-0.0091290325
55	0xbdabeb09	-0.08394439
56	0xbd7a6854	-0.06113465
57	0xbd5ccf08	-0.053908378
58	0xbbf19c0d	-0.007373339
59	0xbda18668	-0.07886964
60	0xbcbfcc17	-0.023412747
61	0xbc863f0f	-0.01638749
62	0x3da7cd3b	0.081934415
63	0xbd3f6506	-0.046727203
64	0x3cd97fb7	0.026550157
65	0x3d299b29	0.041407738
66	0x3da30281	0.07959462
67	0xbcd6887f	-0.026188133
68	0x3dd32d61	0.1031139
69	0x3dc3393a	0.095323995
70	0x3dc621e6	0.09674434
71	0x3d83eda6	0.06441812
72	0x3d80a452	0.062813416
73	0x3acb1c4a	0.0015496102
74	0x3d0ebe02	0.034849174
75	0x3d0a80c9	0.033814225
76	0x3ce2502f	0.027626125
77	0x3d0d305c	0.034469947
78	0x3cf28630	0.029605001
79	0x3cb971d4	0.022637285
80	0x3d8e7f53	0.06957879
81	0xbc823c61	-0.015897932
82	0xbdb24888	-0.087052405
83	0x3da060d5	0.07830969
84	0x3da0c86b	0.07850727
85	0x3d012676	0.03153082
86	0x3dd05ba4	0.10173729
87	0xbd83f22c	-0.06442675
88	0xbcc05431	-0.023477646
89	0x3d6fea04	0.058572784
90	0xbc5b0f59	-0.013370358
91	0xbd638cd2	-0.05555422
92	0x3d2d54c2	0.04231716
93	0xbcaacf36	-0.020850759
94	0xbd88d2e3	-0.066808484
95	0x3d197813	0.037468027
96	0x3c3889cc	0.011263322
97	0xbd2f395a	-0.042779304
98	0x3da6cd40	0.08144617
99	0xbd07ad87	-0.033124473
100	0x3dd09ebd	0.10186527
101	0x3cd42c0a	0.025899906
102	0xbc9b33ae	-0.018945541
103	0xbc977ab9	-0.018491136
104	0xbd2855b2	-0.04109735
105	0x3c8067dd	0.015674526
106	0x3d186ba3	0.037212025
107	0xbd1922a4	-0.03738655
108	0xbd94be58	-0.07262868
109	0xbc4dd248	-0.012562342
110	0xbd45d5b2	-0.0482995
111	0xbd17df3d	-0.03707813
112	0x3ca92f4e	0.02065244
113	0x3c21ead1	0.009882645
114	0xbd1d7f64	-0.038451567
115	0x3d95cf91	0.07314981
116	0xbd3aee00	-0.04563713
117	0x3d81b6bc	0.06333682
118	0x3d9a67aa	0.075393036
119	0xbd29c4a7	-0.041447308
120	0xbdbfe9f0	-0.09370792
121	0xbc3c75b2	-0.01150267
122	0x3d737d52	0.059445687
123	0x3b4897e7	0.003060812
124	0x3d959a58	0.07304829
125	0xbd8aa819	-0.06770343
126	0xbd5df6f2	-0.054190584
127	0x3c7e4881	0.015520216

network.6.weight f4 [1, 128]
0	0xbdd52cd3	-0.1040894
1	0xbde42143	-0.11139157
2	0xbe4033fd	-0.18769832
3	0xbe580a49	-0.21097673
4	0x3e09d1ce	0.1345894
5	0xbe1d8e3d	-0.15386291
6	0xbe092030	-0.13391185
7	0xbe133ab8	-0.14377868
8	0x3cc218ea	0.02369352
9	0x3e17dd88	0.14830601
10	0x3e46ddb9	0.19420518
11	0x3e3be3e2	0.18348649
12	0x3e1ed57b	0.15511124
13	0xbe222786	-0.1583539
14	0xbe3c1cd8	-0.18370378
15	0xbe433a15	-0.19065125
16	0xbe8200b6	-0.25391167
17	0x3dee76c2	0.11643745
18	0x3e251df6	0.1612471
19	0xbe5e74c8	-0.21724236
20	0xbdc9fa4c	-0.098621935
21	0xbe1c0c57	-0.15239082
22	0xbdeeb3d4	-0.11655393
23	0xbdf4c7e0	-0.11952186
24	0x3eedb741	0.46428874
25	0x3e0be932	0.13663176
26	0x3eea2b03	0.4573594
27	0xbde8ef91	-0.11373819
28	0x3da7a055	0.08184878
29	0x3e0ec75d	0.13943239
30	0x3e00cae1	0.12577392
31	0x3e08195d	0.13290925
32	0x3e3425b6	0.1759251
33	0xbe0ecbff	-0.13945006
34	0x3de56935	0.11201707
35	0x3e0458fb	0.12924568
36	0x3e405b93	0.18784933
37	0xbd68ee77	-0.056868043
38	0xbd9766b2	-0.073926345
39	0xbca83ccd	-0.020536805
40	0xbe35ffa1	-0.17773296
41	0xbe387dea	-0.18016782
42	0x3dda982b	0.10673555
43	0xbe984905	-0.2974321
44	0xbe3b25bd	-0.18276115
45	0x3ed27c20	0.41110325
46	0x3e0fd671	0.14046647
47	0x3e4102dd	0.18848749
48	0x3e1694d3	0.1470521
49	0x3e54fd42	0.20799735
50	0x3e934574	0.28763926
51	0xbdb94eb1	-0.09048212
52	0xbe5832ae	-0.21113083
53	0x3da3a3e3	0.07990243
54	0xbe5767a8	-0.21035635
55	0x3e9f15b3	0.31071243
56	0xbe09b7ba	-0.13448992
57	0xbe107191	-0.14105822
58	0xbcbd9ae1	-0.023145141
59	0x3e203622	0.1564565
60	0x3e5fa0af	0.2183864
61	0xbde757bb	-0.1129603
62	0x3e9be6fe	0.3044967
63	0xbe0b4cb6	-0.13603482
64	0x3dfc32c2	0.12314369
65	0xbe4a0a84	-0.19730574
66	0xbe3ec0cb	-0.18628232
67	0x3d784545	0.060612936
68	0x3e8dabea	0.27670223
69	0x3e27f24f	0.16401027
70	0x3e5ae753	0.21377306
71	0xbe1452d8	-0.14484727
72	0xbdd3b396	-0.10336988
73	0xbd200318	-0.03906545
74	0xbe8baaff	-0.27278897
75	0x3e896792	0.2683683
76	0x3dcf2a30	0.101154685
77	0x3da0d918	0.07853907
78	0xbda81124	-0.08206394
79	0x3e0f8e5d	0.14019151
80	0xbe32c1a8	-0.17456686
81	0x3e40660e	0.18788931
82	0xbd8e585b	-0.06950446
83	0x3ddb555e	0.10709642
84	0xbe1c2304	-0.15247732
85	0xbe42acef	-0.19011281
86	0xbded49bc	-0.11586329
87	0xbe208a73	-0.15677814
88	0x3e12756c	0.14302605
89	0xbe26029c	-0.16211933
90	0x3e0f891e	0.1401715
91	0xbe178a60	-0.1479888
92	0x3e17df49	0.1483127
93	0xbe18fb53	-0.14939623
94	0xbe04cd77	-0.12969004
95	0x3e20864c	0.1567623
96	0xbd07d48d	-0.03316169
97	0xbd83ec6c	-0.06441578
98	0x3e8e2540	0.27762794
99	0x3d854f07	0.06509214
100	0x3e1655e6	0.14681205
101	0x3e03e3e0	0.12879896
102	0xbe2919b2	-0.16513708
103	0xbe3afff7	-0.18261705
104	0x3e16eb60	0.14738226
105	0xbdefb279	-0.11703963
106	0x3e3f5812	0.1868594
107	0xbd8ef646	-0.06980567
108	0x3e3d7edd	0.18505426
109	0xbd86b072	-0.06576623
110	0x3e875e2a	0.2643903
111	0xbdef671d	-0.11689589
112	0xbe945b19	-0.28975752
113	0xbdcdccda	-0.10048838
114	0xbe528f2c	-0.20562428
115	0xbe185a1b	-0.14878123
116	0xbe2643d2	-0.16236809
117	0xbe0fc8ce	-0.14041445
118	0x3e31ec4e	0.173753
119	0xbe7bec95	-0.24601968
120	0xbc2be1c1	-0.010490836
121	0x3e02ab7f	0.12760733
122	0x3ddfe21c	0.10931799
123	0x3e183c53	0.14866762
124	0xbdf3028f	-0.118657224
125	0xbe1f1b91	-0.1553786
126	0xbe5a9a5b	-0.21347944
127	0x3e74abe3	0.23893695

network.0.weight f4 [128, 5]
0	0xbe5715c4	-0.21004397
1	0xbe88a4a4	-0.2668811
2	0xbdfee2d4	-0.12445608
3	0xbf247a6d	-0.64249307
4	0xbe8fed68	-0.28110814
5	0xbe82b6bf	-0.2553005
6	0xbe86b022	-0.26306254
7	0xbf1d1716	-0.6136335
8	0x3df5ca4a	0.12001474
9	0x3e44b85c	0.19210953
10	0x3ea0b49a	0.31387788
11	0xbd07800e	-0.033081107
12	0x3f6de161	0.92922026
13	0x3ec2046c	0.37894
14	0x3e415a78	0.18882167
15	0xbee2a3a3	-0.4426547
16	0x3f051c64	0.51996446
17	0x3f3bcf0d	0.7336281
18	0xbeb8a728	-0.3606503
19	0xbddd2100	-0.1079731
20	0x3d77fe53	0.060545277
21	0x3eddcee3	0.43321905
22	0xbe3d52d3	-0.18488626
23	0xbc49b5f6	-0.012311449
24	0xbe7de73f	-0.24795245
25	0x3ef4708c	0.47742116
26	0x3eb16b26	0.3465206
27	0xbead2bf4	-0.33822596
28	0xbe820a7b	-0.2539862
29	0x3ea00754	0.3125559
30	0xbe881a83	-0.26582727
31	0xbe7f29fc	-0.2491836
32	0xbdbec59e	-0.09315036
33	0x3ea61118	0.32434916
34	0x3df27677	0.118390016
35	0x3ba05bd4	0.0048937593
36	0xbec75606	-0.38932818
37	0x3f1ba280	0.6079483
38	0xbea475ab	-0.32121024
39	0xbec36301	-0.3816147
40	0xbf0fec5f	-0.5622005
41	0x3d88cc65	0.0667961
42	0xbf1664da	-0.5874764
43	0xbf37857c	-0.71688056
44	0xbc6c3ec3	-0.01441926
45	0x3ec907db	0.39263806
46	0xbea835cf	-0.32853553
47	0xbee124ca	-0.4397338
48	0xbe9c21cc	-0.30494535
49	0xbdc4dbfc	-0.09612271
50	0x3ed654fc	0.41861713
51	0x3d989ce0	0.074517965
52	0x3e680f03	0.22661977
53	0x3ee756da	0.4518345
54	0x3d4e64b2	0.050389
55	0x3ea6c1b0	0.32569647
56	0xbe6da206	-0.23206338
57	0xbd6dea60	-0.058084846
58	0x3edb3c11	0.42819265
59	0x3ed10c74	0.40829813
60	0x3d89ecb6	0.06734602
61	0xbe06d83e	-0.13168427
62	0xbf1b4b25	-0.60661536
63	0xbe04f231	-0.12983014
64	0x3ec55a3b	0.38545403
65	0x3ed5abfe	0.41732782
66	0xbe68a669	-0.2271973
67	0x3e9b1f32	0.30297238
68	0x3d2c7f68	0.04211369
69	0x3eb14fb2	0.34631115
70	0x3b039ee9	0.0020083732
71	0x3e7df853	0.2480176
72	0xbefc8b6c	-0.4932512
73	0x3edf8286	0.4365427
74	0xbe419723	-0.1890531
75	0x3ebe4995	0.37165514
76	0x3e31e8f0	0.17374015
77	0xbe11abdf	-0.1422572
78	0xbec6d1e6	-0.38832015
79	0xbe3d07e0	-0.18460035
80	0x3de63460	0.112404585
81	0xbe9f7961	-0.31147292
82	0x3f022750	0.50841236
83	0x3ed0b33d	0.40761748
84	0xbe914a4a	-0.2837699
85	0x3dd74e73	0.1051301
86	0xbe4044b8	-0.18776214
87	0x3f031bc7	0.5121426
88	0xbf245db1	-0.6420546
89	0xbd8acdbf	-0.06777524
90	0x3e0be146	0.13660154
91	0x3e90e18c	0.2829708
92	0x3f21db50	0.6322527
93	0xbe89af4a	-0.26891547
94	0x3e3226f2	0.17397669
95	0x3f06f751	0.52721125
96	0x3da8803e	0.08227585
97	0xbe91f235	-0.28505102
98	0x3dd0d496	0.101967975
99	0x3de61ac8	0.11235577
100	0x3efb5bb7	0.4909341
101	0x3ee3e29f	0.44508836
102	0xbe582834	-0.21109086
103	0xbd7f7db1	-0.062375728
104	0x3ec57060	0.38562298
105	0x3d2658cf	0.04061204
106	0xbe8eb0b8	-0.278692
107	0x3bff1e41	0.007785589
108	0xbed0559c	-0.40690315
109	0x3e5038e5	0.20334204
110	0x3e4490b1	0.1919582
111	0x3dbdc5ac	0.092662185
112	0x3cd382d6	0.025819223
113	0xbcc347db	-0.023837974
114	0x3e934372	0.28762394
115	0x3dc8b819	0.09800739
116	0xbee0df2f	-0.43920276
117	0xbed2fc89	-0.41208294
118	0xbea4ecca	-0.32211906
119	0x3e16e9e2	0.14737657
120	0xbf28d21e	-0.65945613
121	0x3cc6243c	0.0241872
122	0x3efed1c7	0.49769422
123	0x3e8dc654	0.27690375
124	0x3e830604	0.25590527
125	0x3e86397a	0.26215726
126	0xbebd3034	-0.3695084
127	0xbe3daae5	-0.18522222
128	0xbeb18656	-0.34672803
129	0xbdfcb53a	-0.12339254
130	0x3ee894fa	0.4542616
131	0x3d55bf1a	0.0521842
132	0x3eef815d	0.46778384
133	0xbeab21ca	-0.33424217
134	0x3eaa7d3e	0.33298677
135	0xbefa1940	-0.4884739
136	0x3e86f8a3	0.2636157
137	0x3ddf2ab7	0.10896819
138	0xbf4c7413	-0.79864615
139	0xbd4539e9	-0.04815093
140	0x3f0d8680	0.55283356
141	0xbedfe6e4	-0.43730843
142	0xbc69ea32	-0.014277028
143	0x3d70f728	0.058829457
144	0x3d982005	0.07427982
145	0x3d93aedd	0.07211087
146	0x3eec8956	0.4619853
147	0x3e930796	0.28716725
148	0xbd203a6d	-0.03911822
149	0xbd696fe6	-0.05699148
150	0xbe433302	-0.19062427
151	0xbe8b1414	-0.27163756
152	0x3f2ec980	0.68276215
153	0xbe084b4a	-0.1330997
154	0x3dca0dd5	0.098659195
155	0x3f10fd4a	0.5663649
156	0x3d8a6a57	0.06758564
157	0x3c8c8076	0.017151099
158	0xbcafd5be	-0.021464225
159	0x3d9cbaeb	0.07652839
160	0x3da329e0	0.079669714
161	0xbeda4d5b	-0.42637143
162	0x3ebf4d22	0.37363535
163	0xbe1a5dd6	-0.15074858
164	0xbea62252	-0.3244806
165	0xbe91a440	-0.28445625
166	0xbe0bf266	-0.13666686
167	0xbf2ec61b	-0.68271035
168	0x3ef44e73	0.47716102
169	0xbe1fb84a	-0.15597644
170	0x3e80802e	0.25097793
171	0xbe0c68d5	-0.13711865
172	0xbe1ff758	-0.15621698
173	0x3e5a5a21	0.21323444
174	0x3dd771b8	0.10519737
175	0x3e5eb52f	0.21748804
176	0x3e9ee16b	0.31031355
177	0x3f0f01b2	0.5586196
178	0xbdecc10d	-0.11560259
179	0x3e28c76e	0.16482326
180	0x3f14b378	0.5808635
181	0x3ec364b3	0.38162765
182	0x3f2638eb	0.649306
183	0x3ed657d4	0.41863883
184	0x3e370b28	0.1787535
185	0x3e63ef0c	0.22259158
186	0x3d419115	0.0472575
187	0xbf18952b	-0.5960261
188	0x3ef08040	0.46972847
189	0x3e8defbb	0.27721962
190	0xbe5ad753	-0.21371202
191	0x3e38cd1d	0.18046995
192	0x3f389898	0.7210784
193	0xbecf086d	-0.40436116
194	0x3e23ad52	0.15984085
195	0x3e3ee36e	0.18641445
196	0x3dcd7224	0.10031536
197	0xbf469a72	-0.77579415
198	0xbd236054	-0.039886788
199	0xbe7509d4	-0.2392953
200	0x3e26cc4d	0.16288872
201	0x3e1d5397	0.15363918
202	0x3cfcf006	0.03087617
203	0x3e348c63	0.17631678
204	0xbde9652a	-0.11396249
205	0x3de45aeb	0.11150154
206	0xbe92a713	-0.28643093
207	0x3eb8fe7c	0.36131656
208	0xbe539e69	-0.20665897
209	0x3eb7e231	0.35914758
210	0x3d1f2ad8	0.03885922
211	0x3ec30c2d	0.38095227
212	0xbdd4c992	-0.10390009
213	0x3ec8c90a	0.3921588
214	0xbe12cac2	-0.14335158
215	0x3e39b932	0.18137053
216	0x3eb71c94	0.3576399
217	0x3ebebcd3	0.37253436
218	0x3eb5f03f	0.35534856
219	0x3edc9e5f	0.43089578
220	0x3f193205	0.5984195
221	0x3e50d16c	0.20392388
222	0xbda2e3bf	-0.07953595
223	0xbf0e669a	-0.5562531
224	0xbeae8659	-0.34086874
225	0x3d292e96	0.041304193
226	0xbecea051	-0.40356687
227	0xbf1c5cd2	-0.6107913
228	0xbeae3b04	-0.340294
229	0x3e0076d7	0.12545334
230	0x3df8b54e	0.12143956
231	0x3e1fda1e	0.15610549
232	0x3e370b7c	0.17875475
233	0xbeddb22f	-0.43300006
234	0x3e83ae04	0.257187
235	0xbef2b9db	-0.4740742
236	0xbeab58cc	-0.33466184
237	0xbebae780	-0.36504745
238	0x3ea28a6e	0.31746238
239	0xbe2f2714	-0.17104751
240	0x3e24f938	0.16110694
241	0xbe4306d7	-0.19045578
242	0xbcf6a6d1	-0.030108841
243	0x3edeab6c	0.4349016
244	0x3ebd4c13	0.36972103
245	0xbf053efa	-0.5204922
246	0xbeea5e13	-0.45774898
247	0xbece203e	-0.40258974
248	0x3ecec5f6	0.40385407
249	0xbed94b4c	-0.4244026
250	0x3ed6db2c	0.4196409
251	0x3ec396b0	0.38200903
252	0x3f62a31b	0.8853013
253	0x3e22cb3c	0.1589784
254	0xbdb801ab	-0.08984693
255	0xbe6d118a	-0.23151222

network.0.bias f4 [128]
0	0xbe8814e7	-0.26578447
1	0x3e441c11	0.19151331
2	0x3e85e5cb	0.2615188
3	0x3ec7d43e	0.39029115
4	0xbeca21c0	-0.39478874
5	0x3e4e6f1f	0.20159577
6	0xbdfd257b	-0.123606645
7	0x3e940da8	0.2891667
8	0x3db876d8	0.09007043
9	0xbec755ca	-0.3893264
10	0x3e643f4a	0.22289768
11	0x3e94858f	0.29008147
12	0x3e1fc869	0.15603794
13	0xbecd2d50	-0.40073633
14	0x3ed4fbe7	0.41598436
15	0x3c3f3c4f	0.0116720935
16	0xbe83b4e1	-0.25723937
17	0x3dd799e2	0.10527398
18	0x3ece3a0a	0.40278655
19	0xbe0c4c2c	-0.13700932
20	0x3ebd31ac	0.3695196
21	0x3f063cb3	0.5243637
22	0xbe94d73b	-0.29070458
23	0xbd6191ef	-0.055070814
24	0xbe623c8d	-0.22093411
25	0x3ebc40af	0.367681
26	0x3e801da3	0.2502261
27	0xbdaee0b8	-0.085389555
28	0xbd5b7ddb	-0.053586822
29	0xbea05ca9	-0.31320694
30	0x3ed8a4c1	0.42313197
31	0xbc8e7bd6	-0.017393034
32	0xbecf1ff5	-0.4045407
33	0xbe120083	-0.14258008
34	0xbf05b250	-0.5222521
35	0x3ecac763	0.39605245
36	0xbe68ac79	-0.22722043
37	0xbe572557	-0.21010338
38	0x3f051543	0.5198557
39	0x3ec6af59	0.38805655
40	0xbedb29c8	-0.42805314
41	0x3e2f1c0b	0.17100541
42	0xbb999c2e	-0.0046878075
43	0xbec00d39	-0.37510088
44	0xbd1b3d96	-0.03790053
45	0xbe6ccd15	-0.23125108
46	0x3e1596ab	0.14608257
47	0xbe8cf661	-0.27531722
48	0xbe96b0b9	-0.29431704
49	0xbe8ef4d8	-0.27921176
50	0x3e3832ce	0.1798813
51	0xbb91e69a	-0.0044525387
52	0x3e81f4b4	0.25382006
53	0xbe52fcd5	-0.2060426
54	0x3df28904	0.1184254
55	0xbebf1d67	-0.3732712
56	0xbdeb8af4	-0.115011126
57	0xbe9689d0	-0.29402018
58	0xbdb9e338	-0.09076542
59	0x3ea7003e	0.32617372
60	0xbeb87abf	-0.36031148
61	0x3da826f0	0.08210552
62	0xbde5fcae	-0.112298355
63	0xbe0e9b83	-0.1392651
64	0xbefbd53f	-0.4918613
65	0xbf0f4b63	-0.55974406
66	0xbec52cb6	-0.38510674
67	0x3ea873f5	0.32900968
68	0xbe92ceb9	-0.28673342
69	0x3e5d1ebc	0.21593755
70	0xbc98b2ab	-0.018639883
71	0xbe47dc1f	-0.19517563
72	0x3e9b4a6c	0.30330217
73	0x3ef7a1e8	0.48365712
74	0xbe9f3118	-0.31092143
75	0xbe18a457	-0.1490644
76	0xbe6ba3a6	-0.23011646
77	0x3f098b03	0.5372774
78	0xbeaa5782	-0.33269888
79	0xbea38e0f	-0.3194432
80	0xbdbc9924	-0.09208897
81	0x3dbbb7c9	0.091659136
82	0x3ed8db4a	0.42354804
83	0xbe0f154d	-0.1397297
84	0x3e8c6bfb	0.27426133
85	0x3e38de91	0.18053652
86	0xbe74064d	-0.23830529
87	0xbe2d2a23	-0.16910605
88	0xbd0e6eca	-0.034773625
89	0x3dd42b51	0.103598244
90	0xbdff36ca	-0.12461622
91	0xbe6d9b0c	-0.23203677
92	0x3ec1a2f6	0.37819642
93	0x3eaa84d0	0.33304453
94	0xbd5a5807	-0.053306606
95	0xbe97546d	-0.295566
96	0x3e18ea0d	0.14933033
97	0x3d3c3ace	0.045954518
98	0xbd0b3053	-0.033981632
99	0x3e4569c2	0.19278625
100	0xbeedc286	-0.46437472
101	0xbeda344f	-0.42618033
102	0xbeea6ef4	-0.45787776
103	0xbe9ed854	-0.3102442
104	0x3e8f8000	0.28027344
105	0x3e9dc8ce	0.30817264
106	0xbc02f48a	-0.007992873
107	0x3eb4b136	0.3529145
108	0x3da517c3	0.08061173
109	0xbe828aab	-0.2549642
110	0xbe07c4a3	-0.13258605
111	0x3e0d73be	0.13813683
112	0x3e719fe5	0.23596151
113	0xbeaddb29	-0.33956268
114	0xbede760a	-0.43449432
115	0xbe9d0b72	-0.30672795
116	0x3e963176	0.2933461
117	0xbe8cad31	-0.27475885
118	0x3e29d246	0.16584119
119	0x3ea4dc97	0.32199547
120	0xbecfcb17	-0.40584633
121	0xbd1ec474	-0.03876157
122	0x3e02d873	0.12777881
123	0x3ee4b3d6	0.44668454
124	0xbe8b408f	-0.27197692
125	0x3e558d48	0.20854676
126	0x3e2c09d7	0.16800629
127	0xbeff5f65	-0.49877468
