reports/CartPole/cartpole_nn_grpo/001/policy.pt (torch, 204970 bytes, 9 tensors)

network.0.weight f4 [128, 5]
00000000: ec1e 75be 8d00 a43e 8fca 8c3e 8c2b d83e
00000010: ffeb aebd 8fa8 36be 538d a83e 29d7 8b3e
00000020: dd38 db3c fcd1 dcbd 0761 dd3e 2555 cb3e
00000030: 1d60 a9be a5d3 bc3e 0bce 903e 5068 973e
00000040: 570c 0c3e 6b6c 2fbe 025e d3be ea51 c3bc
00000050: 3afe d1be e8f6 a23e 70fe 7a3e 5401 d1be
00000060: 56b1 033e 8c82 7dbe a6a7 1e3e 9783 6abe
00000070: ef44 a2be f9c6 743e ab48 f0be a2d7 cabe
00000080: 3478 9d3e 1b41 6e3e 283c 053e 57bb 503d
00000090: 1cb8 8e3e 02d2 b93e aaad 81be 48d0 9b3e
000000a0: 6cb0 c5bd 6ae0 c93e d91c 833c 0b16 04be
000000b0: 696f 513d b5df da3e 790f 9ebe 1903 83be
000000c0: 5371 3fbe 48f8 c53e 1738 af3e c90c b23e
000000d0: ece5 b3be a0ca 77be a886 bf3e ab54 9dbe
000000e0: 4bd9 68be b166 ec3e 0120 31be 046c e1be
000000f0: 2db5 e2be 1552 ed3d 6a54 893e e3db c6be
00000100: 3149 863d 5a8a 2fbe eccc 743d 8274 b13d
00000110: f0a4 8f3e 051c 243e 876a d8be b311 adbe
00000120: 376c 2cbe 3bc8 44be c6e9 b23e 4ac2 dcbe
00000130: e0f0 80be ac8e 81bc 9f18 213e 5f94 89be
00000140: 3654 993e b9bd 0a3e 2eab 53be 3e6c 8e3e
00000150: c783 c7be 8109 db3e 1976 6f3e ac55 c4bd
00000160: ca9e dc3b c29c eabd 9096 1c3e 7793 e73d
00000170: eeec dfbe 0195 babc e8a7 58be e26f 083e
00000180: f93b ab3d cad2 cdbd fd3a 98bd f700 abbd
00000190: cb25 33be 59de 21be faf1 7c3e 8d3d b73d
000001a0: cb71 e13e 9515 a9be 042e 443e d28d e03e
000001b0: 05fc db3d bc82 f7bd c9e6 6cbe aab0 fabd
000001c0: 479a 0ebe 94c5 b73e 9fa5 c93e 50ce e03e
000001d0: b4c1 8dbe e3e1 5d3e 0858 1dbd 1a26 8d3c
000001e0: 8634 b7be 08c7 293d 81ac 34bd e2f9 8ebe
000001f0: 9696 493d dcda d43e f942 a23e 8669 2d3e
00000200: 9cef cb3e d45a d03e 3ad4 c33c 1ae2 62be
00000210: a9ae 663e 4f49 543e ead3 5cbe 09c1 afbe
00000220: 41a9 183e 268a aabd d55b 673d 531a abbe
00000230: a4e8 f5bb a891 8dbc f51d b5be 3f53 883e
00000240: 9afa 07bc e0a6 463e f60d 96bc f626 823e
00000250: c4b5 283d fff9 343d 7e4e 90be ecd3 c83d
00000260: 6ddc 9bbe 56f4 b33d e64d 6cbe ce6f 3d3e
00000270: 95fa 703e ec48 733e e9df b0be 46a1 973c
00000280: 9010 e93e 22e8 57bc d9c3 82bc 60cc c7be
00000290: a10b 693e 285e 933e 1d48 90be 4f29 45be
000002a0: d5ba d23e cf91 603e 365d fdbd 82df 8dbe
000002b0: 3a45 d43e bf58 a13e 30ab 163c ce3e 6ebd
000002c0: 576d af3e bfce 95be 3680 92bd e232 acbe
000002d0: 3a7c 06be cf69 1f3e e045 e73e cbb5 d8be
000002e0: 0722 763c 8a4c fd3d e70b 96be cbbc 5c3e
000002f0: 7759 3dbe 784a dc3e ab07 1a3d 69f2 17bd
00000300: 42a5 79be 7946 abbe 6969 73bc 9025 953e
00000310: 3601 1bbc b6ce 0e3e 9c35 4dbe 92ce b83e
00000320: ac85 9f3e d398 4c3d 436a 663e 3508 aebe
00000330: 3ec8 593e c847 afbe dee6 ccbe 9f1e bdbe
00000340: cb59 543e 207e 77be 954c 0f3e a4a5 b53d
00000350: d070 4fbc 4a04 043c 65b8 503e ab7f 18be
00000360: 1e2a 9d3e 303e 8fbe 7755 53be 82fd 393d
00000370: 61f7 19bd d29b 073e 7ad4 0b3b 3c1f b7be
00000380: ebe8 1f3e d8d4 bd3d 3b88 cabd fd94 c2be
00000390: f4df 453e 39ca 8ebe cdec 42bd 6961 dcbe
000003a0: ea51 9bbe 2bc1 b6bd 53d0 9dbb 00db d93e
000003b0: 5b26 b43e db88 a3bd 383d 99bd 35de d0be
000003c0: 967d 96bd 4dde eabe a372 e43d 0b49 d3be
000003d0: 74dd b03e f3f0 98be 0d1b 1f3e 2c16 84bd
000003e0: 150d 1b3d ac08 f7bb b0c2 a33b 3832 c53e
000003f0: 7bf6 b53c e54e 793d 9ee4 b3bd b785 07bc
-0.23937577 0.3203167 0.2749829 0.42220724 -0.085411064 -0.17837738 0.32920322 0.27312592
0.026760513 -0.10782239 0.43238088 0.39713398 -0.3308114 0.36880222 0.28282198 0.29571772
0.13676582 -0.17131202 -0.4128266 -0.02384277 -0.41014272 0.31829 0.24511123 -0.40821326
0.12860617 -0.24756831 0.1549364 -0.2290176 -0.31693217 0.23904027 -0.4693044 -0.3961764
0.3075577 0.23267023 0.13011229 0.05095991 0.2787484 0.36293036 -0.25327808 0.30432343
-0.096527904 0.39429027 0.016004967 -0.12899034 0.05113164 0.427488 -0.3087118 -0.255883
-0.18695574 0.38665986 0.3422248 0.3477538 -0.35136354 -0.24198389 0.37407422 -0.3072866
-0.2273914 0.46172097 -0.17297365 -0.44027722 -0.4427885 0.115879215 0.26822215 -0.38839635
0.06556929 -0.1714262 0.05976574 0.086648 0.28055525 0.16026314 -0.42268774 -0.33802566
-0.16838156 -0.19217007 0.3494398 -0.4311698 -0.25183773 -0.015815102 0.15732048 -0.2687101
0.2994706 0.13548936 -0.20670769 0.27816957 -0.38967726 0.42780688 0.23384894 -0.09586653
0.0067327963 -0.114556804 0.1529181 0.113074236 -0.4373545 -0.022776129 -0.21157801 0.1332393
0.08361048 -0.100499704 -0.07433126 -0.083497934 -0.17494886 -0.15807475 0.24701682 0.08947287
0.4403213 -0.33024278 0.19158179 0.438582 0.10741428 -0.120854825 -0.23134913 -0.12240727
-0.1392604 0.35892928 0.3938417 0.43907404 -0.27686846 0.216682 -0.03841403 0.017230082
-0.3578226 0.041449577 -0.044109825 -0.2792502 0.049215876 0.41573226 0.3169172 0.16934785
0.39831245 0.40694296 0.023904908 -0.22156563 0.22527565 0.2073109 -0.21565214 -0.34326962
0.14908315 -0.08327131 0.056484062 -0.3341852 -0.0075045396 -0.017281368 -0.35374418 0.26626012
-0.008299494 0.19399595 -0.018317204 0.2542035 0.04118897 0.044183727 -0.28184885 0.09806046
-0.3044161 0.08786838 -0.23076591 0.18499681 0.2353309 0.23758286 -0.3454583 0.018509518
0.4552045 -0.013177903 -0.015962528 -0.39023113 0.22758342 0.28782773 -0.28180018 -0.19254039
0.41158167 0.21930622 -0.12371294 -0.27709585 0.41459066 0.3151302 0.009196088 -0.058165364
0.34263107 -0.29259297 -0.071533605 -0.3363257 -0.13133326 0.15567707 0.45170498 -0.42326197
0.015022761 0.12368114 -0.29305956 0.21556394 -0.1849116 0.43025565 0.03760497 -0.037096415
-0.24379447 -0.33452204 -0.014856675 0.2913022 -0.009460738 0.13946041 -0.20039982 0.360951
0.3115667 0.049950432 0.22501473 -0.33990636 0.21267793 -0.34234452 -0.40019888 -0.36937425
0.20737378 -0.24169207 0.13994057 0.08869484 -0.012661174 0.008057663 0.20382841 -0.14892451
0.30696195 -0.27977133 -0.20638071 0.04540778 -0.037589435 0.13243034 0.0021336363 -0.35766017
0.15616195 0.09269112 -0.09889265 -0.38004294 0.19323713 -0.2788866 -0.047589112 -0.43043068
-0.30335933 -0.089235626 -0.004816094 0.42549896 0.35185513 -0.079850875 -0.0748238 -0.4079453
-0.07348172 -0.45872727 0.11154678 -0.41266665 0.34543955 -0.2987133 0.15537663 -0.064495414
0.037854273 -0.0075388756 0.004997574 0.38514876 0.022212258 0.060866255 -0.0878384 -0.008271626

network.0.bias f4 [128]
00000000: 74cc da3e aa9b bdbe afd2 4f3e 8e44 04be
00000010: 2077 3f3e bcf8 d8bd 6381 b23e 79a0 953e
00000020: d43b b0be 5a07 3abe 6cc3 4e3d 585c eb3e
00000030: b3f3 843d cf71 dabe 1ff9 603c d26b b53e
00000040: 9faa a0be d5c4 c83e b20e 833e 7eed 4d3c
00000050: 8288 aa3e 0548 d33e 51fa cb3e 3b15 febd
00000060: 94a0 193e 438e 893e 97a8 70be 3a11 703e
00000070: 6a91 86be dfe7 48be edd9 23bd 86b1 a43e
00000080: 7e88 3f3e 4e33 263e 05ce ef3e 42e0 a53e
00000090: 2637 5d3e 55e7 5e3e 5ea3 a0be f702 f93d
000000a0: 069c b0bd 5679 673e 06b0 c13e a547 073e
000000b0: 1467 b43d 4f92 3dbe 78ef 943e afa5 45be
000000c0: 3cf0 bebe d160 c53e 14e2 7cbe 1f73 87be
000000d0: 59ed 253d 63d7 643d 8bd7 ccbe 9e6c 8d3d
000000e0: 679f 893e 6018 d73e 8c4b 843d 0d33 0fbd
000000f0: 68b6 c23e 9ac6 d23e 9f9a 203e 386f 3d3e
00000100: 8af0 80bd 9042 a7bd 6a82 e53e dab4 163e
00000110: 9790 7f3d 75be ae3e 6e85 e73e 3859 f63d
00000120: 88b0 c23e 3032 883e 77c4 a4be 2d0e acbe
00000130: 11ea 793e b846 4bbe 3d3c a6be b2bb eb3d
00000140: 2717 0b3e 2d47 dfbe 97b6 fb3d 2e99 463e
00000150: 2d10 cdbe 55ed 553e 2453 94bd 82c8 b73e
00000160: 258b e03e a60d d9bd 3493 1a3e fe8c 19be
00000170: 681b e0be d733 4b3e 345b f23e 1347 a53e
00000180: 8748 c13e 3689 a73e bb70 bbbe bf4f b83d
00000190: 484e 8a3e 476d 033e d551 373e fb0e d83e
000001a0: 5581 bc3d d0a6 58bd a98f 13bd a0dd a43e
000001b0: e75c a13e d26d b83d eb9e 163d 6ced 923e
000001c0: a0eb 473e 5ea9 673e 9ba7 a0be 49d5 bd3e
000001d0: 87ef d33e 9b02 1e3e 5379 cbbe 2500 d6bd
000001e0: 4f19 af3e 3b12 aebd ac0b b23e 5a57 05be
000001f0: 62f5 eebe e701 9cbe 1107 45be 6b38 15bc
0.4273411 -0.37032825 0.20295213 -0.12916777 0.18697786 -0.10594317 0.3486434 0.29223993
-0.34420645 -0.18166867 0.050479338 0.4596889 0.064917944 -0.42664954 0.01373127 0.35433823
-0.31380174 0.3921267 0.2559715 0.01256883 0.33307272 0.41265884 0.39839414 -0.12406393
0.15002662 0.2686635 -0.23501812 0.23444071 -0.26282817 -0.19619702 -0.040002752 0.3216669
0.18704411 0.16230509 0.46836868 0.32397658 0.21603069 0.21767934 -0.3137464 0.121587686
-0.08623509 0.2260488 0.37829608 0.13210924 0.08808723 -0.18512844 0.2908895 -0.19301485
-0.3729266 0.38550428 -0.24695617 -0.26455018 0.040509555 0.05586947 -0.40008196 0.06905483
0.26879427 0.42010784 0.06459722 -0.034960795 0.3802979 0.41167146 0.15683983 0.18499458
-0.06295879 -0.08166993 0.4482606 0.14717427 0.06239375 0.34129682 0.45218986 0.12028736
0.38025308 0.2660079 -0.3218114 -0.33604565 0.24405695 -0.19851196 -0.32467833 0.115104094
0.1358305 -0.4360899 0.122906856 0.19394371 -0.40051404 0.20891316 -0.0724242 0.35895163
0.4385616 -0.10598306 0.15095216 -0.1499519 -0.4377091 0.19843994 0.47335207 0.32280788
0.37750646 0.3272187 -0.36609444 0.08999585 0.2701285 0.12834655 0.1790231 0.4219893
0.092043556 -0.05289346 -0.036025677 0.32200336 0.3151619 0.090053216 0.03677265 0.28696764
0.19523478 0.22623202 -0.31377873 0.37076786 0.41393682 0.15430681 -0.39741 -0.10449246
0.34198996 -0.08499571 0.3477453 -0.13021603 -0.46671587 -0.304702 -0.19240977 -0.009107689

network.2.weight f4 [128, 128]
00000000: 3a2d d7bb 26e0 6cbd 5bc4 593c f3a8 743d
00000010: 2b35 383c d1ad 113d 5289 c13c 51c9 0cbd
00000020: a22d d23c 0a47 8c3d d115 2cbd 968e 48bd
00000030: 5d70 383d 0014 60bd 618c b83d 9611 2fbc
00000040: dd21 243d 11df a7bd 9d3a e6bb 7f44 93bc
00000050: 8d1a d4bc cde7 b33d 2228 2abd b2f4 a23d
00000060: 14ec eb3c 65ce 2e3d 3bdb d3bc ad39 f23c
00000070: 5a73 63bc 1c78 d8bc d950 debc 7ccf 583d
00000080: eaf8 273a 4b6e 8c3d 3bf0 463d c709 e13b
00000090: 0f69 d73d a682 8dbd d859 3b3d 23a0 8ebd
000000a0: e983 edbb 0412 823d e32e b2bd e70d 7ebc
000000b0: 4fea 8abd ec83 b33d 69e4 6d3c e700 293d
000000c0: 6466 a13d 30ee b1bc f353 80bd 5e1a 863d
000000d0: 469e 593d 2183 793d 41a5 a2bc 2cd4 88bd
000000e0: 5a31 133c 2d3f abbb 6c01 923d 944c 9a3d
000000f0: 717a 923d dbaa 2b3d dfa4 52bd e6e0 eebc
00000100: 67b8 553c cd4a 41bd 2425 31bc 04a2 d63c
00000110: a0ed b33d 5ad4 ad3d c187 cd3a f51d 7cbd
00000120: 39a9 39bd 4065 653d 0785 373d 3c10 b73d
00000130: b0d0 a1bd 0d86 413d 22d9 0dbd 8264 4b3c
00000140: 8949 d5bc 425a f13b 6ed1 9e3b 326f eabc
00000150: c2dc a13d 39c7 313c 9673 5abd bcf3 0d3d
00000160: 5b14 08bc 3411 a53c c5ed ba3d 298c 97bd
00000170: 2c96 783d ff0d 2a3d 691a b53a 1e51 25bd
00000180: 43db 81bd e758 21bc 862d 5e3d 1676 83bd
00000190: cb47 4e3d 27e5 8fbd d0ca 64bd 56df 4a3d
000001a0: cb76 383c d345 ce3d 8407 843c ddd0 ac3d
000001b0: 0898 823c 3362 173d 3766 1b3c de0e ea3b
000001c0: b119 45bd 9a5b 313c 378a 9abd d137 2e3d
000001d0: cbff 113d 2e2f 983d 8efd c13d a034 04bc
000001e0: a605 b3bd 97b6 a0bd 3e32 233b 08e1 31bc
000001f0: 4420 853d 9409 babc aa08 37bd 41a2 53bd
00000200: f875 df3d b262 c8bc 7a25 813d 1548 8c3d
00000210: 19cb 2a3d 996f b33d 0b33 643d 4352 c43d
00000220: ab78 56bd 9dea a0bd 23f8 2abd 18c5 843d
00000230: a3e0 3c3d 0535 523d 8a62 b8bc 59a9 643d
00000240: c23e 473d a20d 9cbd 4fa7 833d bfb7 853d
00000250: f473 7bbb d926 12bd 90d5 a63d 7274 d43b
00000260: 7749 e63d fd5d 79bd 3dfe 96bd 51e5 6b3d
00000270: 70ae 293d 8426 5bbd a1c4 c53d 5417 6d3d
00000280: e058 b63d aef4 16bd f70b b63d 1167 60bd
00000290: a7ab d13d b358 1e3c 7a62 2b3d eafe 2ebd
000002a0: 599e a83b f30d 59bd 98ac 64bd c864 253d
000002b0: 6aa5 52bc a923 9a3d 2b7d babc a90a de3c
000002c0: 035f 793c 2f20 d83d 5f1f f63c 3074 bebc
000002d0: 04b1 6fbd 74a4 91bc e8d1 81bd 6391 933d
000002e0: da36 793d a989 373d 74d5 42bb 0850 af3d
000002f0: d73d 9c3b 7700 c53d e486 98bd 3693 83bd
00000300: e3c8 e33a c919 d33d 788d 913d 9ff9 963d
00000310: 5fcb 7e3c 9254 f8ba 54eb da3d e924 7abd
00000320: fcf1 483d 8052 0c3d 5661 1cbd ca32 67bc
00000330: c3a4 903d 5b57 873d d2d2 c0bc 7917 883d
00000340: 1553 a43d ad44 73bd f1fa 913d 228f 473d
00000350: 6c5e c13d 6596 483d b752 38bd 809a be3d
00000360: 1857 493d 19af 963d 3ffd 9fbc addf 763d
00000370: cf34 353b 4b86 693d dbeb 1ebc 6162 233d
00000380: 2aa3 50bd b97b f33c a7c3 483d 2faa 2f3d
00000390: f86b ce3c 083e b43c 1f65 33bd ab6b 90bd
000003a0: 963d 69bd 740a 9d3d 307c 8abd 430a 9a3d
000003b0: 2163 93bc fb3d 433c 8ae7 2bbc c6a7 03bd
000003c0: 5fc5 4bbd 2388 f0bb 19db b63c 75b6 9dbd
000003d0: 77b8 9cbc c945 553b d9f9 263d 983c 7fbd
000003e0: 6dfb 06bd abde 83bb 4c13 2d3c a310 76bd
000003f0: d743 75bc 7b78 f8bc 8fb0 abbd e148 9abc
-0.0065666707 -0.057830952 0.013291444 0.059731435 0.011243145 0.035566155 0.02362505 -0.034371678
0.025656525 0.06849487 -0.042012993 -0.048964106 0.045029033 -0.054706573 0.0901115 -0.010685345
0.040071357 -0.081968434 -0.00702603 -0.017976997 -0.025891567 0.08784447 -0.04154218 0.07956828
0.028799094 0.042677302 -0.025861373 0.029568518 -0.013882482 -0.02642446 -0.02713816 0.052932248
0.00064076355 0.06856974 0.048568945 0.0068676206 0.10518085 -0.06909685 0.04573998 -0.069641374
-0.007248391 0.063510925 -0.08700349 -0.015506244 -0.06782972 0.087653965 0.014519789 0.041260626
0.078808576 -0.021720022 -0.06266012 0.06547998 0.053129457 0.06091607 -0.01985419 -0.066810936
0.008983934 -0.005226037 0.071291775 0.07534137 0.0715226 0.041910987 -0.051426765 -0.029159974
0.013044453 -0.047190476 -0.010812078 0.026200302 0.08785558 0.084877685 0.0015680717 -0.061552007
-0.0453274 0.056004763 0.0448046 0.08938643 -0.07901132 0.04724698 -0.034630902 0.0124141
-0.02603604 0.007365496 0.0048467433 -0.028617475 0.07903434 0.010850721 -0.053332888 0.03465627
-0.008305634 0.020149805 0.09127382 -0.0739978 0.06069009 0.041517254 0.0013817075 -0.040360563
-0.06340649 -0.009847856 0.054242633 -0.064190075 0.050361436 -0.07026129 -0.05585748 0.049529396
0.011258791 0.10071912 0.016116865 0.08438275 0.015941635 0.036958884 0.009484819 0.0071428856
-0.048120204 0.010825062 -0.07545894 0.0425337 0.035644334 0.07430874 0.0947219 -0.008069187
-0.08741312 -0.07847326 0.0024901773 -0.010856874 0.06500295 -0.022709645 -0.044685997 -0.05166841
0.10911173 -0.024461124 0.06305976 0.06849686 0.041697595 0.0876152 0.05571274 0.09586003
-0.05236117 -0.07857249 -0.041740548 0.06482905 0.046112668 0.051320095 -0.022507925 0.055825565
0.048643835 -0.07619788 0.06428396 0.065291874 -0.0038368674 -0.03568158 0.081462026 0.006483608
0.11244481 -0.06088065 -0.07372711 0.05759174 0.041426122 -0.05350353 0.096566446 0.057883576
0.0890367 -0.03685444 0.08889001 -0.05478579 0.10237818 0.009664702 0.04184196 -0.042723574
0.0051458296 -0.05299182 -0.05582866 0.040379316 -0.012856821 0.07526333 -0.022764763 0.027104693
0.015220406 0.105530135 0.030044256 -0.023248762 -0.058518425 -0.017778613 -0.063388646 0.07205465
0.060843326 0.044809017 -0.0029729279 0.085601866 0.004768114 0.09619229 -0.07447603 -0.06424563
0.0017378594 0.103076525 0.07107061 0.0737183 0.015551417 -0.0018946102 0.106894165 -0.061070357
0.0490589 0.034258366 -0.038178764 -0.01411123 0.07062676 0.066084586 -0.023538027 0.06645102
0.08023659 -0.059391666 0.071279414 0.048720486 0.09441838 0.048971552 -0.045000758 0.09306812
0.049155325 0.07357616 -0.019529937 0.060271908 0.0027649885 0.057012837 -0.009699787 0.039888743
-0.050936855 0.029722081 0.049014714 0.04288691 0.025197968 0.022002235 -0.04379761 -0.07051786
-0.0569435 0.076680094 -0.06761968 0.075214885 -0.017991604 0.011916633 -0.010492215 -0.032142423
-0.049748775 -0.0073404475 0.02232127 -0.077008165 -0.019130928 0.0032542816 0.040765617 -0.062313646
-0.032954622 -0.004024347 0.010563683 -0.06007446 -0.014969788 -0.030330887 -0.08383285 -0.01883358

network.2.bias f4 [128]
00000000: dd20 ecbc 00a1 0abd cbf3 4b3d eb9b 9f3d
00000010: 292a 443d 5cc0 c5bd 319e 9ebd 8939 74bd
00000020: c562 f43b b8b9 253c 9174 dfbc d0c7 2fbd
00000030: d67f 07bc f968 103d 8cce 243d 6282 113d
00000040: 30b4 cf3d 45cc 66bd 78b5 d0bb b9dd 36bd
00000050: eaef 113c 9b33 89bc fdd3 39bd 1916 a83d
00000060: e6c7 293d b789 a43d 9f4e 273c 8a16 9fbd
00000070: 130c a1bd bb90 4bbc 2625 73bc 2bd6 ed3c
00000080: 2304 0ebd b26c 493d 2b78 8ebd c3cb 3a3d
00000090: adfc 1d3d 438a 20bd b829 12bb 4edb 883d
000000a0: dd0e a43d bffd 3d3d 8b9b 6abd 452a db3d
000000b0: 7b8a 40bc 0a72 12bd 1a9b 0c3a fb39 683d
000000c0: f431 3dbd 56e7 f2bc 2d2d a8bd e7bb e33c
000000d0: d652 333c 320d a33b fdcc b13d 67c2 f6ba
000000e0: 8394 bdbc 8214 a8bd cd05 f1bc 3a12 03bd
000000f0: bf6f 7cbd 8d8c 043d 04d5 273d 8e19 e7bc
00000100: 4df1 12bd 90e8 e03d 50a1 a53d b0b4 3fbd
00000110: c7d7 a3bd 68c1 f43c 86db 653d 6e26 cc3d
00000120: 4f3e 6c3d bef0 bd3d e285 0cbb 7920 843d
00000130: 40db c73d 842e 96bd 73d0 993d ff99 39bd
00000140: 1a94 853c 6e6a ac3d af32 e23d 2384 c33a
00000150: f68e 49bc 8920 703d 7bfb 26bd ad69 423d
00000160: 6483 893d ab5c be3c 7ec0 1bbd 59c1 c23d
00000170: 5d96 7abd 1de0 543d 7eab f63c ea55 963d
00000180: 91f3 f1bb 667b adbd 8986 213d 2099 59bd
00000190: aa03 183c e949 5c3c 15e2 833d a568 8e3d
000001a0: c5a2 303d 5a97 79bd bec8 91bc 7cb1 b03d
000001b0: b5bd 1a3d 8117 393c 6106 373d 815e 4a3d
000001c0: 6441 c03a 596d abbd 0b3e cd3d 4d81 483d
000001d0: 963a aa3d 2397 95bd bba6 1ebd 157e a63d
000001e0: 4523 8c3d 5992 86bd 44dc 5f3d d1e8 81bd
000001f0: a44a 673d 8de3 8fba 6380 75bd c895 7d3d
-0.028824264 -0.033844948 0.049793046 0.07793411 0.04789177 -0.0965583 -0.07745016 -0.059625182
0.0074580633 0.01011508 -0.027277263 -0.042915165 -0.008270225 0.03525636 0.04023604 0.035524733
0.1014179 -0.05634715 -0.006369289 -0.044645045 0.008907298 -0.01674824 -0.045368183 0.0820734
0.041450404 0.080340795 0.010211616 -0.07767971 -0.07863631 -0.012424643 -0.0148404 0.029032787
-0.034671914 0.049175926 -0.06956514 0.04560448 0.03857105 -0.039194357 -0.0022302698 0.06682454
0.080106474 0.04638457 -0.057277244 0.10701422 -0.011751766 -0.035753287 0.0005363688 0.05669592
-0.046190217 -0.029651325 -0.082117416 0.02779956 0.010945043 0.0049759382 0.086816765 -0.0018826247
-0.023142105 -0.082070366 -0.029421711 -0.031999804 -0.061630007 0.032360602 0.040974632 -0.028210428
-0.035874654 0.10981858 0.080874085 -0.046803176 -0.08000141 0.02987738 0.056117557 0.099682674
0.05767661 0.092744336 -0.0021442105 0.06451506 0.097586155 -0.07333091 0.07510462 -0.045312878
0.016305972 0.08418737 0.110448234 0.0014916699 -0.012302151 0.058624778 -0.040767174 0.04746406
0.06714514 0.023237547 -0.03802537 0.095095344 -0.061178554 0.051971544 0.03011107 0.073406056
-0.0073837717 -0.08470802 0.039434943 -0.053124547 0.009278217 0.013445356 0.06439606 0.06953553
0.04312398 -0.060935356 -0.017795917 0.086276025 0.037778575 0.011297108 0.044683818 0.049406532
0.0014667925 -0.08370466 0.100215994 0.048951436 0.08311956 -0.07304218 -0.038733225 0.08129517
0.06842665 -0.06570882 0.05465342 -0.06343234 0.056467667 -0.001097785 -0.059936892 0.06191042

network.4.weight f4 [128, 128]
00000000: 6e31 f13c cc63 873d 3b9c 59bd 4579 aa3c
00000010: 529e 9b3d ea37 2c3c 0efe b5bc 3465 1ebc
00000020: 1ca5 a1bd cda6 7a3c e1da b9bd 15a0 55bd
00000030: a322 fabb a3d9 623d 42f8 3b3d ba77 b0bd
00000040: 6e6c 6c3d c679 773d c879 b73c d30e 34bd
00000050: 63fc 22bc e66c 70bc 90cb 333d 27cd 423d
00000060: 837a 3d3d fc49 b83c ff6b 413d e2f6 1fbd
00000070: 84e8 943d 7669 8cbd d35e d5bb ab92 4d3c
00000080: cbea 0abd b539 803d 100f e13c 1e17 c3bc
00000090: 3a62 ae3d ab3b 4c3b 6cd4 9e3c 3ecb 80bd
000000a0: 973a ffbc b54f e9bc e216 863d 1d2b 8d3d
000000b0: 201b aabd 5e3b 823d 07d3 a73d f7ec a0bd
000000c0: 9ee1 853d ba1d 833c 5b95 a5bd 3a6b 3b3d
000000d0: 689d 8d3d 4c6e aa3d 5072 3ebd 2f71 a6bd
000000e0: ca97 d13c acc5 8bbd 44e7 bb3c 94de d7bc
000000f0: 14c6 8ebd 4153 733d 0c48 643d a70d f2bc
00000100: ddf4 673d eab7 babc 7070 9b3d c30d c0bd
00000110: 4800 9c3d e3ee 1c3d 6d68 bfbd f2c7 6dbc
00000120: 327a 253d 911d 69bd 2488 5b3d 44b6 5d3d
00000130: 0b0b b5bc 7fbd 2e3d c657 3b3d 2a79 ac3d
00000140: f6ee 5d3d 0a51 6abd 05e3 8fbd 5500 903d
00000150: 93c7 68bc 59f4 6b3c fac3 bfbb bded 993d
00000160: 5369 55bd faf1 32bd 6aeb 1c3b 5073 a43a
00000170: ba26 b4bd d59d 79bd a772 f53c 6f5d 65bd
00000180: 9f7d cabc 2a64 a03d 4cc8 3e3d 3a12 963d
00000190: 105b 50bd e3d3 4c39 c2e2 4dbd cad2 f73b
000001a0: 522f ffbb 393e 5c3d 05cb 1c3d e991 223d
000001b0: af33 8b3d 5859 ffbb 03b2 e7bc 4555 82bd
000001c0: ca19 9dbc 20f2 573d 57b5 3cbd a9ee 0d3d
000001d0: 027f a9bd e6e8 e2bc 2714 fe3b 170a 6a3d
000001e0: a76e b7bd 5bfa 3fbd 043e aaba fbb1 e53c
000001f0: e7e3 cebc b8cf 443d 7689 3ebd 6d7d 003d
00000200: ff08 9abd e8e3 2ebd ed45 13bc 6a6a a7bc
00000210: 5ad2 733d 0b95 453c b3b0 a63d 32bc bebc
00000220: 25f5 8fbd b61f b33c 20f6 95bd 7323 753d
00000230: 576f 2c3d 8040 f1bc c267 af3c b760 a73d
00000240: 6a53 683d 4c49 e4bc a987 93bd 8891 3f3d
00000250: 13e3 6a3d 1226 943b 788b f23c 4b34 a6bd
00000260: 4f8c 403d 009c 93b8 52cb 72bc 2256 a13d
00000270: f5cc 2dbd c841 91bd db42 a6bd 3a55 9a3d
00000280: 39bc f1bc e3c7 70bd 76f8 673d 716b 843d
00000290: e94f 1dbd fdcf 693d e47c 71bd 7624 483d
000002a0: b8bf 763c 54ef 91bd 9e42 9bbd c600 0dbd
000002b0: 7637 f4bb 09e3 3abd 5b06 803d fbdb 84bd
000002c0: 2994 37bd 8471 dfbc a1e1 8e3d 2f2d 0f3c
000002d0: 16c0 5abd d6be adbd c59b 19b9 533d b5bb
000002e0: e9a7 0bbd 9314 42bc 9df6 a5bd f06a 153c
000002f0: 1d67 a9bd 570d 4abd 4064 393c d240 793b
00000300: 56c0 1d3d 70e0 36bd 67bb 93bd 2488 31b9
00000310: 15f3 34bd 5273 67bd c868 10bd 9e06 4ebd
00000320: 6f6a 93bd b680 79bd 888a b3bd fabb febc
00000330: 9d9d b7bb 4c91 81bd 082a ed3c bef2 803d
00000340: a836 1f3c eadd 003c 797f 9d3d 4a22 013d
00000350: f563 9bbc a1aa d13c fda0 e2bc b18a 153d
00000360: b8f0 313d f7f6 883c 6cbc 72bd e00e 223d
00000370: 54f1 16bc 6f4d 9abc 3477 5b3d 2fbd f1bb
00000380: 6bd5 a03d d053 7cbd 8e2c 81bd 4992 ac3d
00000390: 2915 b33d 011b 40bc bda9 94bd d45f 2b3b
000003a0: 0114 ae3c 9d11 91bd d2f7 d93c 164e 3d3d
000003b0: 0152 2f3d efc5 dfbc 0e64 923d 27fc 103d
000003c0: 8308 933c 58b0 903c 640d c4bc e64d ebbc
000003d0: 8304 4dbd 7ba3 80bd 9e83 85bd 0251 48bd
000003e0: d8eb 71bd ce18 91bd cee0 31bd cba4 a43d
000003f0: 8757 9dbd 1e9c f63b 1f15 a3bc 98f4 8abd
0.029442515 0.066108316 -0.05312751 0.020809779 0.075985566 0.010511378 -0.02221587 -0.009667683
-0.0789282 0.0152985575 -0.09074951 -0.05215462 -0.0076335235 0.055383336 0.045891054 -0.08616586
0.057720594 0.060418867 0.022396937 -0.04395945 -0.009947869 -0.014674401 0.043895304 0.04755893
0.046259414 0.022496216 0.047222134 -0.039053805 0.07270911 -0.068560526 -0.006511548 0.012547175
-0.033915322 0.06261007 0.027473003 -0.023814734 0.08514829 0.0031163495 0.0193884 -0.06288765
-0.031155868 -0.02848039 0.06547333 0.06892989 -0.08305955 0.0635898 0.08194547 -0.078576975
0.06537174 0.016005386 -0.08085128 0.045756556 0.069147885 0.08321819 -0.046495736 -0.08127057
0.025585074 -0.06824812 0.022937424 -0.02635125 -0.06971374 0.05940557 0.05573277 -0.029547526
0.056630004 -0.022792775 0.07589805 -0.09377625 0.07617241 0.038313758 -0.093460895 -0.014513003
0.040399738 -0.056912962 0.05359663 0.0541289 -0.022099992 0.042661186 0.045738004 0.08421548
0.05418297 -0.05720619 -0.070257224 0.07031313 -0.014207738 0.014401519 -0.0058522196 0.07516048
-0.052102398 -0.043687798 0.0023944029 0.0012546573 -0.08796449 -0.060941536 0.029961897 -0.05599731
-0.024718104 0.07831605 0.046577737 0.07327695 -0.050868094 0.0001953389 -0.05026508 0.00756297
-0.0077876234 0.053770278 0.038279552 0.039689932 0.06796967 -0.007792633 -0.028283125 -0.0636392
-0.019177336 0.052721143 -0.046071377 0.034651432 -0.08276178 -0.027698945 0.007753867 0.05713853
-0.08956652 -0.046869617 -0.0012988453 0.02803897 -0.025255157 0.04804966 -0.04651781 0.031369615
-0.07521247 -0.042697817 -0.00898884 -0.020436484 0.05952678 0.01205946 0.081391715 -0.023283098
-0.070291795 0.021865707 -0.07322335 0.05984826 0.04209837 -0.029449701 0.02141178 0.08172744
0.056720175 -0.027866982 -0.072036095 0.04676965 0.05734546 0.00452114 0.02960752 -0.08115443
0.04700881 -7.0385635e-05 -0.014818983 0.07877757 -0.04243179 -0.07092625 -0.081182204 0.07535787
-0.029508697 -0.058784377 0.056633435 0.06465805 -0.038406286 0.05708312 -0.058956996 0.048862897
0.015060358 -0.07125726 -0.075810656 -0.034424566 -0.0074529005 -0.045626674 0.06251212 -0.064872704
-0.04481903 -0.027275808 0.06976629 0.0087388 -0.053405844 -0.08483665 -0.00014649246 -0.005530992
-0.03409568 -0.011845726 -0.081036784 0.009119734 -0.082716204 -0.049329128 0.011315405 0.003803302
0.038513504 -0.044647634 -0.072134785 -0.00016930752 -0.044177134 -0.056506462 -0.035256177 -0.05029928
-0.07198035 -0.060913764 -0.08766657 -0.031095494 -0.0056035058 -0.06326541 0.028950706 0.062962994
0.009717621 0.007865408 0.07690329 0.03152684 -0.018968562 0.025594058 -0.027664656 0.03650922
0.043442458 0.016719325 -0.059261724 0.039564967 -0.009212811 -0.018835751 0.053580478 -0.007377289
0.07853206 -0.061603367 -0.06307326 0.08426339 0.0874427 -0.011725188 -0.072589375 0.0026149647
0.021249773 -0.070834376 0.026607428 0.046217047 0.042802814 -0.027316062 0.0714799 0.03539672
0.017948395 0.017662212 -0.023932166 -0.028723668 -0.05005313 -0.062811814 -0.065192446 -0.04890538
-0.05906281 -0.07084809 -0.04342728 0.08039244 -0.0768271 0.007525935 -0.019907532 -0.06784934

network.4.bias f4 [128]
00000000: 99a3 8fbd ae80 303d 0ca6 c93d 52f0 a73d
00000010: b7a8 f73b 8e4c 3cbc 97f8 9fbc a6e4 643d
00000020: 6b86 52bd d166 4fbb b78d abbd f449 d9bc
00000030: dd4d 233b da9a e83c f17f 08bd 6f89 e7bb
00000040: 9998 a1bd 6e3d 1dbc db8c be3d cbb7 43bd
00000050: 5d80 0b3d 268b 07bd 3bd9 1e3c a438 943b
00000060: b44d 7f3c bde7 33bc c0b5 a23d 20b0 21bd
00000070: 6c73 6cb9 1b43 223d 62a2 29bc 1acc 8abd
00000080: a92f 0c3d 2e3c 92bc 8be3 81bd 14fb fa3c
00000090: c6f0 98bd aa25 3cba 93a0 3cbd 2b89 fbbc
000000a0: d00c 9e3d d329 febc 9d45 19bd 12f8 073d
000000b0: ded7 5dbd d432 89bd f7e1 153d 5ef6 b2bc
000000c0: 7619 5cbc b483 c5bb 63af 2bbd 41fe 9e3d
000000d0: 8429 8dbd 4125 903d cb13 71bd 3e49 64bd
000000e0: 30bf e0bc f45a 7b3d 2bd2 913d f75f c2bc
000000f0: 1590 42bd dc64 d53d 4307 503c 5dc3 be3d
00000100: d31c 98bd 480c ba3d a539 113d 4476 92bd
00000110: 3531 a63d 087c cdbc 0f17 653d a778 e8b7
00000120: 5321 bebc ad3d a6bd f9a1 a53c bd40 76bd
00000130: 5fdf cc3d 3315 98bd e90a 153d b84f d0bc
00000140: c29e da3d aba8 623d 7b3e cb3d 01a9 913d
00000150: 5ab6 afbd dd2c 2f3d a103 0c3d 0d4a 8f3d
00000160: 06cd 9a3d 422d b9bb e491 803d 01a3 a73d
00000170: 849f 0b3b 0cff c7bc 28e3 073d b324 ce3d
00000180: 07d4 963d f819 973d c342 ca3d 0f50 39bc
00000190: 0e08 85bc b3d2 313d 6c2d 9d3d 8ddb 0c3d
000001a0: 3fd0 a8bd f555 5e3d f80d 403d f5ab a9bd
000001b0: 5977 31bd cb1b ffbc a9b7 0ebd 0241 cfbc
000001c0: 3bc4 93bc c272 91bd 87ce 813d 4fb0 43bc
000001d0: 2afb c9bc 1bae 1d3d a909 4c3d f8f1 933d
000001e0: cd44 6dbc d6b5 9d3d 55ad c13c df76 8a3d
000001f0: e3cb bc3c f737 a73c e868 03bd 3eb8 9abd
-0.07013626 0.04309147 0.09846124 0.08200134 0.007557954 -0.011492861 -0.019527717 0.05588212
-0.051397722 -0.0031646977 -0.08376639 -0.026524521 0.0024918236 0.028394151 -0.03332514 -0.007065944
-0.07890434 -0.0095971655 0.0930421 -0.0477827 0.034057964 -0.033091687 0.0096953465 0.0045233537
0.015582491 -0.010980544 0.07944822 -0.039474607 -0.00022549712 0.039614778 -0.0103536565 -0.067772105
0.03422514 -0.017850962 -0.063422285 0.030637302 -0.07467799 -0.0007177243 -0.046051573 -0.030705055
0.077172875 -0.031025803 -0.037419904 0.033195563 -0.054160945 -0.06699148 0.03659245 -0.021845993
-0.013433805 -0.006027663 -0.04191531 0.07763339 -0.06892684 0.070383556 -0.058856767 -0.05573391
-0.027434915 0.061366037 0.071201645 -0.0237274 -0.04750069 0.10419628 0.012697044 0.09314606
-0.07427373 0.09084374 0.035455365 -0.07151464 0.08114854 -0.025083557 0.055930194 -2.7712738e-05
-0.02320925 -0.081172325 0.020218836 -0.060120333 0.10003542 -0.074259184 0.036387358 -0.025428638
0.10674812 0.055336636 0.099240266 0.07112313 -0.08579703 0.042767394 0.03418315 0.06996546
0.07558636 -0.005651147 0.062778264 0.081853874 0.0021304796 -0.024413608 0.033175617 0.100655936
0.0736466 0.07378 0.09876015 -0.011310591 -0.016239192 0.04341383 0.07674679 0.034389067
-0.08242845 0.054281194 0.04688832 -0.08284751 -0.04332671 -0.031141182 -0.03484312 -0.025299553
-0.018037906 -0.071019664 0.0633822 -0.011943891 -0.024655897 0.038496118 0.0498139 0.07223886
-0.014481735 0.07700698 0.023642221 0.06760954 0.02304644 0.020412428 -0.03208247 -0.07554673

network.6.weight f4 [128, 128]
00000000: fc4a b13d 0068 de3c 21fb 303d f671 95bd
00000010: ab4d a8bd c7de a2bd 2ee5 1dbd db5b 663c
00000020: 56db 873d 889f c73c 70ce 1d3c 8c79 a23d
00000030: 33bb 83bd 1a46 a2bd 8090 93bd 7ea4 09bc
00000040: 1fea a7bd 968b a8bc 8f81 b73b ed52 4b3d
00000050: c581 aebd 1e61 963d 575c 97bd 46b0 773d
00000060: 662e 48ba d62b 2bbb eec0 9a3d 7d04 823d
00000070: 48ac 71bc 9d70 823c 6c28 a3bd a247 5a3d
00000080: 1ec3 7cbd dfb2 08bd ec7f afbd 6598 9ebd
00000090: d838 52bc 0122 773c fedb 39bd 00f7 15bd
000000a0: 9222 fb3b 043d 90bd 743b 8dbd 6da7 833c
000000b0: f255 9bbd d359 973d 01f4 683d 8c43 bb3c
000000c0: f679 8abb 1095 30bc 7298 a0bd a40b a53d
000000d0: 9fff cb3c e2fb 82bc b46f f43c eff1 803d
000000e0: 5a8d e0ba 277d 893d 46bf 973d e5d7 a63c
000000f0: 91c9 013a 1a0e dc3c cc80 1ebd 8dc5 82bd
00000100: d697 5d3d 1d9f 68bd 3082 233c 435f 45bd
00000110: 2ed3 86bc 1aac 96bd 0300 5b3d b23f 0e3d
00000120: e0c9 c8bb 6017 e4bc e627 a53b d0ee b13d
00000130: 1378 37bd 9664 80bd 50e6 ddbb 88d9 853c
00000140: 4608 77bd a4bc 94bd 625a 473d 513e a6bc
00000150: 368c 41bd 2e97 aebd ef10 603d a95f 60bd
00000160: 229e 7abd a426 64bd 7895 273d 8fb0 343d
00000170: fc5d d53c 750a 303d 0222 88bd 36cb 9f3d
00000180: 6f46 a43d 762d 9ebd 3508 9c3d 6002 c33b
00000190: 1c04 46bd d949 333d faab 57bd ac56 57bd
000001a0: 03de a03d 4a7f 873d 2fd7 f73c 8782 9dbd
000001b0: 7074 b4bd 717e 80bd 106e 0b3b 0054 20ba
000001c0: 76fe 39bd 2957 89bd 4030 bf3a 138c 76bd
000001d0: 1693 503d 6f2c 8f3d 5cda 8fbc f142 283c
000001e0: d50e 133d 31b3 43bd 884b 533d 844d b53a
000001f0: d15b 323d f536 9cbd 9805 88bd 4074 3b3c
00000200: 3d34 a8bd 95fa abbd d260 fb3a 3180 9f3d
00000210: 5cde 933d 5a84 5f3d b9ad a53d 6e84 5b3b
00000220: b2dd 443a 541f a3bd 5d8a 9c3d 024c 063b
00000230: bc2d 8cbd 89c4 2b3d 5a51 0fbd 82ec 5fbd
00000240: 2c76 46bd 0b68 583d 77a3 1dba 6a60 3c3d
00000250: 71b9 72bb e1c9 ad3d 8927 2abd 704b 693c
00000260: c10c 393d 79ae 0dbb 612f efbc 4d97 4b3d
00000270: 040a 9bbd 0a71 8bbc 90e5 92bd 6676 45bd
00000280: da87 aa3b cf55 063c 1d6e a7bc ccaa 54bd
00000290: dd8e f4bc a11f 8dba 765d 68bb 14c1 383d
000002a0: 66ce d03c 18a4 953b da37 80ba 09c3 ecbc
000002b0: bab0 7fbc d391 febc e5fa 42bd dad5 abbd
000002c0: 38bc a93d 19a1 573d c1ca 1fbd 8bed 9a3d
000002d0: 7811 babc ec2d ab3c 4430 163d 1788 a43d
000002e0: 298c 843b db15 f8bc d36d b8bb 7d65 533d
000002f0: c9e2 a2bd 54fa 79bc 27db 823d 5032 0dbc
00000300: 105a a23b 4f1e 8fbd e33d 4a3d 83f9 de3c
00000310: 0abf b9bd 8e7c 1bbd b3a5 523d 875a acbd
00000320: 3c65 943d 22b0 44bd 4585 773d e88e 083d
00000330: 77c7 433d 656f 473d c417 0fbc 6e07 483d
00000340: 7d86 96bb 89d0 bbbd 0846 563b bf70 ae3d
00000350: 18c9 443d 5dc1 7e3d 6e36 a1bd 96c8 353d
00000360: 80a3 8e3d 1b07 1bbd cdcc a7bd f254 793d
00000370: efd3 e23c 0cf8 98bc ac77 f43c bb6b 103c
00000380: 3ed1 df3c b49e aebd deb0 adbc c3cb 2abd
00000390: 1ee0 123d 275b 123d c209 cdbb a65d 45bd
000003a0: 69b9 3b3d 1df9 443d 436e a9bd 5e26 07bd
000003b0: dcf8 b4bd a3c4 7d3d 7aad b6bd ff38 53bd
000003c0: 6c3d 843c 0626 a6bc c79a 963d 56fe 413d
000003d0: 3501 6ebd 564f a33d 44f2 42bd 3ab6 863d
000003e0: 9200 1c3d 989e 99bc a2c5 9d3d 0fdb 4d3d
000003f0: 9526 19bd 74b8 c13c 7a01 6d3d d229 293d
0.0865688 0.0271492 0.043208245 -0.07297127 -0.08217939 -0.07952648 -0.03854864 0.014059986
0.06633632 0.024368063 0.009631738 0.079333395 -0.0643219 -0.07923527 -0.072052956 -0.008401034
-0.08198952 -0.020574372 0.0056001614 0.04963963 -0.08520845 0.073427424 -0.07390659 0.06047084
-0.00076363084 -0.0026118658 0.0755633 0.06348512 -0.014750548 0.015922839 -0.07966694 0.05329097
-0.061709516 -0.03337371 -0.08569321 -0.07743911 -0.012830935 0.015083791 -0.045375817 -0.03661251
0.007664033 -0.07042888 -0.068961054 0.016071046 -0.07584752 0.073901795 0.056873325 0.022859357
-0.0042259647 -0.010777727 -0.07841577 0.08058861 0.024902163 -0.015989248 0.02983842 0.06296145
-0.001713197 0.06713324 0.074095294 0.020366618 0.0004950995 0.026862193 -0.03869705 -0.06385336
0.05409988 -0.056792367 0.00997977 -0.04818655 -0.01645812 -0.073570445 0.053466808 0.034728713
-0.006127581 -0.027843177 0.0050401567 0.08688128 -0.044792246 -0.06269185 -0.00677184 0.016339079
-0.060310625 -0.07262543 0.04867018 -0.020293387 -0.047252856 -0.08524929 0.05470365 -0.05477873
-0.061185963 -0.055700913 0.04091403 0.044113692 0.026045792 0.042978723 -0.066471115 0.07802431
0.08021247 -0.07723515 0.07618753 0.005951211 -0.048343763 0.0437716 -0.052654244 -0.05257289
0.078548454 0.06616075 0.030253975 -0.07690912 -0.08811271 -0.06274117 0.002127532 -0.00061160326
-0.04540869 -0.067060776 0.0014586523 -0.06019218 0.050921522 0.06990897 -0.017560177 0.010269866
0.035902817 -0.047778312 0.051585704 0.0013832306 0.043544594 -0.0762767 -0.06641692 0.01144129
-0.08213089 -0.08397404 0.0019178635 0.077881224 0.07220146 0.05456958 0.080897756 0.0033495682
0.0007509842 -0.0796496 0.07643578 0.0020492082 -0.06844661 0.041935477 -0.034989692 -0.05466891
-0.04845254 0.052833598 -0.0006013433 0.045990385 -0.0037036801 0.08485771 -0.04154161 0.014239177
0.04517818 -0.0021618886 -0.029197397 0.04970484 -0.0757027 -0.017021675 -0.07172692 -0.048208617
0.005204183 0.008199169 -0.020438248 -0.051920697 -0.029853279 -0.0010766872 -0.0035456098 0.04510601
0.025489043 0.0045666806 -0.000978227 -0.028901594 -0.0156061 -0.031075394 -0.047602553 -0.08390398
0.08287853 0.05264387 -0.03901172 0.07564839 -0.022713408 0.02089592 0.036667123 0.080337696
0.0040450287 -0.030283859 -0.0056283264 0.05161046 -0.07953412 -0.015257437 0.06389456 -0.0086179525
0.004954584 -0.06988203 0.049375426 0.027218586 -0.09069641 -0.03796058 0.051427554 -0.08415704
0.072458714 -0.048019536 0.06042983 0.03333941 0.047797646 0.04869022 -0.0087336935 0.04883521
-0.004593669 -0.09170634 0.003269555 0.08517598 0.04804334 0.062196124 -0.0787171 0.044380747
0.06964779 -0.037848573 -0.081933595 0.060872026 0.027688948 -0.018672965 0.02984222 0.008814747
0.027321454 -0.08526364 -0.0212025 -0.04169823 0.035858266 0.03573146 -0.0062572667 -0.048185013
0.045831118 0.048089135 -0.08272984 -0.032995574 -0.08836529 0.061955106 -0.08919807 -0.051568028
0.01614257 -0.020281803 0.0735374 0.047361694 -0.05810662 0.079741165 -0.047594324 0.06577726
0.03808648 -0.018752381 0.07703711 0.05025774 -0.03739031 0.023647524 0.057862736 0.04129965

network.6.bias f4 [128]
00000000: ff52 0dbd a223 02bd 60f8 2abd 398a 953d
00000010: 6c25 8bbc e7c1 783c fec7 80bd 5f1e b33d
00000020: a20a f43c 52f9 7abd b908 8bbc 286b debc
00000030: 60bb 79bd 84c4 8c3d 1fa3 603d bfce 08bd
00000040: 1a45 fc3c 360b b93d 26fa 0f3d cf83 293d
00000050: 4221 9c3d 5a38 a13c 51a5 59bd 840f 5d3d
00000060: fa5d 17bd 1644 b4bd 2a33 393c ffe9 95bd
00000070: 2e5a debb 8a6e 85bd d354 c63c bc20 b03d
00000080: 8087 49bd 85f5 46bd 8371 a53d 2169 133d
00000090: 66d2 56bd 9c31 9ebd 3c12 a13d 71ba f93c
000000a0: bcc8 8f3d fab2 d5bc aa42 9bbd 05d7 71bd
000000b0: 531a bbbc 48d2 9fbd 5d95 18bd 3a0b 6bbd
000000c0: 4c53 4dbc 005b bbbc f461 f2bc 5d7b 3abd
000000d0: 051d a03c 94b5 53bb 5ff1 df3c fc1b 9f3c
000000e0: 3256 bc3d d9db c33c a568 9fbc 2531 453d
000000f0: fbac 3c3c aa7b 99bd 9631 1dbc d0ac 543d
00000100: 3177 9a3d b769 c33c ba7c f8bb cc56 683b
00000110: e6ce ad3c b272 45bc ea57 54bd c6fb 98bd
00000120: c65e 3e3c e586 d93d 626f 963b ac0e 683c
00000130: d7a5 97bd 243f 6fbd b586 363d 406a d03d
00000140: 0a0a b53c 69c8 973d ac30 3bbd 903c 723d
00000150: 28b3 df3d 02ce 3ebb da13 64bd 122e 6c3d
00000160: 7057 ae3d 8955 c2bd c01a 26bd 8f61 25bc
00000170: f60c 53bd 3dda a33d 2c7a 12bd 671d c43b
00000180: 38af 933c 91dd 973d 7863 c33d 5849 e9bb
00000190: dc75 bebc 025f b1bd b71f 9a3d 3495 a6bc
000001a0: 4e5d c8bc 7f59 b43c 0607 1e3d 5798 ef3a
000001b0: 526c 59bd 295b 8f3d 5265 5a3d bbd1 e13b
000001c0: 2d5f cb3d 74d7 243d 1860 84bd 8f92 a3bd
000001d0: 9d83 d53c 3d40 8c3d 6dfc 5dbd 5509 043d
000001e0: 02c8 a6bc 8431 433d 1eef 6a3c a212 09bd
000001f0: 4d2e 79bd a487 76bd 8781 c1bc e461 543d
-0.03450298 -0.031772263 -0.041740775 0.073017545 -0.016985618 0.015182949 -0.062881455 0.08746027
0.029790226 -0.061272927 -0.016971933 -0.027150705 -0.06096971 0.0687342 0.054843064 -0.033400293
0.030794669 0.090353414 0.03515067 0.041385468 0.07623531 0.01968019 -0.053136174 0.053969875
-0.036954857 -0.08802049 0.011303702 -0.07320022 -0.0067856526 -0.06515224 0.02421037 0.085999936
-0.04920149 -0.04857399 0.08078291 0.03598893 -0.052446745 -0.07724306 0.07864806 0.03048441
0.07020709 -0.02608632 -0.075810745 -0.05904295 -0.0228397 -0.0780378 -0.03725182 -0.057383753
-0.012532067 -0.02287054 -0.029587723 -0.045527805 0.019545088 -0.0032304274 0.027336774 0.019422524
0.09196128 0.023908542 -0.019459078 0.04814257 0.011515851 -0.0749429 -0.009594342 0.05192262
0.07542265 0.02385412 -0.007583228 0.0035452126 0.02121682 -0.012051271 -0.051841654 -0.07469897
0.011619275 0.10621432 0.0045909146 0.014163654 -0.07404678 -0.058409825 0.04456206 0.101765156
0.022099514 0.07411272 -0.045700714 0.05913979 0.10922843 -0.002911449 -0.055682994 0.057661124
0.08512771 -0.09488971 -0.040552855 -0.010094061 -0.051526032 0.0800061 -0.035761043 0.0059849503
0.018027887 0.07415307 0.095404565 -0.007119339 -0.02324956 -0.086606994 0.075255804 -0.020334817
-0.024458554 0.022015331 0.038580917 0.0018279654 -0.053081818 0.06999809 0.053319283 0.006891457
0.09930263 0.040244535 -0.06463641 -0.07986938 0.026063735 0.0684819 -0.05419581 0.032235462
-0.020359043 0.047654644 0.014339237 -0.033465035 -0.06083517 -0.06018795 -0.023621334 0.05185117

network.8.weight f4 [1, 128]
00000000: b880 7e3d ada4 8dbd 1a4b 9ebc 9fdc 533c
00000010: eb06 bfbd 6d82 16bd 3b70 b4bd 81cf d1bd
00000020: 0cb0 b9bd 2107 943d 116f 44bd ce76 ef3c
00000030: af68 963d 1c0f cb3c 7f18 9ebc fdab 7b3c
00000040: 8ef0 8e3c 1e63 b0bd d417 863c 80e7 aa3c
00000050: 3e44 1239 e387 6f3d c78c c5bc a16f a53c
00000060: 3b2d a8bd 3925 ad3d 60d3 a93d f990 dcbc
00000070: af36 4d3d 18ae 043d 4562 363d 14e1 94bc
00000080: ef4e 013d d0ad af3d 9a3a 613d 9fff d3bd
00000090: 3200 a13d afee 9f3c 42fc d1bd df56 ddbd
000000a0: 6bc8 ad3d 4f2e 033c 9e64 243b d0b0 4c3c
000000b0: 2ecb 973d ac8f babc a21f 54bc e048 bfbd
000000c0: 59af 91bd 79d8 a2bb a612 bebd 36a6 86bc
000000d0: 8c7f 95bd a51b 9d3d cea4 5a3d 840a fd3c
000000e0: 098e fcbc 7c93 723c 7cc2 9b3d 4859 843d
000000f0: a2b0 a8bc b8d4 a83c 1c43 1cbd c72c 91bd
00000100: efbc 883d 8740 78bd e2b7 793d d353 ad3d
00000110: b935 803d 4094 4abd e0b6 fd3c de75 e3bc
00000120: e5a7 993c 8eb4 50bd a633 43bb 0cf2 d6bd
00000130: 39bc a43d d326 383d ac2e cabd 5b07 b3bd
00000140: fa57 453d 5ed7 b6bd d947 a3bd 1c11 9abc
00000150: 6a48 99bd 33af 553c 890d 42bd db21 89bd
00000160: d84f 63bd fae0 793b 14ef 513d 4ef4 8ebd
00000170: 3a89 253c 5d33 fe3c 18ec 9b3d 5b5f a43d
00000180: 4c8b 473d 7f2d 74bd 541c e9bc 0d6e 04bc
00000190: 8045 8ebc c3d8 873d a0cf 233d 7188 06bd
000001a0: b8a0 debc c078 d4bd fb98 213d 8ae1 753d
000001b0: 285a 9e3d 93a0 4a3d 8101 dfbc 1db3 293d
000001c0: 7d96 1ebd 69b9 aabd d80d b3bd c0b3 60bc
000001d0: 2517 9e3d 1857 a63d 907e 303b 602e aa3d
000001e0: 2d50 a53d 18fa c7bd c12d 78bd 872d 953d
000001f0: 4eb4 503d 7d94 a0bd d4cd 3c3d 4348 11bc
0.062134475 -0.06916175 -0.01932292 0.012931018 -0.093274914 -0.036745477 -0.08810469 -0.10244656
-0.090667814 0.07227922 -0.047957484 0.029231455 0.073441856 0.024787478 -0.01929879 0.015360829
0.01744869 -0.08612655 0.016368784 0.02086234 0.00013949067 0.0584792 -0.02411498 0.02019483
-0.08211752 0.08454365 0.0829227 -0.026924597 0.05010098 0.03239259 0.04452731 -0.018173732
0.031569418 0.08578074 0.054987527 -0.1035149 0.078613654 0.019522993 -0.102531925 -0.10807585
0.08485492 0.008006646 0.0025084387 0.012493327 0.074118 -0.022773586 -0.012946995 -0.09340072
-0.07113523 -0.004969653 -0.09280901 -0.016436677 -0.07299718 0.076712884 0.053379826 0.030888803
-0.030829446 0.014805671 0.07605454 0.064623415 -0.020592038 0.020609245 -0.038149938 -0.07088619
0.06676661 -0.060608413 0.06096638 0.08463254 0.06260247 -0.04945779 0.03097099 -0.027766164
0.018756816 -0.05095344 -0.0029785424 -0.104953855 0.08043713 0.0449589 -0.09872183 -0.08741637
0.048179604 -0.08927797 -0.07972688 -0.018806987 -0.07484515 0.013042259 -0.04737619 -0.066959105
-0.055496067 0.0038128481 0.051253393 -0.06980191 0.010103518 0.031030351 0.07613391 0.08026
0.04871683 -0.0596137 -0.02845589 -0.008082879 -0.017367125 0.06633141 0.03999293 -0.032844964
-0.027176246 -0.10374594 0.039452534 0.060029544 0.0773204 0.04946954 -0.027222397 0.04143058
-0.038717736 -0.083361454 -0.08742875 -0.013714731 0.07719258 0.081220806 0.0026930906 0.083096266
0.08071933 -0.097644985 -0.06059051 0.07284074 0.050953202 -0.07840822 0.04609473 -0.008867326
