reports/QuadPole2D/quadpole2d_nn_ppo/001/policy.pt (torch, 281682 bytes, 15 tensors)

network.0.weight f4 [128, 10]
000000 59 80 63 bb cd b5 d3 3d bf 57 4c be e7 4d 41 3d
       -0.0034713952 0.1033741 -0.19955347 0.047193434
000010 ef 8c 80 be 7b ea 6b 3e 9a 62 83 be 76 fd 99 3e
       -0.25107524 0.23038666 -0.25661165 0.30076188
000020 6c f2 b3 be 85 03 51 3e ec 85 48 3e 8e 34 62 be
       -0.3514589 0.20411499 0.19582337 -0.2209036
000030 e0 18 26 3e de 62 9a bd c7 82 18 3e 02 18 7a be
       0.16220427 -0.07538389 0.14893638 -0.24423221
000040 d4 4a 74 3e 1d 2c ea bd 52 7f f6 3d e8 14 fa bd
       0.2385667 -0.11434195 0.12036003 -0.12211019
000050 c1 05 d2 3d 2b d7 dd 3e f9 5a 84 be 25 a6 93 3e
       0.10255004 0.43328223 -0.25850657 0.28837696
000060 7e ce 28 3e db 11 40 be ad 46 0c 3e 6c ea bc bc
       0.1648502 -0.18756811 0.13698836 -0.023061
000070 b7 07 75 3e 71 06 f7 3d 93 b6 3c be 5e 22 01 3f
       0.23928724 0.120617755 -0.18429022 0.50443065
000080 3f f7 3b be 3d 64 2b 3e d3 34 21 3f 0a 80 b3 be
       -0.18356036 0.16737457 0.6297123 -0.35058624
000090 44 06 51 be 85 7e 52 3e 2b 83 c7 3d c6 be ad 3d
       -0.20412546 0.20556076 0.09741815 0.08483653
0000a0 f5 05 06 3e 45 9d 27 3e 38 e7 6a be 47 3f d8 be
       0.1308821 0.16368587 -0.22939765 -0.42235777
0000b0 81 b9 53 bf 40 40 bb 3e 4b cf 73 be 33 34 2b be
       -0.8270493 0.36572456 -0.23809545 -0.16719131
0000c0 a0 75 7f 3e ea 6b d4 3c e6 4b 96 3e 7f d3 ae 3e
       0.24947214 0.025930364 0.2935478 0.34145734
0000d0 ab 53 97 3e 95 c2 a3 be 07 48 f5 be b4 99 d5 3d
       0.2955602 -0.31984392 -0.47906515 0.10429707
0000e0 0e 80 77 bd f3 d3 3d 3e 94 48 dc 3e a2 9b 6c 3e
       -0.060424857 0.18537883 0.43024123 0.23106244
0000f0 d7 89 40 3d 38 2d 08 bf 06 cd 53 be cb 21 9e bd
       0.047006454 -0.53194 -0.20683679 -0.07721289
000100 11 c2 47 3e f4 77 e2 bc 71 f0 2c be e7 34 6d bd
       0.19507624 -0.027645089 -0.16888596 -0.05791178
000110 20 99 bc 3c 2d 60 7e be a9 02 75 3d f6 c2 ec 3d
       0.023022234 -0.24841376 0.05981699 0.11560623
000120 c9 7e a7 bd 38 b3 b8 be 0c 6f 79 3d b4 a0 41 be
       -0.08178479 -0.36074233 0.06089692 -0.1890896
000130 ef a9 37 3d eb f6 ca 3e 33 18 b5 be de e9 00 bd
       0.044839796 0.39641508 -0.35370025 -0.031473033
000140 1b c7 7e 3e bf b5 93 be 0f 1a 79 3e 67 a6 95 3e
       0.2488064 -0.288496 0.24326347 0.29228517
000150 a0 64 b9 3e c9 73 87 3e 4a 1b c1 3a 40 a3 0b 3e
       0.36209583 0.26455525 0.0014732864 0.13636494
000160 fc ea 8a 3d a9 37 62 3e 20 80 c1 be bd 0c 28 3e
       0.06783101 0.22091545 -0.37793064 0.1641111
000170 bb 9f b3 be 7b fa ba bd b5 2e 98 3e fb ec 09 be
       -0.35082802 -0.091298066 0.29723135 -0.13469307
000180 1d 4f 5c 3c 8c b5 5d 3e 27 bf 4f be 3e 9a 36 3d
       0.013446596 0.21651286 -0.20287763 0.04458069
000190 e3 d3 41 be 1d c1 a7 bc c2 70 a0 be 9c 04 60 3e
       -0.18928485 -0.020477826 -0.31336027 0.21876758
0001a0 e3 94 29 3f 0b d9 03 be 63 41 49 be c6 e4 92 bd
       0.6624281 -0.12875764 -0.1965385 -0.07172541
0001b0 51 cd 2c be 59 ce 0b 3e 46 4b 83 3e a8 e4 a8 be
       -0.16875197 0.13652934 0.25643367 -0.3298695
0001c0 00 51 a5 35 d3 5b b6 3d 7e b9 84 bd ca 05 29 bd
       1.2317032e-06 0.08904233 -0.06480692 -0.041265287
0001d0 8b 50 27 be 54 2e 7e be 06 a8 89 bb a4 f9 31 3e
       -0.16339318 -0.2482236 -0.004200938 0.17380387
0001e0 6e 2d 29 3e f6 0d 8e 3e 6f cd b1 3d f1 44 8a 3e
       0.16521236 0.27745026 0.086817615 0.27005723
0001f0 8e 58 58 be 06 2c 9a 3d 33 46 3f be 40 62 b6 3e
       -0.21127531 0.07527928 -0.18679123 0.35621834
000200 52 08 32 3e 8a e6 07 bd 3b 83 29 3d 0d 6b 1c bf
       0.17385986 -0.033178844 0.041384917 -0.61100847
000210 fa 38 3b bc d0 85 55 bd 9d 3c 7e 3e f1 b2 0e be
       -0.0114271585 -0.052129567 0.2482781 -0.13935448
000220 90 0e b9 38 57 15 61 3f 10 fa af 3e fd d1 79 be
       8.8242e-05 0.87923187 0.3437047 -0.2439651
000230 a9 53 22 be 57 dd 01 be ae 96 c5 bd c0 f1 36 be
       -0.15852226 -0.1268209 -0.096478805 -0.17865658
000240 30 1a 8c 3c b3 5e 91 be 4d e4 06 3e 97 d3 8f be
       0.01710233 -0.28392562 0.13173027 -0.28091118
000250 50 39 83 3e bf 1e ee bd f0 17 0d 3e 91 32 b3 3e
       0.25629663 -0.11626958 0.13778663 0.34999517
000260 b6 d1 04 be 6e 0d c8 3e cd cc a8 be d9 30 94 be
       -0.12970623 0.39072746 -0.3296875 -0.28943518
000270 26 7f 17 be 4b c2 ef 3d 22 3a 98 3e b1 f3 a4 be
       -0.14794597 0.1170698 0.29731852 -0.32217172
000280 1d 51 39 3e 9b 45 cf be 53 4a a3 bd 11 2b 52 be
       0.18097349 -0.40482792 -0.079731606 -0.20524241
000290 2f 1c c9 be 40 1f 82 bd 35 e7 bc 3c b9 fe b8 be
       -0.39279315 -0.06353617 0.023059467 -0.36131838
0002a0 64 f9 8b bd a5 2f 81 be 89 35 1f 3e 44 a1 72 be
       -0.06834677 -0.25231662 0.15547766 -0.2369433
0002b0 66 17 d7 bd 28 bd 85 bd d3 d5 6d be 28 c1 27 3e
       -0.1050251 -0.06530219 -0.23226099 0.16382277
0002c0 93 df df 3d 5e 7c 18 bf 63 d2 71 3d c8 b9 af 3e
       0.10931315 -0.5956477 0.05903853 0.34321427
0002d0 fc 8f a1 3e 5e dc a6 bd 85 17 9d 3e 8c fb b6 3e
       0.31555164 -0.081475005 0.30682006 0.3573879
0002e0 c1 63 ae 3e d2 cd 84 be ec 26 cc 3c 07 ba c9 3e
       0.3406048 -0.25938278 0.024920903 0.3939974
0002f0 e3 e6 12 3e bc 3a 7c 3e 69 18 8a 3d 2f ab 2d 3e
       0.14345889 0.2463178 0.06742937 0.16959833
000300 59 16 ba bd 26 a4 02 be df 53 45 bf 13 0f cf 3d
       -0.09086294 -0.1275793 -0.770811 0.10110297
000310 fa 65 75 be 81 fd bf bb 12 44 28 be 70 ae 57 be
       -0.23964682 -0.0058590774 -0.16432217 -0.21062636
000320 4c 4a 17 3e 07 aa f0 3e 09 6d b9 3d 16 cf 1a 3d
       0.14774436 0.4700472 0.09054 0.03779515
000330 30 98 ee be 61 e0 85 be 55 21 3a 3d 6c 4c 01 bf
       -0.46600485 -0.2614775 0.045441944 -0.50507236
000340 ea cc 51 be 86 67 01 bd d5 36 d5 3d 1d 57 0f 3f
       -0.20488325 -0.03159287 0.10410849 0.559923
000350 8c 0c 8b 3c e1 3c b6 3d 9d 02 e3 be 1f b9 32 be
       0.016973756 0.088983305 -0.4433793 -0.1745343
000360 81 4e de 3e 08 b9 ca be ba 69 9a be 6e ee 44 be
       0.4341927 -0.39594293 -0.30158788 -0.19231579
000370 d8 0d 07 3e ee d4 32 be 3f 49 85 bc 77 ff 56 be
       0.13188875 -0.17464039 -0.016270278 -0.2099589
000380 95 63 9d 3e af 92 6d 3e 46 9f bd 3e fd a3 ed be
       0.30740038 0.23200487 0.37035578 -0.46414176
000390 6e 4c 79 be 31 e7 9e 3d 7d 10 b4 be 40 95 a2 3e
       -0.24345562 0.0775894 -0.3516883 0.31754494
0003a0 5b 0c 20 3e 9c 5a 51 bd d8 e0 1d 3f f0 ee a1 3e
       0.15629713 -0.051111802 0.6167121 0.31627607
0003b0 d5 b7 e2 3d 77 58 2f 3e 1c e6 d6 3d 74 7a 82 3b
       0.110702194 0.1712359 0.10493109 0.0039818827
0003c0 ee e2 a9 3d 57 59 41 bd bd f0 6f 3e b1 de 1e 3e
       0.082952365 -0.04720434 0.23431678 0.15514638
0003d0 ba e3 a8 be 39 f8 8a 3e 21 16 1c 3e 5e 99 ba be
       -0.32986242 0.27142504 0.15242817 -0.36445135
0003e0 fe f0 cf 3d 0a 14 7d 3d 03 ac 07 be cd b8 90 3e
       0.101533875 0.06178669 -0.13249211 0.28265992
0003f0 52 5f 3e bd b1 03 cd bb f2 ca 3f be c1 c3 32 3e
       -0.046477623 -0.0062565436 -0.18729761 0.17457487

network.0.bias f4 [128]
000000 40 ee 92 3e d5 38 17 be b5 5b 2f be 27 99 88 be
       0.28697395 -0.14767773 -0.17124827 -0.26679346
000010 eb 46 82 bd ca ff 25 be 18 bb 79 3e b1 c2 29 3e
       -0.06361183 -0.16210857 0.24387777 0.16578175
000020 83 59 5e be d4 1d 10 3b a9 b5 99 3e 63 35 fb 3c
       -0.21713834 0.0021990435 0.30021408 0.030665105
000030 6c 73 8a 3e 1e 4a cf 3e 3c 26 25 bd 25 72 63 be
       0.27041185 0.40486234 -0.040319666 -0.22211511
000040 dd e7 73 3d 9c 95 0d 3e 3b 55 81 3e 11 3a d6 3d
       0.059547294 0.13826603 0.25260338 0.10460294
000050 73 7d 48 3e fe 8c 46 be 0c e8 3f 3e 16 2c 9d bd
       0.19579105 -0.19389722 0.18740863 -0.07674424
000060 e4 99 05 3e c4 da 9f 3d eb 2a 0f 3e 4a 5d 8e 3e
       0.13046986 0.07805398 0.13981216 0.2780555
000070 94 1d 62 bd fa 90 d7 bd d4 27 92 bc 01 33 c3 bd
       -0.05520399 -0.10525699 -0.017841257 -0.095312126
000080 fc ea 15 3e 7b a8 bd 3d 71 c0 49 be 6d 97 f8 bd
       0.1464042 0.09260651 -0.19702317 -0.12138257
000090 d5 41 6f bc c3 7d 14 3e 4f 9c a6 bd cd ec 2a be
       -0.014603098 0.145011 -0.08135282 -0.16691895
0000a0 47 bc 44 3e 5c 04 8b bb 77 93 ef bd 17 58 dc bd
       0.19212447 -0.004242463 -0.116980486 -0.10758989
0000b0 ef 2b 41 3e ab 18 3d be fc 4d 97 3d de f9 72 be
       0.18864416 -0.18466441 0.07387921 -0.2372813
0000c0 75 6f 1f be 73 f1 22 3e d8 58 5e 3e 08 67 bd bd
       -0.15569861 0.15912418 0.21713579 -0.09248167
0000d0 b6 f6 18 3d 0f ca 6f 3e 83 e2 7d 3e 1c c1 6b 3e
       0.037344657 0.23416923 0.24793439 0.23022884
0000e0 54 7e 27 3e 2e 7a 0d be ee 8d 45 3e 6f 36 76 bb
       0.16356784 -0.13816139 0.19292423 -0.0037569066
0000f0 16 3c 15 3e c2 1d 41 be 56 e4 29 be 23 14 59 3e
       0.14573702 -0.18859008 -0.1659101 0.21199088
000100 e1 00 96 be f8 90 1b be ef 40 10 3d bd cd be 3d
       -0.29297546 -0.1519202 0.035218176 0.09316585
000110 00 aa 8e 3e 08 08 9e be 69 af d6 3d 96 16 57 bd
       0.27864075 -0.30865502 0.104826756 -0.052511774
000120 3f 06 84 bd b4 51 dd bd 7e 3e 60 bc 8b 73 6a be
       -0.06446504 -0.10806599 -0.013686774 -0.22895639
000130 f0 bf 13 3e 49 66 48 3e 97 e4 c0 3d df 46 fc bd
       0.14428687 0.19570269 0.094186 -0.12318205
000140 b2 0b 0c be 24 ba 4a be b0 58 8a 3e c5 7c 3f 3d
       -0.13676336 -0.1979757 0.27020788 0.04674985
000150 a4 98 1f 3e a6 d9 a3 3c f0 96 6e bd 9c fc a5 3e
       0.15585572 0.020001244 -0.058249414 0.32419288
000160 28 e6 1e 3b c4 26 91 bd 6e 8d 82 3e e9 b0 3c be
       0.002424607 -0.07087472 0.25498527 -0.18426861
000170 4d 9a 7d 3c 8a e7 7a be 45 c6 34 3e f8 6d e0 3d
       0.015478683 -0.24502388 0.17653759 0.10958475
000180 d8 b1 0c be ae 78 20 be b0 0a 99 3e 64 36 8c bd
       -0.13739717 -0.15671036 0.29890966 -0.06846312
000190 c1 7c 1a bd 24 74 60 be 70 c1 3d 3d 0f 96 a0 3d
       -0.03771663 -0.21919304 0.046327055 0.078411214
0001a0 ba 20 ee bd 2a 10 7a be e4 6f 7d bd 22 50 2c be
       -0.11627336 -0.24420229 -0.061874285 -0.16827443
0001b0 06 8f 14 be b3 05 10 3e be b4 8a be 06 38 ab 3c
       -0.14507684 0.14064674 -0.2709102 0.020900737
0001c0 f5 34 10 3e dd 48 ff 3b c0 ad 1e bd 36 b4 09 3e
       0.14082702 0.0077906684 -0.03873992 0.13447651
0001d0 b9 84 27 3d a0 46 7b 3e 82 9a 5f bc 00 20 56 be
       0.04089806 0.2453866 -0.013647677 -0.20910645
0001e0 9d db 88 3e f9 a7 c4 3d f6 89 2a bc aa 69 66 3d
       0.26730052 0.09602351 -0.010408869 0.056253113
0001f0 80 e1 e7 3d aa 09 51 3e 43 3c a7 bd c8 e3 34 3e
       0.113223076 0.20413843 -0.08165791 0.17665017

network.2.weight f4 [128, 128]
000000 fe 38 33 3d dd 0a a2 bd b3 d3 79 3d a5 f6 ed 3c
       0.043755524 -0.07912228 0.060992908 0.029048273
000010 27 c4 28 bd 87 1f f8 3c 19 f3 45 bc 46 c3 08 3d
       -0.04120269 0.03028847 -0.012081885 0.033389352
000020 ac 85 98 3c 02 11 8c bc 16 40 62 3d db 2c 27 3d
       0.018618427 -0.017097954 0.0552369 0.040814262
000030 f1 8a 61 3d bf 2e de bc d6 ff 6d bd 49 61 54 3d
       0.055064145 -0.0271219 -0.058105312 0.05185059
000040 55 f1 a1 3d 2a 73 12 bd 5e ff 75 3d 74 c5 30 3d
       0.079073586 -0.03575436 0.06005799 0.043157056
000050 6a c4 cf bc 20 a0 81 3b a8 ad ac 3d 2f 5b 3e 3b
       -0.025362212 0.003955856 0.0843156 0.002904605
000060 73 f0 83 bc b7 2a b5 bc 18 0c 67 3d 6d d7 ec 3b
       -0.016105866 -0.022115095 0.056408018 0.007227829
000070 f5 67 71 3c a2 be 91 3c 93 b7 21 bd d9 de 80 3d
       0.014734258 0.017791096 -0.03948171 0.06292505
000080 e3 fa 34 3d e1 8f eb 3c 66 de 39 bd bd 4b e4 3c
       0.044184577 0.02875513 -0.04537811 0.027868146
000090 73 cd ae 3b 65 82 46 bd 72 99 c6 bc 32 ea 48 3d
       0.00533455 -0.048464198 -0.02424309 0.04905147
0000a0 0f e5 7d bc 2e 50 20 bc 68 5a 1e 3c eb 30 a0 bd
       -0.015496506 -0.009784741 0.009665109 -0.0782183
0000b0 5a fd af bd b6 ac a2 bd 21 4e 9f bd ac 07 dc 3c
       -0.08593245 -0.07943098 -0.07778574 0.026859127
0000c0 67 bc f7 3c b3 cc 81 bd bf 5b 13 3d 57 69 85 3d
       0.030241204 -0.063378714 0.035976168 0.065142326
0000d0 c0 93 b7 3d bc be 40 3d 51 7d 08 ba e4 c1 bc 3d
       0.08963728 0.0470569 -0.0005206662 0.09216669
0000e0 fc e9 0b 3c b9 07 80 3d e7 e6 23 3d 65 92 cb 3d
       0.008539673 0.06251473 0.040015128 0.09940032
0000f0 5a 5b d0 bb d8 73 89 3d 7d dc 97 bd ef 8b 92 3c
       -0.006358546 0.067115486 -0.07415102 0.017888991
000100 90 ab b5 3b 01 d7 86 3a 0e 07 bd 3d 19 59 ae bc
       0.0055441335 0.0010287465 0.09229861 -0.02128272
000110 14 79 aa bd 4b e1 70 3d c5 0c 81 bd 66 d1 a9 3d
       -0.08323875 0.058808606 -0.06301264 0.08291893
000120 7e 17 fa bc 47 38 16 bc a5 1c c3 bd 8b 43 30 bd
       -0.03052878 -0.009168691 -0.09526948 -0.043033164
000130 7e 32 5b bd f3 ac 3e 3d eb 3d 03 bd df c9 f0 3b
       -0.05351495 0.046551656 -0.03204147 0.0073482837
000140 df a4 be 3c 91 8d 3b bc 9c b0 e6 3d c7 61 12 ba
       0.023271976 -0.011447326 0.11264154 -0.0005584028
000150 5c b0 85 3b c7 dc d5 3d 84 fc 19 3d b0 c0 ab 3d
       0.0040798616 0.104425006 0.037594333 0.083863616
000160 d8 eb e9 3b b2 ff 6f 3d cd f5 6c 3c 0f 85 a8 bd
       0.0071387105 0.05859346 0.0144629 -0.08228504
000170 3f b8 ca 3d 88 c2 20 3d 28 c2 bd 3d 4b 81 86 3c
       0.098984234 0.03924802 0.09265548 0.016419074
000180 a5 75 2e 3d 1b 90 ea bb 5f 59 57 bd f9 f3 5f bd
       0.042592663 -0.007158292 -0.052575465 -0.05467603
000190 54 44 53 bd 6a 6d 94 bd 8c d5 2a 3b 26 e3 b4 3d
       -0.051578835 -0.072474316 0.0026067225 0.088323876
0001a0 48 66 12 3d 06 01 a5 bd ac 2e 3c bd 30 b7 28 bd
       0.035742074 -0.08056836 -0.045942947 -0.041190326
0001b0 bf 61 6f 3d e4 d8 07 bd 11 40 97 3d 8f 2e 79 3c
       0.058442827 -0.033165827 0.073852666 0.015208854
0001c0 4b fb 89 bd 4a c3 cd 3d 59 4a 05 bc 34 75 99 bd
       -0.067373835 0.10047014 -0.008135402 -0.07493058
0001d0 49 67 78 3a 5e b6 e3 bc d8 f9 87 3d 4a 6d 19 be
       0.000947584 -0.02779692 0.06639451 -0.14983097
0001e0 31 b3 d5 3c 52 a2 c8 3c fb e9 fd bc b2 55 96 bd
       0.026086422 0.024491463 -0.03099536 -0.07340564
0001f0 45 10 bb bc e2 9b fd 3d 54 9b c2 3d 99 f6 f4 3c
       -0.022834906 0.12383248 0.09502283 0.029902743
000200 01 00 34 3d 96 62 6b 3d 5d 9e 7a 3d 54 6b ac bd
       0.043945316 0.057467066 0.061186183 -0.08418909
000210 f3 e0 79 bd 90 6a 9c 3d c9 18 44 bd e4 bb 82 3d
       -0.061005544 0.07637513 -0.0478752 0.063834935
000220 21 1a c7 3c d6 46 07 bd dd c3 76 bd 25 7a 0b bd
       0.024304451 -0.03302654 -0.060245384 -0.034052033
000230 98 35 16 3d 00 54 07 3c 4b 39 5e 3a a9 a5 7f 3d
       0.036672205 0.008259773 0.0008477165 0.062413845
000240 b3 2d 17 bd 64 75 c9 3d d8 4f 95 3d 19 4a 11 3c
       -0.036908817 0.098368436 0.072906196 0.008867764
000250 1a d9 ba bd a9 4b 8d bc a6 7e c2 bd ec ff 1b 3b
       -0.0912344 -0.017247992 -0.094968125 0.0023803664
000260 fd c1 4a 3d 1c 3c b3 3d bc 8f 7e bd f0 02 f5 3d
       0.049501408 0.08751699 -0.062148795 0.11963451
000270 dc f9 db bb f8 c9 8e 3c 73 84 68 be e0 f6 65 3c
       -0.006713135 0.01743029 -0.22706775 0.01403591
000280 6a 7f 56 bd 3e 11 86 3d a8 91 9d bd 92 af f9 bc
       -0.052367605 0.065462574 -0.07693797 -0.030479226
000290 d7 7b 86 3d dd 6d 7d 3d 48 45 87 3d d9 79 0c bc
       0.06566589 0.061872352 0.06605011 -0.008573973
0002a0 69 9b 4e 3d 24 9f 04 3e c6 9a 88 3d 89 c4 b5 3c
       0.05044118 0.12951332 0.06670146 0.022188442
0002b0 ea 32 1d bb b5 24 7a 3c e9 fb df 3d f5 bb c5 bc
       -0.0023986646 0.015267541 0.1093672 -0.024137476
0002c0 16 a9 d5 bd ac 88 e9 bc 0e 57 07 3e be 2e 60 3c
       -0.10432641 -0.028507553 0.13216802 0.013683019
0002d0 46 08 a2 3c 8f 92 9b bb 5d 5c 8a 3d 16 a6 92 bd
       0.019779336 -0.0047476958 0.06755898 -0.07160585
0002e0 e0 15 a5 bc 21 94 64 bd bb 07 8f bc 93 08 10 3b
       -0.020152032 -0.05580533 -0.01745974 0.0021977767
0002f0 35 c9 6c bd 6f 1a a3 bd a2 a3 93 3d 16 db a4 3d
       -0.057809073 -0.07964026 0.07208945 0.080496
000300 07 0f e0 3d 9c 1f aa 3d ad c6 b3 bd 7b fc 45 bd
       0.10940366 0.0830681 -0.08778129 -0.048336487
000310 f8 26 0d bc 7c 29 29 bd fd ef 44 3d ba 65 b7 3d
       -0.008615248 -0.04129933 0.048080433 0.0895495
000320 21 d3 b2 3c 7b a3 71 3d 48 e6 92 3c 31 50 78 be
       0.02182919 0.058993798 0.017932072 -0.2424934
000330 18 e7 20 3b 2b 3c 27 3c 72 24 43 3c 5d 75 d2 3d
       0.0024551805 0.010207216 0.011910545 0.102762915
000340 67 08 8e bd 1b 32 8f 3d 4c f5 08 bd ba f4 96 bd
       -0.06935196 0.06991979 -0.03343706 -0.07370897
000350 5d ef 85 3d ab 41 24 3d 53 ee b9 3d cd 58 3b bb
       0.065397955 0.04010169 0.0907866 -0.0028586865
000360 55 4b e1 bc 2e 7f 85 3d ac bd a7 3d 9b cb ba 3c
       -0.027501741 0.06518398 0.08190474 0.022802165
000370 c9 2f a0 3d 85 bb 95 bd 30 5f 0f be e0 8a 10 3d
       0.07821614 -0.07311157 -0.14001155 0.03528869
000380 6d 23 2c 3d c6 52 b8 3c d6 af 8c bd e2 da 03 3e
       0.042025972 0.022500407 -0.068694755 0.12876466
000390 a8 d2 05 be 1d 33 94 3d 37 2c 97 bd c5 ba 16 3b
       -0.1306864 0.072363116 -0.0738148 0.0022999507
0003a0 46 b1 1e bc 05 9b 6d 3d 1f 62 02 3e ba 3c 93 bd
       -0.00968582 0.058009166 0.12732743 -0.07189317
0003b0 0a 48 a4 3d 57 bc 49 bb cc f2 44 be df c4 22 3d
       0.08021553 -0.0030782425 -0.19233245 0.039738532
0003c0 89 24 19 bd 03 cc 94 3d 78 45 1f 3e 6d a7 a9 3b
       -0.03738836 0.07265475 0.15553844 0.0051774294
0003d0 b2 03 8d 3d bf 59 0f 3e 0c 90 f3 3b a3 14 ee 3d
       0.068854704 0.13999079 0.007432943 0.1162503
0003e0 63 d2 d5 bd 05 ef dc bc 84 c3 6e 3d 45 ba c9 3c
       -0.10440519 -0.026969442 0.058291927 0.024624953
0003f0 99 97 58 bd 18 22 ce bd c4 5f 43 bd 01 a9 51 3d
       -0.05287895 -0.100650966 -0.04769875 0.051186565

network.2.bias f4 [128]
000000 80 9d 5f bc 69 67 65 bd 1d 89 7e bd 47 0b 80 3d
       -0.013648391 -0.056006823 -0.06214248 0.06252151
000010 76 b5 28 3d 67 de c0 bb ec b7 2e bc 6a 07 00 bd
       0.04118868 -0.0058858874 -0.010663968 -0.03125707
000020 6b ed bc 3c f0 10 80 3d 2f 62 06 bd 37 3e 49 bd
       0.023062428 0.062532306 -0.03280848 -0.0491316
000030 d7 7e d9 3b 3e fb 29 bd 48 62 b3 3d 70 c2 2d 3c
       0.006637435 -0.04149937 0.0875898 0.01060544
000040 51 c0 3e 3d 34 cc 8d bd 59 5a 57 bd b0 9c e2 3d
       0.046570126 -0.06923714 -0.052576397 0.11065042
000050 c6 a8 06 3d 52 bd cf 3b 9a 85 0e 3b f0 54 51 3c
       0.0328758 0.0063397074 0.0021747113 0.012776598
000060 67 5b b0 3d 4f 70 a9 3c 80 35 f5 bd 76 46 92 3d
       0.086111836 0.020683436 -0.11973095 0.071423456
000070 f7 ad d4 bc e3 af 07 bd bd c0 18 bd 44 93 a3 3d
       -0.02596186 -0.033126723 -0.037293185 0.07987073
000080 c2 af 90 bd bc a9 4b bd cf 47 4a bd 19 40 2e bb
       -0.07064773 -0.04972242 -0.04938489 -0.0026588498
000090 a4 50 c1 3d 3d 1a d9 3d 72 85 c4 3b 37 97 86 3b
       0.09439209 0.10600708 0.0059973532 0.0041073817
0000a0 59 09 81 3c 80 48 c8 3d f8 4c 52 3d b7 18 8d bd
       0.015751528 0.09779453 0.051342934 -0.068894796
0000b0 eb 43 4b 3c c0 31 87 bd 42 21 11 3d f8 35 da 3c
       0.01240633 -0.06601286 0.035432108 0.026637062
0000c0 98 59 11 3e ce d3 a3 3d 73 b2 2e 3d 3e d5 5c bc
       0.14194334 0.07999383 0.04265065 -0.013478575
0000d0 bd 37 82 3d f4 a0 9b bd 59 03 5b 3c 6d 88 48 3d
       0.063582875 -0.07599059 0.013367497 0.04895823
0000e0 2a cb 44 bd e3 18 81 3d 69 75 64 3d a2 cd 37 3d
       -0.048045315 0.06303575 0.055776034 0.04487384
0000f0 fd f2 9b 3d 7d e2 c6 3d 23 82 0c 3d 6b 6d 01 bc
       0.07614706 0.09711168 0.034303796 -0.007899622
000100 ea ff 95 bd 5f df 30 bd fa 63 ca 3d 35 01 73 3c
       -0.07324202 -0.043181773 0.0988235 0.014831831
000110 01 77 91 3d b8 9f 98 bd 7f c9 a1 bd 7b eb 98 bc
       0.07102776 -0.07452339 -0.078997605 -0.018666973
000120 80 32 62 3d bf a9 64 bd b9 79 72 3d 10 0f 96 3d
       0.05522394 -0.055825945 0.059198115 0.07327092
000130 02 2d 0e 3d b2 f2 96 3d d7 b4 a9 3c 3e e9 c1 3c
       0.03471089 0.07370509 0.020716114 0.023670789
000140 ec 38 c7 bd 7f a2 ca bc d0 97 63 3c 85 4d 02 3c
       -0.09727654 -0.024735687 0.013891175 0.007953052
000150 27 61 a0 3d af b9 ce bc 92 dc 48 3c 62 b2 13 3d
       0.0783103 -0.025235025 0.012259619 0.03605879
000160 8e 0f 65 bd 95 85 4f 3d 8c 28 a1 3d 11 da ad 3d
       -0.055923037 0.050664503 0.07869062 0.084888585
000170 dc 42 a1 ba ec c9 2f bd 48 62 fa 3d 58 b7 9c bc
       -0.0012303251 -0.042917177 0.12225777 -0.019130394
000180 0f a3 99 ba 63 00 08 bb 48 f6 4a bd 5f 85 b1 bd
       -0.0011721569 -0.0020752184 -0.04955128 -0.08668017
000190 a6 c8 82 3d 1f 81 94 bd c0 c8 2e 3d 7c c6 c7 3d
       0.06385927 -0.072511904 0.04267192 0.09754655
0001a0 fb c5 04 bd cd 3d 6f 3c a0 8d e7 3c 6b ba d4 3d
       -0.03241537 0.014602137 0.028265774 0.10387119
0001b0 d8 e7 3d bd 33 83 7b 3d 10 1f 36 bd 64 69 48 3c
       -0.04636368 0.06140442 -0.044463217 0.012232158
0001c0 56 c5 86 bd e7 b2 38 3d 57 44 b0 3d 91 34 f6 bd
       -0.065806076 0.04509249 0.08606785 -0.12021745
0001d0 78 0f cf 3b 26 09 7d bd 12 c3 dd bc 83 d6 76 bd
       0.0063189827 -0.061776303 -0.027070556 -0.060263168
0001e0 65 3b 22 3d 00 60 03 3e 68 bf 4f bd 10 1f 3c 3d
       0.039607424 0.1282959 -0.05071965 0.04592806
0001f0 f4 79 be 3d e2 f2 22 3d 6b 29 81 3c a8 90 52 36
       0.093006045 0.039782412 0.01576682 3.137664e-06

network.4.weight f4 [128, 128]
000000 fe 89 9b 3a 57 1b 53 3c 16 60 72 3d 54 ba 11 bd
       0.0011866686 0.012884936 0.059173666 -0.035578087
000010 01 6c cc 3d 97 04 90 3d 56 47 e8 3d 35 eb 8d 3d
       0.099815376 0.070321254 0.11341731 0.06929628
000020 81 c6 20 bd a6 e6 0c 3c 36 27 43 bd 76 b5 97 3c
       -0.039251808 0.008599913 -0.047644816 0.018519145
000030 5a 42 3d 3c b3 a8 ff bc 43 1d 6a be 7a ca b5 3d
       0.011551464 -0.031208372 -0.22862725 0.0887651
000040 0e 62 de 3d 43 31 84 bd 4c 50 10 be 84 97 7a 3d
       0.10858546 -0.064547084 -0.14093131 0.061179653
000050 77 86 6a 3d f5 bb be ba 02 5f 02 bd 60 61 04 3e
       0.057257142 -0.0014551865 -0.031828888 0.1292777
000060 3c 62 aa be f1 c0 52 3a ad d8 33 be ac 9f 8e 3d
       -0.33278072 0.0008039615 -0.17563124 0.06964049
000070 46 98 a3 3d 90 e0 be bd 1c 27 89 3d 0e 9c 6d 3d
       0.07988028 -0.09320176 0.06696913 0.058010153
000080 15 3c 82 3d 9b c6 6d 3c 41 80 95 bd 1b ca 00 bd
       0.06359116 0.014512683 -0.07299853 -0.031442743
000090 c9 f9 fc bc b1 7e 17 3e bc 37 19 3d 61 a4 0a 3e
       -0.030880826 0.14794423 0.037406668 0.13539268
0000a0 97 37 82 bc 7b 1f 05 bc a9 68 93 bd e3 3e 15 3c
       -0.015895648 -0.008125181 -0.07197697 0.009109232
0000b0 b8 ab bb 3c bf dc 80 3d 82 1e b1 3c 2c e1 b8 3d
       0.02290903 0.06292104 0.021620993 0.09027323
0000c0 65 fc 8e 3d ba cc a6 3d ba fb 32 3e 49 4e 6a bc
       0.06981734 0.08144517 0.17478839 -0.014300891
0000d0 0d 49 99 3d 79 5a 39 3d 49 04 54 bd 4c c3 f2 3c
       0.074846365 0.045252297 -0.0517619 0.02963414
0000e0 1f 06 f0 3c 85 c8 56 3d 2d f5 e2 3c 4c d6 e5 3d
       0.029299794 0.052437324 0.0277048 0.112225145
0000f0 9e f1 cf bd 20 fa f4 bd 93 14 74 3c 33 c6 4b 3d
       -0.10153507 -0.1196177 0.014897483 0.049749564
000100 30 f3 42 bd 08 4a 71 ba 70 95 84 bd 59 a3 09 3b
       -0.047595203 -0.0009204452 -0.064738154 0.0021001904
000110 25 46 c2 3d b5 c6 b6 3c 90 f7 21 bd d4 5f 9b 39
       0.09486035 0.022311548 -0.039542735 0.000296353
000120 c9 dd 5a be b0 a9 fc 3c 12 39 82 3d 80 23 98 3b
       -0.21373667 0.030842632 0.063585415 0.004642904
000130 f4 50 80 bd 78 69 a1 be b4 52 b1 3d ab 24 18 3e
       -0.062654406 -0.3152578 0.086583525 0.14857738
000140 6a 09 0b 3d b4 bd ca 3d 03 20 e0 3d 81 6f 4e bd
       0.033944525 0.09899464 0.10943606 -0.050399307
000150 59 d9 ac 3d 8f a4 0f 3d 3d 49 00 3d 25 63 8b bd
       0.08439893 0.035069045 0.031319845 -0.0680602
000160 3f b7 bd 3a a7 34 52 3e b5 45 ae bd 65 53 7f bd
       0.0014474167 0.20527898 -0.08509389 -0.06233539
000170 48 be 71 bc 20 fc a5 3d 09 dc c1 3d 2e fd ec 3c
       -0.014754839 0.0810473 0.094657965 0.02892932
000180 5a 9e e8 3d d2 eb 16 bd 99 81 b1 bc a0 c5 f0 3d
       0.11358328 -0.03684599 -0.021668242 0.11756444
000190 e1 42 f1 3c 9d 07 5c 3e 1a 6b d7 3d 0c 1d 93 3d
       0.029450836 0.21487279 0.10518475 0.071832746
0001a0 1a 20 07 3d 31 24 20 3d 7d 3d 02 bd a4 09 38 3b
       0.0329896 0.039097015 -0.03179692 0.0028081918
0001b0 cd 1d 84 3c f7 8a 1e bc 48 2d b5 bd a9 c7 b8 3d
       0.016127491 -0.0096766865 -0.08846527 0.09022457
0001c0 0e f2 50 3d 66 81 f3 3d b4 1b 44 3d b6 22 54 be
       0.05101209 0.11889915 0.047877982 -0.20716366
0001d0 49 2d ba 3d 80 cb 9b bd e7 7a 34 3d 44 91 8b bd
       0.09090669 -0.07607174 0.04406252 -0.068148166
0001e0 f1 f0 4e 3d 47 e5 2b 3d 17 97 85 bc ec 0e e1 bc
       0.05052275 0.041966703 -0.016307397 -0.027472936
0001f0 9a 20 ec 3d 4b 85 12 be b9 42 cb 3d 10 d0 8a bd
       0.11529656 -0.1430866 0.09924836 -0.06777966
000200 9f 72 7d 3d 14 b0 91 bd da c1 a5 3d 38 b0 02 3b
       0.06187689 -0.07113662 0.08093615 0.001994146
000210 75 7b 14 3d 50 e3 b5 bd f4 d4 91 3d 45 43 2c bc
       0.03625055 -0.08881247 0.07120696 -0.010514085
000220 54 7d ae 3d 18 42 6e 3d fc c7 e0 3b 9d 7f 9c bd
       0.08519998 0.0581685 0.0068597775 -0.07641528
000230 09 83 a5 3d e4 12 25 bd a9 ab df 3c a7 3e a2 3d
       0.080816336 -0.04030122 0.027303534 0.07922106
000240 93 59 79 bd 25 ac 81 3d 1e 8f 69 be 5e 8a 95 bc
       -0.06087644 0.06331662 -0.22808501 -0.018254455
000250 f3 b8 7d 3d 04 61 cf 3d 34 86 58 bd 39 67 8a bd
       0.06194396 0.10125926 -0.05286236 -0.067579694
000260 93 03 97 3d 9d ff bb 3c 9f ca 87 3d b8 b1 d0 bb
       0.073737286 0.022949034 0.06630444 -0.006368842
000270 06 9c 00 be 04 0f c1 bd 87 5a 61 bc df dd de bd
       -0.12559518 -0.09426692 -0.013754494 -0.10882162
000280 f4 d2 1d bd 94 c9 78 bd 16 09 1e 3d b5 bc 5d bd
       -0.03853126 -0.060739115 0.038582884 -0.054135043
000290 4d 11 d9 bc d6 e6 0a 3c 8e d6 c8 3d 76 93 80 bc
       -0.026497507 0.008477887 0.09806548 -0.015695315
0002a0 1a a8 95 bd d0 66 c7 bc 6e b8 82 3d 64 6a 91 bc
       -0.073074535 -0.024341017 0.063828334 -0.017750926
0002b0 d3 e9 2c 3d 53 a1 43 3b 51 61 2a bd 2b 34 0f 3d
       0.04221518 0.0029850795 -0.041596714 0.03496186
0002c0 fc 10 75 3c 0a eb 06 3e af 59 40 3d 5a 9c 49 bd
       0.014957663 0.13175598 0.04696053 -0.049221374
0002d0 7e e9 ed 3b c8 d7 e3 bd 91 fc bc bd b5 ed 06 bc
       0.0072605005 -0.111251414 -0.09227861 -0.008235385
0002e0 34 c6 97 3d 36 ed 8a 3e eb 02 34 3d 9c 3c 12 3e
       0.07410851 0.27134103 0.043948095 0.14280933
0002f0 42 a2 1f be 1b 59 8e bd 7c c7 dc 3d 1d fb 69 3b
       -0.1558924 -0.06950589 0.10780236 0.0035702654
000300 a7 7f e6 bb 64 a6 cd 3d cb f5 a0 3d 9a 03 65 3b
       -0.0070342603 0.10041502 0.07859381 0.0034944774
000310 8a ec 9e bd 0d be b8 bd 02 69 02 be b8 90 1f bd
       -0.0775996 -0.09020624 -0.1273537 -0.038956374
000320 c1 c1 30 bc 2f 18 aa bb 6f 88 ae 3d f9 31 d7 3d
       -0.010788382 -0.005190871 0.085221164 0.105075784
000330 dd 18 d3 bd c4 91 6d be 78 4f 08 3d eb e9 6c 3d
       -0.10307477 -0.23200136 0.033278912 0.05784027
000340 ee 4d 7e bd e9 61 65 bd 9b 35 66 bd c3 8a 74 3d
       -0.06208604 -0.056001578 -0.056203466 0.059702646
000350 6c 2d 1a 3d ad ad d5 bd 67 aa b3 bd 81 5d 83 bd
       0.037640974 -0.10433517 -0.08772736 -0.06414319
000360 4c 7d 8f 3c ea 50 06 bf 95 3d 85 bc e0 0c c6 bd
       0.0175158 -0.52467215 -0.016264716 -0.096704245
000370 7a 52 0d 3d 2a e0 d6 bd 9e c6 0c 3d d8 76 86 3d
       0.034502484 -0.10491975 0.034369104 0.065656364
000380 c0 d1 ae bb 9e 05 25 3c b7 df 6d 3d 7a 16 9e 3d
       -0.0053350627 0.01007214 0.05807468 0.07719131
000390 84 c7 02 bc 31 aa ed bd bd 27 41 3c 19 16 9f 3d
       -0.007982139 -0.11604727 0.0117892595 0.07767887
0003a0 6e a6 ba 3d ae f6 c9 3c 9b 08 a0 3c fd dd a3 3c
       0.09113775 0.024653759 0.019535353 0.020003313
0003b0 af ef cd 3b 8c 97 6d 3d 62 aa 01 3e 78 13 94 bc
       0.006284676 0.058005854 0.12662652 -0.01807569
0003c0 4b 81 af bd 0f 9a e4 3c 24 38 7f bd 4b 3b 32 bc
       -0.085695826 0.027905492 -0.0623094 -0.010878394
0003d0 3c c6 f1 bc e6 83 b3 3c 1f 3e c0 3d 66 c7 31 3c
       -0.02951347 0.02191348 0.09386849 0.010850763
0003e0 0d 6f 37 3d 80 02 7d 3d 2e 4e a6 3c cc 01 e6 3c
       0.04478364 0.061769962 0.02030095 0.028077029
0003f0 37 c6 35 bb a6 8c 25 3d d2 77 d2 bd d4 96 37 3d
       -0.0027736553 0.040417336 -0.1027676 0.044821575

network.4.bias f4 [128]
000000 7a 48 05 bd 3c 93 71 bd 75 1d cc 3d 17 61 21 3d
       -0.032539822 -0.058978304 0.09966556 0.039399233
000010 ba a3 97 3d b3 89 55 3c 92 54 7a 3c da 02 09 bd
       0.07404275 0.013033318 0.015278952 -0.033449985
000020 73 2f eb 3c e5 b4 44 3d c5 15 83 3d af df 66 3d
       0.028709149 0.048024077 0.064006366 0.056365665
000030 1d 91 af 3d 84 e3 cb bb 42 64 75 bc dc c4 2b bb
       0.085726 -0.0062221903 -0.014977517 -0.0026209867
000040 6c 23 be 3d 31 e1 96 3d c2 e9 a7 3d a5 4a 36 bd
       0.092841 0.073671706 0.08198883 -0.04450478
000050 ce 38 c7 bc 2b 66 35 bd be 2b 62 bd 49 a4 91 3d
       -0.024319079 -0.044286888 -0.055217497 0.07111413
000060 f3 f3 77 bd 31 ce 59 bd 86 d9 13 3d bc a7 1c bd
       -0.060535382 -0.053175155 0.03609612 -0.0382459
000070 6b a4 92 bc c7 24 2a 3d 53 7a c4 bc 97 9c 73 3d
       -0.017900666 0.04153898 -0.02398411 0.059475508
000080 fb 98 61 bd 1b 9c 97 3d ba a6 87 3d d3 05 94 bd
       -0.055077534 0.07402822 0.066235974 -0.072276734
000090 b9 ef 2e bd d7 4f c9 bb 19 a0 48 3d 0a 3f 33 3c
       -0.042709086 -0.006143551 0.048980806 0.010940323
0000a0 c5 53 ec 3d 19 33 bc 3d 6a 70 85 3d 73 b3 cc bc
       0.11539415 0.091894336 0.06515582 -0.024987912
0000b0 5b 24 dd 3c 4f bd 8e 3b e5 dd 82 3a e0 6e 07 bb
       0.026994875 0.0043560634 0.0009984343 -0.0020665452
0000c0 44 f0 d5 3d 38 92 cb 3d 7b e7 13 3c 6d 8c a3 3b
       0.10446218 0.099399984 0.009027357 0.0049911053
0000d0 2d 58 16 bc 90 17 a4 3d c1 64 07 3a 94 92 ad 3d
       -0.009176296 0.08012307 0.0005164855 0.08475223
0000e0 a5 f7 c0 39 62 56 15 3c 7d 1e ab 3d 2c 23 06 3c
       0.00036805603 0.009114834 0.083554246 0.008187097
0000f0 d0 45 60 bd 12 a0 94 3d 89 35 ec 3d 25 9e f0 3c
       -0.05475408 0.072570935 0.115336485 0.029372284
000100 a8 26 77 3d 6e 66 62 bd da 65 7f 3c 27 eb c6 3d
       0.0603396 -0.055273466 0.015588248 0.097128205
000110 ca 59 61 3d 94 85 7f 3d 8c 73 35 3d 1d 90 93 3d
       0.05501727 0.06238325 0.044299647 0.07205222
000120 46 9b a5 3d 6f 53 9a bc 7d 2a 87 3d 21 a7 d8 3d
       0.08086257 -0.018838612 0.06599901 0.10578752
000130 f3 47 e7 bc 0d 2f 90 bd 38 5c 58 bd 95 a7 72 bd
       -0.02823255 -0.07040224 -0.05282232 -0.05924185
000140 4e ef 27 bd 0f 87 5c bd c3 3d 28 bd 2a cd 1f 3c
       -0.040999703 -0.05383974 -0.041074526 0.009753505
000150 d0 d6 b1 bd be 4a a7 bd cf 61 c2 3c 31 59 fc bb
       -0.0868355 -0.08168553 0.02372828 -0.007701062
000160 38 0f 10 bd 6b 02 a7 3d d2 8b 6d 3c fe bd 2b 3c
       -0.035170764 0.08154758 0.014498668 0.010482309
000170 9a 99 4f 3d f8 8f fd bc ae b0 2e bd 9d 04 28 3d
       0.050683595 -0.030952439 -0.042648964 0.041020025
000180 ef 1a b7 3d e9 9d de 3d 23 23 bf bd f9 e4 ab 3d
       0.08940684 0.10869963 -0.09332874 0.083932824
000190 08 86 40 3c c0 f8 d9 3d 69 86 3d 3c 9a 45 0c 3c
       0.011750706 0.106431484 0.01156769 0.008561516
0001a0 49 9b 95 3d 19 80 96 3d 67 81 0e bb b8 d9 3a 3d
       0.07305009 0.073486514 -0.002174461 0.04561779
0001b0 5f e8 0d bd 76 ee da bc 76 8d 87 bd 37 d9 0c 3d
       -0.034645434 -0.026725035 -0.066187784 0.03438684
0001c0 9a 36 bd 3d f4 34 61 bd a2 e9 95 bd d8 33 3f bd
       0.0923893 -0.05498214 -0.073199525 -0.0466803
0001d0 13 41 43 bd 02 bd 8a 3d 46 bc 56 3d bc 01 da 3c
       -0.04766948 0.06774332 0.052425645 0.026612155
0001e0 4e 63 6e bd f3 d0 86 3d fd 90 34 3d a6 90 8f 3c
       -0.058200173 0.06582823 0.044083584 0.017525028
0001f0 60 aa f3 3c 9b 62 14 3d 0c 12 b2 bd cc 9d dc bb
       0.029744327 0.03622685 -0.086948484 -0.006732678

network.6.weight f4 [2, 128]
000000 fa d2 d5 bd a4 f0 41 3e 39 6c bd bd 39 5c 86 3e
       -0.10440631 0.18939453 -0.092491575 0.26242235
000010 6f bc 6e 3e f2 eb 30 3e bf 51 11 3e c8 e2 57 bd
       0.23314069 0.17277506 0.1419134 -0.05270651
000020 a2 4c 1c 3e 42 1c 6a be 7c 13 0e 3e 53 a2 3d be
       0.15263608 -0.22862342 0.1387462 -0.18518953
000030 97 28 8e 3d ce 16 f8 3c 84 41 04 3e db 9c 09 be
       0.06941336 0.030284312 0.12915617 -0.13438742
000040 b3 f7 5c bd 12 d2 04 be 5a 1f 9d 3c ec 40 2e 3e
       -0.053947162 -0.1297076 0.019179989 0.17016953
000050 dd 25 ac 3e 14 18 08 be 00 f9 a9 3b 21 a2 43 3e
       0.33622637 -0.13290435 0.005187154 0.19104816
000060 d7 6c 05 3e 41 90 0b be 76 8d 53 3d b3 ea 30 3d
       0.130298 -0.13629247 0.05164858 0.043192577
000070 f4 e5 60 3e 4b 55 b4 bd f5 ec 1d 3e e3 a7 a5 3d
       0.2196272 -0.08805331 0.15422423 0.080886625
000080 b0 f2 64 3c fb 1f 86 be e1 4d 0c be d5 4a 9e 3d
       0.013973877 -0.26196274 -0.13701583 0.07729117
000090 84 4a 7d bd 93 b0 8e be cf 71 28 3e 21 3e af 3e
       -0.06183864 -0.2786909 0.16449665 0.34227088
0000a0 5b e7 21 be 66 21 f1 bd ff c9 19 3e b9 cc 44 3e
       -0.15810911 -0.11773948 0.15018462 0.1921872
0000b0 f3 9b 28 3d 80 05 7a 3e bc 3f 21 be 92 00 29 3e
       0.04116435 0.2441616 -0.15746969 0.16504124
0000c0 04 1a a0 3d 60 90 46 be 98 ca 3d be fc b5 36 bc
       0.07817462 -0.19391012 -0.18534315 -0.011151787
0000d0 14 5e 1b be 55 04 89 be 3e a5 81 3c 9b 33 6d be
       -0.15172607 -0.26761118 0.015825864 -0.23164217
0000e0 9d 3a 21 bd 69 9f 93 3e 24 df 02 be 49 66 2c 3e
       -0.03936254 0.28832558 -0.12780434 0.16835894
0000f0 69 86 e1 3d 94 bb 49 be 9f 6b 3d be 74 02 a6 3d
       0.11011965 -0.19700462 -0.18498085 0.08105937
000100 56 ec 92 3e c0 1b 26 3e c4 6c 0b 3e e2 61 20 3e
       0.28695935 0.16221523 0.1361571 0.1566234
000110 54 2d c0 3d cb 13 51 bd 17 13 6e be 11 7f 4a 3e
       0.09383646 -0.051044267 -0.2324947 0.19775034
000120 ad 7b 1d be a4 59 f5 bd 57 40 3e bd 5d c7 06 be
       -0.1537921 -0.11979988 -0.046448078 -0.13161989
000130 44 1c fe 3d c2 c1 b4 bd 08 80 8d 3e 0e ac ef 3d
       0.12407735 -0.08826019 0.27636743 0.11702739
000140 98 a6 f6 3d b2 3f 8c bd a6 1c 34 3d 5c f6 14 3e
       0.12043494 -0.068480864 0.043972634 0.14547104
000150 b0 75 b2 3d e8 b2 e7 bd 12 69 3d be 4e 96 21 3e
       0.08713853 -0.113134205 -0.18497112 0.15779993
000160 58 04 61 be a1 52 1c 3e 6f 7e 79 be 74 3d 1a 3e
       -0.21974313 0.15265895 -0.24364637 0.15062505
000170 29 ff 0f be 23 0c 7e 3d 3b d4 2c 3e fb 1a 45 3d
       -0.1406218 0.062023293 0.16877834 0.048121434
000180 0a 4b 6d 3e c5 3a f1 bb ea a0 b8 3d 65 35 4c 3e
       0.23173156 -0.007361742 0.09015067 0.19942243
000190 13 26 08 be e8 22 8e be 03 52 39 be 04 4f 0a 3d
       -0.13295774 -0.27761006 -0.18097691 0.03376676
0001a0 fc 81 21 bc bb c1 83 be 43 ba 8c 3d 42 2d 4e be
       -0.009857651 -0.25733742 0.06871464 -0.20134452
0001b0 80 f5 19 be 70 95 93 3d 67 97 06 3e da 14 0e be
       -0.15035057 0.07206237 0.13143693 -0.13875142
0001c0 12 c4 22 3e d8 e1 4b 3e 15 a1 4e 3d 3e d0 81 bd
       0.15895107 0.19910371 0.05044659 -0.06338547
0001d0 47 36 07 3e a3 05 8c 3c 51 11 87 3e 37 e3 84 be
       0.13204299 0.017092532 0.263804 -0.259546
0001e0 7a b4 c5 3d 87 b2 eb bd cb c3 de ba 60 cb f3 3d
       0.09653564 -0.11508661 -0.0016995607 0.11904025
0001f0 93 1d a2 3d 13 03 20 be 9c fc c5 bd bd e0 8d 3e
       0.07915797 -0.15626173 -0.09667322 0.27710524
000200 d1 5a 37 3e be d4 2f 3d 68 3c 6b 3e b5 96 0a 3d
       0.17905737 0.042927496 0.22972262 0.03383513
000210 7d 7d 30 be 56 43 26 bd 6e 9a 48 be db a1 64 3e
       -0.1723537 -0.04059156 -0.1959016 0.22327368
000220 84 26 26 bc 8a 32 aa 3d d5 14 a8 be 94 a1 c8 3d
       -0.010141019 0.08310421 -0.32828394 0.097964436
000230 23 2d 66 3e ce 20 35 3e ff 47 84 3e d6 23 55 be
       0.22478156 0.17688295 0.2583618 -0.20814452
000240 e0 4f 57 3e 4c 9c 3c 3e 1c 33 65 3e 74 c9 07 be
       0.21026564 0.18418998 0.22382778 -0.13260442
000250 6c 32 54 bd e3 73 39 3c 0e cc 72 be 73 b1 d5 3b
       -0.0518059 0.011319133 -0.23710653 0.0065213977
000260 f1 b6 81 bd d6 69 86 be 3e 04 31 3e cb 93 ab be
       -0.063337214 -0.2625262 0.17286775 -0.33511195
000270 15 77 ff bd c6 ed 25 3e 73 56 60 be 7d de 49 3e
       -0.12473885 0.16203985 -0.21907978 0.19713779
000280 72 27 5f be 1c 8a 8a 3c d2 ec 5e be 78 6a a3 3c
       -0.21792391 0.016911559 -0.21770027 0.01994823
000290 49 a3 29 3e 3d 3c 78 3e df 56 16 3e 79 ba 18 be
       0.16566195 0.24241729 0.14681576 -0.14914884
0002a0 6a cf be 3e 5f 8c ef bd 8f 5b 05 be 1c e1 6a bd
       0.3726762 -0.116966955 -0.13023208 -0.057343587
0002b0 6b 16 7a 3e f4 70 2d be 99 ef 5d be 8a ec ad ba
       0.24422614 -0.1693762 -0.2167343 -0.0013269347
0002c0 2f 39 8b 3e 84 f5 eb ba f8 19 53 be 4f 76 31 3e
       0.27192065 -0.0018002247 -0.20615375 0.17330287
0002d0 e0 42 e8 bd 1f b7 c0 3d 3b 1f 05 3e 1b 2b 92 3d
       -0.113408804 0.094099276 0.13000195 0.07137128
0002e0 bb 62 93 be 64 17 33 bd e8 e1 26 3e d9 33 35 3e
       -0.28786263 -0.04372348 0.16297114 0.1769556
0002f0 0c a9 22 3e 4c a8 ea bd 39 4c aa 3d 43 a6 b8 3e
       0.15884799 -0.11457881 0.083153196 0.36064348
000300 75 55 8f be b0 12 7c bc 02 c4 10 3e b9 69 85 bd
       -0.27994886 -0.015385315 0.14137271 -0.065143056
000310 78 8f d4 3d d3 e5 98 be 33 e5 41 be b1 ce 78 3e
       0.10378927 -0.29862842 -0.18935089 0.24297597
000320 20 f2 0c be 12 f3 b4 be 36 d2 52 be 09 d8 0a 3e
       -0.13764238 -0.35341698 -0.20588002 0.13558973
000330 a7 de 93 bd 65 47 9e be ea 45 9d bb 6c f2 29 be
       -0.07220202 -0.30913845 -0.004799594 -0.16596383
000340 d4 a8 55 3e ac c1 c5 bc 6f 58 6b 3e 2c 89 ed 3d
       0.20865184 -0.024140202 0.22982953 0.11598429
000350 32 d8 37 3d 3c 5d 60 bb 5b d1 f9 bb 68 8d 7f 3e
       0.044883914 -0.003423526 -0.007623834 0.24956286
000360 eb ec d5 be cc 77 26 3e 9e 4c 33 be 91 72 40 bd
       -0.41782317 0.16256636 -0.17509696 -0.04698426
000370 c9 2e c9 bc bb a0 74 be 81 93 ec bd d4 a0 90 3e
       -0.024558442 -0.23889439 -0.11551572 0.28247702
000380 14 68 c5 3c 97 c6 70 3e fa 6d 18 3e fe de 43 be
       0.02409748 0.23513256 0.14885703 -0.19128034
000390 2b 09 17 3e 31 8c 06 3d d4 30 40 3b a7 c0 6e 3e
       0.14749591 0.03284854 0.0029325979 0.23315679
0003a0 48 c2 ce 3c 68 bb 5c be 89 ee 83 be 6e 30 33 be
       0.025239125 -0.21555865 -0.25767925 -0.17498943
0003b0 dc f3 81 be ef 68 7a be c8 b1 0d be 13 91 26 3e
       -0.25381362 -0.24454091 -0.1383735 0.16266279
0003c0 95 31 97 3e 8c 90 7f 3c 4a 87 ac be 44 b2 2a be
       0.29530016 0.0155984275 -0.33696967 -0.16669565
0003d0 00 3f 31 be 94 b5 82 be 99 bf ba 3e fe ab c1 3e
       -0.17309189 -0.25529158 0.36474302 0.37826532
0003e0 94 38 7d 3e 42 7a c4 3e 84 6f 6a 3e ba 8a 47 3c
       0.24728614 0.38374525 0.22894102 0.012179071
0003f0 9a 81 85 be 7c b4 5f bd 00 c7 05 3d b4 6f 26 be
       -0.2607544 -0.054615483 0.032660484 -0.16253549

network.6.bias f4 [2]
000000 56 67 66 bd 96 7d b8 3d
       -0.056250893 0.090083286

network.0.weight f4 [128, 10]
000000 7f 40 74 3e cb 77 27 be 17 a3 67 be cd 9a 3b be
       0.23852728 -0.16354291 -0.22620808 -0.1832077
000010 27 15 a7 3e 2f 3f f9 bd ba 1f 0b 3e a0 65 f3 bd
       0.32633325 -0.121702544 0.13586321 -0.11884618
000020 f9 45 ba 3e 93 ae 15 be f4 6c 5e 3e 20 08 b6 bc
       0.3638151 -0.14617376 0.2172125 -0.022220671
000030 c0 4f 63 3e d6 5c d8 3d 85 a1 05 3e 7a 04 a5 bd
       0.22198391 0.10564582 0.13049896 -0.080574945
000040 67 9e 95 3a 50 a2 a9 3e 65 8f 14 be 74 46 da 3d
       0.0011415005 0.33131647 -0.14507826 0.10657969
000050 a3 19 8b 3d 24 c0 73 bf 29 b2 4c 3e 94 dd c9 be
       0.06791999 -0.9521506 0.19989838 -0.39426863
000060 28 42 0a bf 20 fc e5 be b2 cf 82 3c be ae 6e be
       -0.54007196 -0.4491892 0.015968177 -0.23308846
000070 5d 36 e9 3d 4d ef 8e 3e 31 cc de 3d 8a 04 8f be
       0.11387322 0.27916947 0.1087879 -0.2793315
000080 c9 85 11 3e 31 38 21 bd 8e a3 f4 3c fd 0e 0c 3e
       0.14211191 -0.03936023 0.029863145 0.13677593
000090 6a 14 25 3c fa 75 73 3f 60 4e 33 be e3 f8 5d be
       0.010075668 0.9510189 -0.17510366 -0.21676974
0000a0 80 47 e7 bd d0 d2 1e 3f a0 c3 98 3d a5 64 4b bd
       -0.112929344 0.62040424 0.074591875 -0.04965653
0000b0 42 e9 0e be 2f 1e 40 3e d1 9e 7b bd 35 2f 30 bd
       -0.13956168 0.18761514 -0.061430756 -0.04301377
0000c0 54 35 74 3e 74 fb f6 38 b1 e7 70 be c4 79 69 be
       0.23848468 0.00011777031 -0.23525883 -0.22800356
0000d0 7f 78 b6 bd 99 aa 9b be 57 d3 4b 3e f4 53 65 be
       -0.089097016 -0.30403593 0.19904839 -0.22395307
0000e0 85 13 ec 3c 41 61 5a bf a2 b6 90 be ab c5 f2 bd
       0.028817901 -0.8530465 -0.28264338 -0.118541084
0000f0 fc ec 08 be 9b d4 54 3e d0 00 d9 be 0d 19 1f 3d
       -0.13371652 0.20784228 -0.42383432 0.03884225
000100 0d f7 b6 be 6c 95 07 be 1e f5 0a bd f1 68 25 3e
       -0.3573536 -0.13240594 -0.03392517 0.16153313
000110 91 27 dd 3e e9 7e e6 bd f0 f9 ed be db 9b 19 3d
       0.4319425 -0.11254675 -0.4647975 0.03750215
000120 e8 09 71 be fc a0 ed 3c 6d 99 9b 3e 37 52 90 3e
       -0.23538935 0.029007427 0.30390492 0.28187725
000130 99 5f 39 bd 52 16 f7 bd a9 ce b9 3d f7 30 58 3c
       -0.045257185 -0.12064804 0.090726204 0.013195268
000140 b6 78 40 be 94 ae e9 3e a2 6c 50 3e 12 7a 70 3d
       -0.18796048 0.45641005 0.2035394 0.058710165
000150 10 6b 3d be be 90 42 be ec e6 44 3b ec df f3 3d
       -0.18497872 -0.19000527 0.0030044867 0.11907944
000160 95 70 13 3e 46 62 ef 3d 25 64 63 be c4 cc 20 3e
       0.14398415 0.11688666 -0.22206171 0.15703112
000170 9c 56 3d be 0f b0 17 be 98 85 0c 3f 62 20 96 3e
       -0.1849007 -0.14813255 0.5489135 0.2932158
000180 58 97 92 bd 96 b5 01 3e 14 4d 8e bd 9f 92 b5 bc
       -0.07157773 0.12666926 -0.06948295 -0.022164641
000190 48 78 bb 3d 04 1d 00 be ca 1c 8b be 62 ea 37 3d
       0.09153801 -0.12511069 -0.27170402 0.04490126
0001a0 c2 8b 2c bf 39 5b 94 3e 3e 7c 9b bd 55 d2 f5 3d
       -0.67400753 0.28975847 -0.07592057 0.12003008
0001b0 32 c5 d5 3e 0a 56 94 bd 57 ba 1b 3e b0 4d cd bd
       0.4175201 -0.07242973 0.15207802 -0.10024583
0001c0 58 8b e3 3d 19 11 73 bd 3c b2 97 be c5 d6 70 3e
       0.11110562 -0.059342477 -0.2962817 0.23519428
0001d0 d9 9e 80 3d 7a 3a 08 bf 96 ca 94 be 9e 06 e2 bc
       0.06280298 -0.5321423 -0.2906081 -0.027591046
0001e0 81 bf 97 be 3e 02 88 bd 77 28 47 be a0 52 28 3e
       -0.29638293 -0.06641053 -0.1944903 0.16437769
0001f0 f2 40 32 3f 6e 8a 81 be 35 be cd 3d 33 a4 bd bd
       0.6963035 -0.25300926 0.10046045 -0.09259834
000200 7f aa 84 3e 35 03 e3 bd ae ee 66 3e 43 70 b1 bb
       0.25911328 -0.11084596 0.22551987 -0.005414994
000210 78 b4 ce 3e 21 b0 9a 3d 57 d0 ab bc 40 f5 89 bd
       0.40372062 0.07553125 -0.020973368 -0.06736231
000220 99 0a 18 bd 71 ae 0b bf 39 9b 67 bc dc 94 2c 3c
       -0.03711948 -0.5456305 -0.014136129 0.010533538
000230 17 dd 14 3f f1 e5 14 3e 5a 96 a0 3e ca 5d 20 3d
       0.58149856 0.1454084 0.3136471 0.039151944
000240 20 67 b9 3d 51 f3 24 bd 84 97 d9 bc 87 c8 73 3e
       0.09052873 -0.040271107 -0.026561506 0.23806964
000250 db 22 37 3e 8b d7 8f 3e dd 4d ac be 6d 69 01 bf
       0.1788439 0.28094134 -0.33653155 -0.5055149
000260 f4 15 d5 3d b3 23 f2 bc 50 d2 fe 3e 48 f8 a2 3d
       0.10404578 -0.029558038 0.4976983 0.07957512
000270 d0 51 91 3d aa cf c8 3e 95 d1 0e 3e 23 a9 85 be
       0.070956826 0.39220935 0.13947137 -0.26105604
000280 e0 f1 7b bc 99 e8 d7 3e 01 43 5f bd 51 e3 a4 3e
       -0.015377492 0.42169645 -0.05450726 0.3220468
000290 a8 b1 a3 be c0 73 77 be 71 a8 19 3d 40 b6 06 3f
       -0.31971478 -0.24165249 0.037514154 0.5262184
0002a0 fd b2 d2 be 9f 86 0d 3e f6 4c e5 bd 9f 2c 3a be
       -0.41152182 0.13820885 -0.1119632 -0.18181084
0002b0 80 3f ca bd ea db 44 bd 15 60 10 be ed 11 98 3d
       -0.09875393 -0.04806129 -0.14099152 0.07425294
0002c0 65 3f 84 bb 61 15 09 bf ec 0b 89 3e a9 72 ed 3d
       -0.0040358775 -0.53548247 0.26766908 0.11594135
0002d0 77 a1 ba be d5 c6 ea bb a6 4f 5e bb 54 15 55 3e
       -0.36451313 -0.007164816 -0.0033921986 0.20808917
0002e0 ac 0a c8 bd 73 6b 33 3d 20 a2 2a 3e f7 17 8c 3c
       -0.097676605 0.043803643 0.16663408 0.017101271
0002f0 b5 5b 89 bd f0 23 2c bd 9b 2e 50 3d 82 9f da 3e
       -0.06706945 -0.04202646 0.050825696 0.4269982
000300 3b 2c 0b be 78 be c4 bd bd ce 97 3c 12 3a 9d 3e
       -0.13591091 -0.096066415 0.018531198 0.30708367
000310 e2 3e 04 3d d5 35 d0 be 42 06 a1 3e fb ea 1e 3e
       0.032286532 -0.4066607 0.31450087 0.15519325
000320 b9 87 6a 3e 6a 84 9c be ee eb 71 bd c4 e3 0e bc
       0.22903337 -0.30569774 -0.05906289 -0.008721296
000330 41 82 b9 3e af 93 14 be 53 86 44 3c 9b 3f 08 bf
       0.36232188 -0.14509462 0.011994916 -0.53222054
000340 97 7d aa 3d 2b 35 b0 bd 3e 7d 07 3e 8b 8e 90 be
       0.083247356 -0.08603891 0.1323137 -0.28233752
000350 09 62 cf 3d dc 74 b6 3a 22 9b c6 be dc 81 96 3e
       0.101261206 0.0013920325 -0.38790232 0.2939595
000360 b4 89 91 bb b1 c4 bc 3e f8 92 bf be 9b 72 0d be
       -0.0044414643 0.36868814 -0.37416816 -0.1381325
000370 a5 2b 12 be 01 a0 a4 be 99 96 f2 bd 6b 56 f9 3c
       -0.14274462 -0.32153323 -0.118451305 0.030436715
000380 9c 3d d2 3e 59 6a cc bb 57 2b 65 3c 40 b2 b2 3e
       0.4106263 -0.0062382636 0.013987384 0.3490162
000390 df da b7 bd 65 ba 9a be 93 96 88 3d a1 64 c2 be
       -0.08977293 -0.30220333 0.06669345 -0.379674
0003a0 e0 56 bd bc 83 80 8b be 55 df 30 bf 37 e1 00 be
       -0.023112714 -0.27246484 -0.6909078 -0.12585913
0003b0 92 41 b0 bd d4 2b 87 3e 80 4f 3e 3f 24 24 bf 3d
       -0.086062565 0.26400626 0.7434006 0.09333065
0003c0 97 59 b6 be 77 b1 8d be 9a d7 ea bc 50 b2 cc bd
       -0.35615227 -0.27674457 -0.02866726 -0.09994948
0003d0 75 39 fa 3e 9a 52 bd be 29 8e 2d bd 51 ac eb 3e
       0.4887196 -0.36977082 -0.042371903 0.46029904
0003e0 43 0d 88 3e b4 d7 86 be 02 ca be 3d 07 24 56 be
       0.26572618 -0.26336443 0.09315874 -0.20912181
0003f0 a5 87 be be 34 32 0c be 3b 59 f7 3d 05 d2 11 bd
       -0.37212864 -0.13691026 0.12077566 -0.03560068

network.0.bias f4 [128]
000000 c3 c6 80 bc 0b 5a d4 be fa dc b5 be 5d a7 b7 be
       -0.015719777 -0.41474947 -0.35520154 -0.35869876
000010 a3 3c 0e be bb 26 14 3d ac 62 83 be b5 42 96 bc
       -0.13890319 0.03616975 -0.25661218 -0.018342355
000020 4e 4d 4d 3e f6 6b 67 3e f8 b3 f4 bd 26 54 90 bd
       0.2004902 0.22599778 -0.11948389 -0.070473
000030 86 b0 89 be 00 ca 83 bb 57 d7 cc 3d c8 fe d3 bc
       -0.2689249 -0.004021883 0.1000201 -0.025878325
000040 74 0f b0 be db 4e 80 3e 8b 80 5d 3e db 4d 7e 3e
       -0.3438679 0.25060162 0.21631067 0.24834387
000050 5d ac 9a 3e d2 b5 81 bd 30 19 29 be 06 a2 37 be
       0.30209628 -0.063335076 -0.16513515 -0.17932901
000060 01 c4 ad be de b0 2d 3e 95 18 b4 3e 4e 14 76 be
       -0.33938602 0.16962 0.35175005 -0.24031183
000070 90 73 07 b9 96 f3 2e 3e b3 1d 1a bc f5 37 0b be
       -0.00012917654 0.17085108 -0.009406495 -0.13595565
000080 b5 b0 ce be bb 60 b3 be 4f b8 a9 be 4e 6f 71 3e
       -0.40369192 -0.35034737 -0.3314843 0.23577616
000090 e5 4a cc bd 07 b4 95 3e 5f bb 5a bd 3d 3d 73 3e
       -0.099752225 0.29238912 -0.053401347 0.2375383
0000a0 5a 09 b1 3d 84 cd 2e be 4c 90 f8 3d 79 c5 53 bd
       0.08644362 -0.17070585 0.121368974 -0.051701996
0000b0 3e 8d 7c 3e 37 b5 80 be cd da c0 3b f4 1b 27 be
       0.24663255 -0.25138256 0.005885458 -0.16319257
0000c0 af d8 c6 bd 99 2a c6 bd f7 5a b5 3d e5 d9 12 be
       -0.09709298 -0.096760936 0.08855241 -0.14340933
0000d0 44 97 31 3e f2 5b a2 bd 39 f2 6f bb 24 42 dd bd
       0.1734286 -0.079276934 -0.0036612882 -0.10803631
0000e0 90 08 5d 3e 77 c6 94 3e 8a bd 1d be b0 b7 58 be
       0.21585298 0.29057667 -0.15404335 -0.21163821
0000f0 bb ac 69 3e 2c 6d b1 bd 24 91 01 be f5 3d e7 3d
       0.22819798 -0.08663401 -0.12653023 0.11291114
000100 0e 1e 02 3e b8 51 5c be 8f 62 72 bd d6 a3 76 3e
       0.12706777 -0.21515548 -0.059176024 0.24085936
000110 b1 78 97 3e 16 20 88 be 7e 6d fa 3d d6 fa 28 3e
       0.29584268 -0.2658698 0.12227915 0.16501936
000120 f8 64 69 3d 1d 1d 6a 3e d4 1b 9c 3e d2 c2 f9 bc
       0.056981057 0.22862668 0.3048998 -0.030488405
000130 a3 f4 83 3e 3d ef 82 3e a0 9b 02 3e 72 06 e0 bd
       0.2577258 0.2557315 0.12754679 -0.10938729
000140 be 04 63 3e 25 2f fd be e9 d4 bf bd 8c 01 41 be
       0.22169778 -0.4945003 -0.09366781 -0.18848246
000150 70 47 de 3d 44 c6 40 be 97 a5 41 3e f8 e2 09 be
       0.10853469 -0.18825632 0.18910824 -0.13465488
000160 d4 52 05 3e 82 03 80 be 67 6b 43 3e b7 d6 80 3d
       0.13019878 -0.25002676 0.1908394 0.062909536
000170 db 43 3d 3d 0a a9 94 be 94 82 d1 bc e5 e6 cf bd
       0.04620729 -0.29035217 -0.02557496 -0.101514615
000180 2b 4f 4b 3e 0d cf 92 3e fa 28 72 3e b2 ba 4a 3e
       0.19854419 0.28673592 0.23648444 0.19797781
000190 6d c8 97 3e ad a4 c4 3d 2f 83 ea bd 73 0a ae 3e
       0.296451 0.09601722 -0.114508025 0.33992347
0001a0 d9 b2 cf 3d da e0 14 be 8c 5f 35 be 2a 69 24 bc
       0.10141534 -0.14538899 -0.1771223 -0.010034839
0001b0 a1 b0 73 be 7d 49 8e 3e 75 67 16 3e ae cc 67 3e
       -0.23797847 0.27790442 0.14687903 0.22636673
0001c0 87 90 c9 bd 17 58 11 3d 19 41 0e 3e d9 eb 43 be
       -0.098420195 0.0354844 0.1389202 -0.19132937
0001d0 c5 68 3d bd 01 91 f0 bd 69 15 40 bd 8f 40 81 3e
       -0.046242494 -0.11746407 -0.04689542 0.25244567
0001e0 69 c8 93 3d 06 c1 0a 3e ba 4c 6d 3e 47 51 b9 bd
       0.072159596 0.13550195 0.231738 -0.090487055
0001f0 29 6d 35 be 3c 10 7d 3d d3 d2 68 3e 35 ca 59 3e
       -0.17717423 0.06178306 0.22736673 0.21268542
