reports/QuadPole2D/quadpole2d_nn_ppo/001/policy.pt (torch, 414722 bytes, 19 tensors)

network.0.weight f4 [128, 10]
00000000: 2905 2dbe 89e7 d43e 152c b3bd 0ea3 643e
00000010: 27b8 58bd 5d7f bb3d a297 833e f218 333e
00000020: 8591 623e eaf9 2cbd 6963 7dbe 0d2a 3d3e
00000030: 66c9 9fbd cdb0 823e c2ae a83d da52 2d3e
00000040: d158 503e b3ae ca3e 592d 283e 2442 f4bd
00000050: e6e2 803e 3541 c0be 6d74 35be f7aa b1be
00000060: 068e c23e 6a07 bfbd 30d7 81be bc4e 6dbe
00000070: d87c b4bd 4539 2c3e b5e5 bcbd 3ef5 f93e
00000080: e417 fabc 75c5 a8be 8520 d53e e6e1 8f3e
00000090: 796b 8dbe 392e 923e 7ef8 91be 38b3 3b3e
000000a0: f46d cc3d 35b6 e13d cb96 263e a31f de3b
000000b0: 2c1d cabe b453 873e 712f 3e3e d043 1ebe
000000c0: bb44 9ebe ced6 893e b67c 503e 85aa 04be
000000d0: a472 913d 910c 2ebd a62b 8e3d 405f 83be
000000e0: 9ca0 e23d 386e 8ebe 4cc9 95be 3fb7 1b3e
000000f0: 8c97 1cbd 573c aa3d a68b 4a3e 4760 f53c
00000100: ce3b 1dbe 0435 ff3d bb98 173e ef4c e43e
00000110: 4c74 99be d219 10be 5a71 59be eb24 673e
00000120: 7c49 a9bd 9983 c43d 0539 713e 4241 aa3d
00000130: b5d5 183e f9af 223e c4e2 5fbe c239 163e
00000140: 8482 b5be b539 1e3e 8d0d 91be d4f6 c6bd
00000150: 73b3 ea3e 331f a8bd 50c8 d03d 89d5 133e
00000160: 8322 773e 2dd9 10bd 6383 613e 14b4 b8be
00000170: 9284 2d3e 2cce 023e c8fd b7be 624d 9f3e
00000180: 3fc2 98be 0ad8 78bd 796b 273e 7cce 3e3d
00000190: e8c6 34be 7533 68be 82a8 95bc a5b8 153e
000001a0: 3b1e 0ebd 9789 8ebe e7cd 9bbe 8cb1 cb3e
000001b0: 358f 8f3e 6dbd 373e e099 aabb 6966 a33d
000001c0: 2c37 35be a4f3 ebbe 7bb3 bf3c 202e 583e
000001d0: afc4 e03d ee1a 8c3e 262b 9a3e 0abd fb3d
000001e0: 6a7e 3fbe 2d72 fcbd aca5 243e f96f 1a3e
000001f0: bae9 a9be 203c b03d 5405 9fbe 5469 80be
00000200: a15a 933e 3ca7 9fbc e2e7 a0be f686 31be
00000210: 6bff ebbd 564f 303e d5f4 b5be 37f2 29bd
00000220: 1d00 353e 83ed acbe aac7 8fbe 639d 053d
00000230: e167 263e 79be a8bd 0984 dbbc bba3 543e
00000240: 6f2e 0b3f d5f7 b6be 9c2a 803e b5d5 b53e
00000250: dee9 f13d 33ce a53d 230c 293e 5260 28be
00000260: 5087 1f3e 8a5f 93be 044c e4be f0d2 d7bc
00000270: ab6b 67be e55b 373e 748d a53e 49bb 913d
00000280: d594 dbbd c0ea 17bd eaed bebd e071 b5bd
00000290: 65ed 25be be9a 243e 5fe8 a2bc 76e5 cb3d
000002a0: a603 a03e 4164 063e 4302 563e 7cb1 1c3e
000002b0: 30c1 723e 3784 903e ea38 51be 441a 253e
000002c0: a122 a5be 2678 de3e 9b69 a2be b49b debd
000002d0: ad56 d03c 682f dbbb 2f4a 94be ab95 023e
000002e0: 2b00 10bd 46ef fc3d 0109 6dbe 6f22 f83e
000002f0: 2a7f bbbe 7786 6d3d a26c adbe 429f 1e3e
00000300: 3693 6ebe 057a c5bc b309 e3be 1c9b 193c
00000310: c206 33be d79b aabe 2f63 b1bd 176b 0f3e
00000320: ecdd 363e 5827 373d 9b3e 983e 3d4b 3d3e
00000330: 979e b5be 1b06 c5bd e4d4 4abe bfa8 a4be
00000340: 8e8c 953d 1dab 0bbe 315e 043d 268a 5b3e
00000350: 863d 31be ab13 053e def0 0f3f d841 86be
00000360: 80b7 25bd d80c 34be 2a34 babe fe94 dc3d
00000370: aeb4 8d3e ceb1 af3e d95b 903d 7239 0e3e
00000380: fb49 38bf 1e58 2bbe 3af6 6a3d d190 d9be
00000390: 210a a2bd f4cd 3b3e 84e2 be3e 5df0 7cbd
000003a0: 0aee 133e 5259 3ebe b88b f8be 456d 4c3e
000003b0: d291 72bd b008 ca3d 31bf baba e9d5 063d
000003c0: 2527 8a3e c3fc a33d b883 32be dbcd 493c
000003d0: 703f 8cbd 7663 8b3d 9db9 e3be 92ab b23e
000003e0: 8907 743e 2cc2 563e 4180 3ebe 1962 173e
000003f0: 6c25 51be f861 6dbd 3338 0bbf 29c0 873e
-0.168965 0.41582897 -0.08748642 0.22327825 -0.052909996 0.09155152 0.25701624 0.17489985
0.22125824 -0.042230524 -0.24744953 0.18473072 -0.078020856 0.25525513 0.082364574 0.16926137
0.20346381 0.3958641 0.16423549 -0.11926678 0.2517311 -0.3754975 -0.17720194 -0.34700748
0.3799898 -0.09327586 -0.25359488 -0.23174566 -0.088128746 0.16818722 -0.09223501 0.48819917
-0.03052897 -0.32963148 0.41626373 0.28102034 -0.27621058 0.2855089 -0.28509897 0.18330085
0.099819094 0.11021081 0.1626846 0.0067786737 -0.3947538 0.26431048 0.18572785 -0.15455556
-0.30911812 0.26921695 0.20360073 -0.12955673 0.07101944 -0.042492453 0.06941919 -0.25658607
0.1106579 -0.27818465 -0.2925514 0.15206622 -0.038230464 0.0831229 0.19779834 0.029953135
-0.15354845 0.12461284 0.14804356 0.44589946 -0.2997154 -0.1407235 -0.21234646 0.22572677
-0.08265969 0.09595413 0.23556907 0.08313228 0.14925273 0.1588744 -0.21863848 0.1467047
-0.35451138 0.15451701 -0.2833065 -0.097150475 0.45840034 -0.08209076 0.101944566 0.14436926
0.24134259 -0.035363365 0.22022776 -0.3607489 0.16945103 0.12773961 -0.35935807 0.31113726
-0.29835698 -0.060752906 0.16349591 0.046583638 -0.17654002 -0.2267588 -0.018268827 0.14621218
-0.0346968 -0.27839348 -0.3043053 0.39783895 0.28038946 0.17943354 -0.0052063316 0.079785176
-0.17696828 -0.4608432 0.023401013 0.21111345 0.109750144 0.27364296 0.30111045 0.12291916
-0.18700567 -0.12326465 0.16078824 0.15081777 -0.33186132 0.08605218 -0.31058753 -0.2508036
0.28780082 -0.019488923 -0.31426913 -0.1733664 -0.115233265 0.17217764 -0.35538355 -0.04149076
0.17675824 -0.33774957 -0.2808202 0.0326208 0.16250564 -0.08239455 -0.026796358 0.20765583
0.5436773 -0.35735956 0.25032508 0.35514608 0.11812185 0.0809597 0.16508536 -0.16442993
0.15578961 -0.28783828 -0.44589245 -0.0263457 -0.22599666 0.17906149 0.32334483 0.071158
-0.10721747 -0.03708911 -0.09322722 -0.088596106 -0.1620384 0.16074654 -0.019886194 0.099558756
0.31252784 0.13124181 0.208993 0.1530208 0.23706508 0.28225872 -0.20431867 0.16123301
-0.32252982 0.4345104 -0.31721196 -0.10869542 0.025431955 -0.006689001 -0.28962848 0.12752406
-0.03515641 0.12350325 -0.23147966 0.4846377 -0.36620456 0.057989564 -0.33871943 0.1549044
-0.23298344 -0.024106035 -0.44343337 0.00937536 -0.17483047 -0.3332202 -0.08661496 0.14005695
0.17858094 0.044715255 0.29735264 0.18485732 -0.35472557 -0.09620305 -0.19807774 -0.32159993
0.07302199 -0.13639493 0.03231639 0.21439418 -0.17308626 0.12995784 0.5622691 -0.2622211
-0.040458202 -0.17583025 -0.36367923 0.107706055 0.2767691 0.34315342 0.070487686 0.13889101
-0.71987885 -0.16732833 0.057363726 -0.424933 -0.07912088 0.18340284 0.37282193 -0.061752666
0.14446273 -0.1858876 -0.48544097 0.19963558 -0.059221096 0.09864938 -0.0014247653 0.032918844
0.2698299 0.08007195 -0.17433059 0.012317146 -0.06848037 0.0680608 -0.4447755 0.34896523
0.23831 0.20972508 -0.18603612 0.14783515 -0.20424432 -0.05795476 -0.5438263 0.26513794

network.0.bias f4 [128]
00000000: e462 973e a098 95be f977 53be 26e4 49be
00000010: df57 753e cbf5 8e3e 99d8 88bd 17dc dcbd
00000020: 73f6 c5bd cf52 a53e fd02 97be 9c77 903e
00000030: 5a78 3d3d 2cd7 d53b a8e4 b4be 87e8 963d
00000040: 118f 573e c3bd 193e e9a4 a13d ce9f 643d
00000050: 642c 1ebd 2981 a93e c247 6e3e 938a 873e
00000060: f581 1abc bbe3 52be bbbf 123e 3849 9c3e
00000070: cc3d e6bc 6e38 963e 06c0 34bd 0999 983e
00000080: 96f9 5b3e d461 a0be 3e44 533e c067 913d
00000090: 9dd2 9e3e 6afe 6dbd 2beb 9bbd 17f5 a9be
000000a0: 909e 4abe f3cd dfbd 8a78 81be 4ba0 8f3e
000000b0: c8cc a2bd cf10 8fbc 4fce 773e 31e2 ac3e
000000c0: d2dd b6be ab9c 93bd 398e 2f3e 2836 8d3d
000000d0: af27 41be 33b6 2ebe 3784 ca3d 0310 813e
000000e0: 9697 013d 5ee1 eb3d a53b fc3c 12dd 6a3e
000000f0: 902f e6bd 1735 8e3e f5d9 993e 26e3 1b3e
00000100: 845b c0bc 9638 59be 9143 d3bc 1006 1c3e
00000110: 637f 673e ad8d 653e e515 2f3e 1c26 533d
00000120: d031 85be ab57 b9be 1138 9ebd 6164 7d3d
00000130: ba3f 463e 329a 9cbd e7f8 40bd a813 0dbe
00000140: 4750 2cbd 7473 a13e 50e9 13be 665a 843e
00000150: 3818 47bd b71b 36be 6216 7f3e 6893 24be
00000160: 7c79 fbbc d797 33be 3b77 433e fbd3 a23d
00000170: 8ca5 87bd 33cf 833e 55db 38be a0f6 c73d
00000180: fabf 013e acf9 eabd 653b 6fbe 6d81 b13c
00000190: 8dcf dc3c 3708 3d3e 2e5c 25bc 1fc8 d23d
000001a0: f971 4dbb 1c68 9abe ee11 463e fd9e 37be
000001b0: cb35 1dbe dbff 023e a056 7bbe 0b0c 7dbd
000001c0: 4149 d1bd aa3c 803e 194e 78be 3d83 08bd
000001d0: 40c4 1abd 9976 593e 1448 923d 1de8 773e
000001e0: 4fe6 9abe ee23 763e a8ef 123e ee98 103e
000001f0: 521d 76be 0713 253e d7eb 7dbe 9575 ec3c
0.29567635 -0.29218006 -0.20651235 -0.19715938 0.23959301 0.279219 -0.06681938 -0.10784166
-0.09666147 0.3228974 -0.29494467 0.28216255 0.046257354 0.0065258946 -0.353307 0.0736857
0.21050669 0.15013795 0.07892782 0.055816464 -0.038616553 0.33106354 0.23269561 0.2647291
-0.009430398 -0.20594685 0.14330952 0.3052461 -0.028105639 0.29339927 -0.04412844 0.29804257
0.21481928 -0.31324637 0.20631501 0.07099867 0.3102006 -0.058103956 -0.07613214 -0.331948
-0.1978705 -0.109279536 -0.25287277 0.2805198 -0.07949215 -0.01746407 0.24199794 0.3376632
-0.3571611 -0.072076164 0.17144097 0.06895095 -0.18862794 -0.17061691 0.09888499 0.25207528
0.031638704 0.11517595 0.03079016 0.22935894 -0.112395406 0.2777488 0.300491 0.15223369
-0.023481138 -0.21212992 -0.025789054 0.15236688 0.22607188 0.22417326 0.17098196 0.051550016
-0.26014566 -0.36199698 -0.077255376 0.061863307 0.19360247 -0.07646598 -0.04711237 -0.1377703
-0.042068746 0.31533396 -0.1444447 0.2585022 -0.04860708 -0.1778401 0.24910882 -0.16071856
-0.030697577 -0.17538391 0.19088452 0.07950588 -0.066233724 0.25744018 -0.18052419 0.09763837
0.1267089 -0.114734024 -0.23362501 0.02166816 0.026954437 0.18460165 -0.010092778 0.10292076
-0.003134845 -0.30157554 0.19342777 -0.17931743 -0.15352552 0.12792914 -0.24544764 -0.061779063
-0.1021905 0.25046283 -0.24248542 -0.033328284 -0.037784815 0.21236648 0.07142654 0.24209638
-0.30253837 0.24037144 0.14349234 0.14120838 -0.24034622 0.1612054 -0.24796997 0.028864661

network.2.weight f4 [128, 128]
00000000: fff2 e6bc eeaa 7c3d 0b62 d3bd a6fb 39bd
00000010: 048c 9b3c 0329 eb3a 1097 813c 3c58 cebd
00000020: 1c30 42be 2ce0 65bd 0959 a3bd 78b2 993d
00000030: 8b00 a3bb d6cb d83c b141 263d 3dd4 b23d
00000040: 9a38 853d ad0b 8b3c 9b4e af3d dfd9 a73c
00000050: 56a0 cfbd 8d30 373d 4a5a 053d b896 a13d
00000060: e8af ab3d 3fc4 2e3d 5cd6 353d c7bc 26bd
00000070: 60b4 cbbd ca46 acbc 91c3 b1bc 2f47 b43c
00000080: 2845 1b3d 9b22 153e cefb abbd 4fda bc3d
00000090: c549 7fbd 39fb 203d df53 4f3d 8c0d dabb
000000a0: b0f4 97bc 990e 7abd 9dd6 263c a85f aebd
000000b0: 4612 b9bd 3153 43bd 69b5 04bd 74e1 a5bd
000000c0: cbe8 923d abd6 52bd 4805 16bd d645 ffba
000000d0: 61c0 f13c 879a 6b3c 8b15 3dbd 0466 88bb
000000e0: 9546 57be efea a63d b9ac 393d 7612 863d
000000f0: f044 83bd 6aab b23c e49d 0e3d f700 7c3b
00000100: d4d2 3bbe 26a6 fcbd 4976 a5bc aba5 0b3d
00000110: bae6 273d 5804 2b3d 9608 9b3d 5be4 89bd
00000120: 5999 65ba 4351 50bd aead c8bd 8768 c43c
00000130: a435 43bd 4746 9dbc 93f0 71bd 8e39 fcbd
00000140: 8d9d 76bb 37b2 8e3c dd98 6bbd c4de 6ebd
00000150: 1ad1 94bd 6762 d9bb c7db 81bc 7f3f 8cbd
00000160: c3a8 c6bd 6890 3dbd d358 923c f411 573d
00000170: 76f7 53bd 29cd de3c bed3 5e3b 83ee c83b
00000180: 032b b03c 237b 57bd aa0b d4bc 8e5e 2fbd
00000190: 2f7a 86bc ee5e 833c 0d8c c93d 4f31 493d
000001a0: 33ec 4dbc d027 92bc 9b34 933d 4ef3 473d
000001b0: a3fc ec3c a6a7 223d e1c7 f7bd c848 583d
000001c0: 2269 863d d0b2 9a3d 0048 8abc 4686 b43d
000001d0: c6af bd3d 96a9 26bd 52e1 a63d eaf3 0abe
000001e0: 83f1 773e 6255 6dbd 77ab 1cbe 24c9 bdbd
000001f0: 9d12 ca3b 1bc8 223c 8ff7 d6bd cf5f f23c
00000200: 7f0a 5f3d 443d 54bd 9a47 a6bc 2c63 a8bc
00000210: 9a1a f73c 4aad 163d a8f8 9b3b 3061 993d
00000220: d702 bbbd 0196 66bd 0cb9 b8bd 66c9 0cbd
00000230: 29fe 8abd 360d 8b3d 41e9 1a3e 2746 9e3c
00000240: dc36 723d a435 34bd 6f2b 4b3d 9394 e9bd
00000250: bf51 e1bc c686 b13c b332 683d eef2 593b
00000260: af53 08bc 9172 8bbd 6072 8e3d 9924 323d
00000270: 5689 6abd 32bc 89bd 11da 19bd c71f 8cbd
00000280: ef7d d5bc 7cf1 b63d 99fe 90bd cb9d 29bd
00000290: e420 bfbd 8b4f 3a3d 6021 733d 22fc 813d
000002a0: c91c b8bd 1b93 1bbd 23e7 8c3d 3a38 6fbd
000002b0: 615e 96bc d82e 983d eae5 8c3d afd0 403c
000002c0: 7e3b 593b d22c cabd 4a57 c9bc cab4 1cbb
000002d0: d1af 12bd 27b5 c3ba 3b90 5d3d 1554 d23c
000002e0: a2eb d33d c499 69bd d078 183d 015d 0b3d
000002f0: 454c b13c 2678 973d d0b8 823c 9cef 49bd
00000300: b355 7dbc 48c3 5ebd 2996 74bd c266 043d
00000310: c0c0 babd 086d ca3c 9c2d b03d 02a2 363d
00000320: 61a4 313d 7dd7 f6ba 5738 7abd a998 833d
00000330: 872b 983d 4154 a3bd 2b08 62bd 099e 963c
00000340: 1688 4c3d 3537 23bc 9f61 3c3d 167d a53c
00000350: ba19 cf3c e1d7 02be 3420 a1bd 1d42 fc3c
00000360: 21b6 2bbe ff36 ba3c 53a5 a9bd 789e 1b3a
00000370: b04b 01be 0d7a 82bd c23a 4bbc b422 7f3d
00000380: 1b6b 8cbd 7169 0dbd aa19 90bd aba3 a03d
00000390: 2f8c 87bd 49df 2dbd d00a 9abd 1c44 ddbd
000003a0: df5d 5b3d 6d9e 493d 0b14 693d 8bbb 6cbc
000003b0: 7302 823d 6900 1dbd f561 eabd c8e5 91bd
000003c0: a183 7a3d 3224 e838 aef4 1b3c 4fab 61bd
000003d0: c965 98bc 7248 b13c c81c 9fbd ea14 dbbc
000003e0: 05c8 2ebc f816 83bd f12a b9bd 72b3 42bb
000003f0: 40e4 51bd 2a5c 48bd 11de c2bd 9526 d23c
-0.028192041 0.06168645 -0.103214346 -0.045406006 0.018987663 0.00179413 0.015819103 -0.10075423
-0.18963665 -0.05612199 -0.079759665 0.07504743 -0.00497443 0.026464384 0.040589992 0.087318875
0.065049365 0.01697334 0.08559915 0.020489631 -0.101380035 0.044724036 0.03255681 0.078900754
0.08383161 0.042667624 0.044393882 -0.040707376 -0.09946513 -0.021029849 -0.021699699 0.0220066
0.03790775 0.14563982 -0.08397637 0.092213266 -0.06232621 0.039302085 0.050617095 -0.006654447
-0.018549293 -0.061049078 0.010183004 -0.08514339 -0.090366885 -0.04768676 -0.03239957 -0.080996424
0.07173308 -0.051474255 -0.03662613 -0.0019475769 0.029510679 0.014380104 -0.046163123 -0.004162552
-0.21023019 0.08150279 0.045330737 0.0654649 -0.06409633 0.021810252 0.034818545 0.0038452724
-0.18342143 -0.12336378 -0.020198004 0.03409354 0.040991522 0.04175219 0.07569997 -0.067330085
-0.00087585073 -0.050858747 -0.09798752 0.023975624 -0.047658578 -0.01919855 -0.05906732 -0.12315665
-0.0037630529 0.017418964 -0.05751883 -0.058317915 -0.072664455 -0.006634045 -0.015851868 -0.068480484
-0.097001575 -0.046280295 0.01786462 0.052507356 -0.05174967 0.027197437 0.003400072 0.0061319484
0.021504885 -0.052607667 -0.025884468 -0.042814784 -0.016415684 0.016036477 0.09841166 0.04911929
-0.012568521 -0.01784125 0.07187768 0.048816018 0.02892906 0.039710663 -0.12098671 0.052803785
0.06563021 0.07553637 -0.016880035 0.08814673 0.09262042 -0.040689074 0.08148445 -0.13569608
0.24213223 -0.057942756 -0.15299784 -0.0926688 0.0061667697 0.009935404 -0.10496437 0.0295867
0.05445337 -0.05181624 -0.020297814 -0.020555101 0.030164052 0.036786355 0.0047598667 0.0748924
-0.09131401 -0.0562954 -0.0901967 -0.034371756 -0.067867585 0.06789629 0.15128042 0.01932056
0.05913435 -0.04399647 0.04960197 -0.114052914 -0.0275048 0.02167071 0.056688976 0.003325637
-0.008320733 -0.06808961 0.06955409 0.043491933 -0.05725988 -0.067253485 -0.03756148 -0.068419985
-0.026061026 0.08932778 -0.07079811 -0.04141025 -0.09332445 0.045486014 0.059358 0.06346919
-0.08989865 -0.037982088 0.06880023 -0.05840323 -0.01835555 0.0743081 0.0687979 0.011768504
0.0033147032 -0.0987183 -0.024577755 -0.002391147 -0.035812203 -0.0014931307 0.054092627 0.025674859
0.10347678 -0.057031408 0.03722459 0.034024242 0.021642813 0.07395963 0.015957266 -0.049300775
-0.015462327 -0.054385453 -0.059713516 0.03232456 -0.091187954 0.024710193 0.08602449 0.044588096
0.043369655 -0.0018832531 -0.061088886 0.06425602 0.07430177 -0.079750545 -0.05518357 0.018385904
0.04993447 -0.009961893 0.045991536 0.020201247 0.025280822 -0.12777664 -0.078674704 0.030793244
-0.16768695 0.022731302 -0.08283486 0.00059363944 -0.12626529 -0.063709356 -0.012404146 0.062288955
-0.06856366 -0.034524385 -0.07036145 0.07843717 -0.06618535 -0.04244927 -0.075215936 -0.108040065
0.05355632 0.049223352 0.05690388 -0.014449011 0.063481234 -0.03833047 -0.11444465 -0.071239054
0.061160687 0.00011069364 0.009518785 -0.055095013 -0.018603222 0.02164099 -0.077691615 -0.026743371
-0.010667806 -0.06400865 -0.090413935 -0.0029709009 -0.051243067 -0.04891602 -0.09515012 0.025653163

network.2.bias f4 [128]
00000000: 042a f8bc 6250 36bc 7e0c ac3d 39c6 43bd
00000010: d2ec 8bbd 39ea 7abb 7292 aabd 8922 aabd
00000020: cdb2 b53d c52a 033d 7c63 7e3d 29d9 ac3d
00000030: 628e 48bc 4379 0f3c 6c32 0f3d 33ff cebd
00000040: 8316 83bc 0a28 90bd 9246 5fbd fba6 8ebc
00000050: 476f 523c 9724 f53c ddfa 963d 2c0d 2fbd
00000060: ebe0 77bd 0715 ba3d 5ac2 ca3d 0684 ee3c
00000070: 04e2 21bc 4dbf ccbb e352 2c3d 92ab 0abd
00000080: 0a26 523d 4e73 58bd c760 a73c 7a23 943c
00000090: 76e5 573b f3c8 d43d 578b 3f3c c083 1ebd
000000a0: 0574 20bd ca1e e6bb f183 ca3d 7cac 91bd
000000b0: 67f8 bebc be2e 0fbd aeaf 95bc 42af e0bc
000000c0: 7308 0f3c 8244 b63d 7aa9 b13c 0351 573d
000000d0: 3a36 ce3d 928f 8d3d 8e5f 4d3d 3eef 7d3d
000000e0: 752a 7ebd 9d10 033d acef 693c c739 72bc
000000f0: cd24 5a3d a1d9 d43c 15aa f93c f680 c43d
00000100: 3db8 9f3d 5efd 32bc 7a41 71bd 2a4a ac3d
00000110: 88b1 1a3d ddb0 7e3d 8552 4c3d c8e0 543d
00000120: fa9f 293d 8654 96bd 27af 043d 584b 90bc
00000130: 6b3f 053d 4e96 473d dd53 0b3c 98e6 50bd
00000140: c9e5 acbd b74e a1bd 8a89 a5bd 2650 bc3b
00000150: 8719 033d a7d3 68bd 446c 163d f340 283d
00000160: f41e 91bd 8ddb fc3c 4670 733d a8ea 8f3b
00000170: 7851 0ebc 2b7d ae3b 2923 f13b 3af5 813d
00000180: 14e1 e03c a71b 8d3d 9a7a 07bd 10d0 a13c
00000190: 07ff a2bb aa33 373d e41d 59bd 1c3e d6bd
000001a0: 0baf b8bb b9a7 dbbc cb9a 1f3c 6c1a 5bbb
000001b0: a1c7 a53d 1081 cdbd a370 b13d 5be0 77bc
000001c0: 3664 b73d b222 90bd be86 42bd bc4c 2abd
000001d0: 50a1 0ebd 12a8 963d cd66 763d 2dd2 41bc
000001e0: 6d57 963c 3591 123d 0df9 34bd 84b5 7a3b
000001f0: 7d9d 9c3d a0d7 d4bb b6b4 b83c 15a6 5c3d
-0.030293472 -0.011127563 0.0840082 -0.04779646 -0.06832279 -0.003828658 -0.083287135 -0.08307368
0.08871994 0.03202321 0.062106594 0.084398575 -0.012240978 0.008756938 0.034960195 -0.10107269
-0.016001945 -0.07038887 -0.05451066 -0.017413607 0.012843913 0.029924674 0.07372067 -0.04273717
-0.060517233 0.09086042 0.09900351 0.029115688 -0.0098805465 -0.006248391 0.042071234 -0.03385503
0.051305808 -0.052844338 0.02043189 0.018083323 0.0032943166 0.103898905 0.011690936 -0.038699865
-0.039173145 -0.0070227133 0.09888447 -0.07112977 -0.023311807 -0.034956686 -0.018272247 -0.02742732
0.008730042 0.088997856 0.021687258 0.052567493 0.10068937 0.069121495 0.050139956 0.061995737
-0.06205221 0.031998266 0.014278334 -0.014784283 0.053257752 0.02598268 0.03047661 0.0959491
0.077988125 -0.010924665 -0.058900334 0.08412583 0.037766963 0.06218039 0.049883384 0.05197218
0.04141233 -0.0734034 0.0323936 -0.017614052 0.032531183 0.048727326 0.008503881 -0.05100116
-0.084422655 -0.07876342 -0.08082874 0.005746859 0.032006767 -0.056842472 0.036724344 0.041077565
-0.07085982 0.030866409 0.059433244 0.004391987 -0.008686416 0.00532498 0.0073589277 0.063456014
0.027451076 0.0689004 -0.033075906 0.019752532 -0.0049742493 0.044727005 -0.05300702 -0.10461065
-0.005636101 -0.026813375 0.009741495 -0.0033432497 0.08094717 -0.10034382 0.08664062 -0.015129174
0.089546606 -0.070378676 -0.04749178 -0.041577086 -0.03482181 0.073562756 0.060156632 -0.011829895
0.018352235 0.03578301 -0.044182826 0.0038255164 0.07647226 -0.006495431 0.022547107 0.053869326

network.4.weight f4 [128, 128]
00000000: 2ba5 d83a 12d4 fe3c 92d0 75bd d8f2 943c
00000010: 749d 263c 2a11 983d eacb 85bd 0c42 f13d
00000020: e2df b73c ffab c5bd 97f3 9c3d 2885 25bd
00000030: ac5f 2fbd 4172 ab3d 5c9f 903d f384 67bb
00000040: 2211 bcbb 3e3c 8abd c42f 66bc 5003 1ebe
00000050: 43a3 ae3d b09d 643c d244 533d 84e8 4cbc
00000060: 7f76 243d 7df0 5cbd 7b0e 9bbd dabd 81be
00000070: 115f 32bd 5663 c83c c799 1e3e fc10 4f3c
00000080: a53c 593e c6c9 273d ad62 b33c a29d 98bc
00000090: 67d7 8abd af3d a23b ea70 80bd 9c58 c83d
000000a0: 9e7a aa3d a7bf ad3b 6ee0 93bc f1f1 1abc
000000b0: 9cc7 9b3d dc07 7fbd d6de eebc 98bd c23b
000000c0: 7d41 06be ec73 003e c26d cfbc ff9a b23d
000000d0: 7371 c03d 4c27 0abd 6a9a 79bd 1b90 b23d
000000e0: d6ba 4dbd 99f1 58bd ba99 2abe 5d47 963d
000000f0: 6d7b 02bc 65da ba3d 0769 07be b4bc 4bbd
00000100: 454b 3c3e 7322 b13d 9612 9cbd e345 023c
00000110: c1e1 353d 6790 363e 3c9b a7bd 976e 433d
00000120: b706 b33d 3a5d c1bb e6bf 373d fc02 513e
00000130: 3d18 853b 3c67 883d ed18 11bd 4cc7 113d
00000140: 4417 1dbd 3a57 d3bc 1af5 9abd aaf1 1d3d
00000150: bc6e 783d 4838 8bbd f749 87bd 70fd c6bc
00000160: 35e7 61bd 5e2e a73c caf6 883d f9e7 85bd
00000170: 276a 213d 7960 92bd 6e79 d8bc 4a96 16bc
00000180: e09a 0e3d 9ce3 323d f6bb a43b fe0e 19bd
00000190: 1a0b 8fbd 959b 8b3e a51b 653d 5ed3 583c
000001a0: f0ec e2bc d152 673d 4228 443d 006f 2b3c
000001b0: 4db9 fb3b 9b87 54bc 0b85 05bd 3fc8 87bc
000001c0: 89b1 b83d 323f 8abb 91b7 92bb 8e54 3d3d
000001d0: 637a e93c 8a4f babd 45a0 863d 08b9 863c
000001e0: f575 76bd 05c6 21bd 50d1 b2bd 1d09 8dbc
000001f0: 91ae 6fbd bce6 263d d647 d13d 81d6 023d
00000200: 246a bbbb e935 233c ce68 9abd bdbc 60bc
00000210: 2fe5 14bc 210e afbc 96a0 753c cbc1 11be
00000220: f23e 253d 7726 b23d 0fb2 8d3c 367f ad3d
00000230: 1946 48bd 6840 e6bd 9993 883c c093 843d
00000240: e551 bc3d b9b6 c73d 36e3 823a 12e4 7f3d
00000250: 0cab aebc 4510 c83d df19 51bd 9095 c4bd
00000260: 0c67 403c 7331 dbbb 4b80 e93d 6fdf 473e
00000270: 273d 02bd 3673 2c3d 5c9e fabc 5a94 9b3d
00000280: 77f3 d73b da7e fabc da69 76bd dc78 063d
00000290: dbed ae3d 3a06 aebd 54a3 653a 4a3b 22bd
000002a0: 8665 9dbc c108 823c 3f72 533d c8f1 80bd
000002b0: 39b7 00bc 22a2 98bd d173 a73d dbb6 2ebd
000002c0: 38ad 423d bfe1 9abc efe4 c9bc 6b7b 173d
000002d0: a611 84bd 7b70 333d 4f05 7bbd 4cc5 1f3d
000002e0: 44c3 293d 7181 533d 2c32 1c3e 3e7f 883c
000002f0: 5774 d4bc 3d06 80bb 3f5a 233d 3f0b dc3d
00000300: bb8b 14be 176f 013e f36d 693d cb16 763d
00000310: b6d9 8c3d 2c12 abbe 4368 8ebd 4f04 803c
00000320: 26e3 98bd 08cc a1bd f7cb 713d e4ea 1fbe
00000330: 4e8f a7bc d515 af3b afda 853b 4f8e 75bd
00000340: 7f45 05bd 2ac8 42bc af22 d93d 7c0c 85bd
00000350: 5775 ac3b f505 763c d610 b63c 6b12 1fbd
00000360: 3d6e 3f3d c025 79bd ea9b 9cbd 8c38 ab3d
00000370: 49eb f0bb c33d b4bd 8ab4 d63c 74ae a43d
00000380: c765 e2bc 18d0 cb3c fc32 4a3d 64d5 9fbd
00000390: 25ce b8bd 128a e8bd 81db 973c 6d6f e8bd
000003a0: e871 5a3d c36d 953d 017f e1bd 84a3 693d
000003b0: ff06 02bd bb9d 043c a38a 0bbd cb83 303c
000003c0: ac44 a3bc 1f81 c4bd 5578 89bd b2b7 e2bd
000003d0: c618 3abd 07e5 273c 7c74 123d 76e6 3dbd
000003e0: 053c 8c3d d507 153d 42a1 233d 890c 083c
000003f0: 4443 8cbd 32ee 07be 016e 0bbe 49f8 49bd
0.0016528716 0.031106982 -0.06001336 0.018182203 0.010169376 0.07425149 -0.06533034 0.117801756
0.022445623 -0.09651946 0.076636486 -0.04041019 -0.04281585 0.083714016 0.070616454 -0.0035327047
-0.005739347 -0.067497715 -0.014049474 -0.15430951 0.085272335 0.013953611 0.051579304 -0.012506608
0.04015207 -0.053940285 -0.07571121 -0.25340158 -0.043547694 0.02446143 0.15488349 0.012638327
0.2121454 0.04096391 0.021897638 -0.018629853 -0.06779366 0.004951201 -0.06271537 0.09782526
0.083241686 0.0053023878 -0.018051352 -0.009457097 0.07606432 -0.062263355 -0.02915899 0.0059430115
-0.1311092 0.1254422 -0.025320891 0.087209694 0.09396639 -0.033728883 -0.060938276 0.08718892
-0.05022701 -0.05296478 -0.16660205 0.0733783 -0.007963997 0.09123687 -0.13223659 -0.04974051
0.18388088 0.08649149 -0.076207325 0.007951233 0.04440475 0.17828523 -0.081839055 0.04771289
0.08741515 -0.005901006 0.044860743 0.20411295 0.0040617273 0.066603154 -0.03542416 0.035590455
-0.038352266 -0.025798429 -0.07566281 0.038560547 0.06065248 -0.06797844 -0.066059045 -0.02429077
-0.055152137 0.020407852 0.06687696 -0.06538386 0.039407875 -0.07147307 -0.02642509 -0.009191105
0.03481567 0.043674096 0.0050272895 -0.037367813 -0.06984539 0.27267137 0.055934567 0.013233988
-0.027700871 0.056475464 0.047889955 0.010463476 0.0076820017 -0.012971784 -0.032597583 -0.016574977
0.09018237 -0.0042189592 -0.004477449 0.046223216 0.028500741 -0.09097202 0.06573538 0.016445652
-0.060171086 -0.039495487 -0.087313294 -0.01721626 -0.05851609 0.04074739 0.1021878 0.031942848
-0.00571944 0.009961584 -0.07539521 -0.013716874 -0.009087845 -0.021369042 0.0149919 -0.14234082
0.040343232 0.08698743 0.017296819 0.08471529 -0.048894975 -0.11242753 0.016671943 0.064734936
0.09195308 0.097516485 0.0009985927 0.062473364 -0.021321796 0.09768728 -0.051050063 -0.09598839
0.011743318 -0.0066892444 0.11401423 0.19518827 -0.0317966 0.04210206 -0.03059309 0.07596655
0.0065903026 -0.030578066 -0.06015954 0.032830104 0.08541461 -0.084972814 0.00087599945 -0.039607324
-0.01921345 0.015873315 0.051622625 -0.06296116 -0.007856184 -0.074527994 0.08176387 -0.042654853
0.047528476 -0.018906472 -0.024645297 0.036982935 -0.06448679 0.04380844 -0.06128436 0.039006516
0.041445985 0.051637117 0.15253514 0.016662236 -0.025934381 -0.0039069937 0.039880987 0.107443325
-0.14506428 0.12640034 0.05698962 0.06008033 0.068774626 -0.33412302 -0.0695348 0.015627054
-0.074652 -0.07900244 0.059032407 -0.15616947 -0.020454075 0.0053431788 0.004084907 -0.05995017
-0.03253698 -0.011888543 0.106023185 -0.06496522 0.0052630114 0.015016069 0.022224825 -0.038835924
0.04673599 -0.060827017 -0.07646926 0.08360395 -0.007352267 -0.088008426 0.026209135 0.08041087
-0.027636422 0.0248795 0.04936503 -0.07804373 -0.09023694 -0.1135446 0.018537285 -0.11349378
0.053331286 0.07296326 -0.11010552 0.057040706 -0.031744953 0.0080942465 -0.03406776 0.010773609
-0.019930206 -0.095949404 -0.06712405 -0.11070193 -0.045433782 0.0102474755 0.03575562 -0.046362363
0.06847385 0.036384422 0.03994871 0.00830377 -0.068487674 -0.13274458 -0.13616182 -0.04930905

network.4.bias f4 [128]
00000000: c1ba d53d 66a7 073d a11d 9f3d b121 8ebc
00000010: 9922 453d 3ae5 18bd 7dc9 aabc 5365 b53b
00000020: 9cd1 97bc f183 81bc 94db 48bd 2153 a1bb
00000030: 5332 513d bcad 9ebd 1afa 1cbd a03e 853c
00000040: 4843 a0bd cb2b 0bbe 3a7f d13c 38d3 30bb
00000050: b2a1 b8bd a12e b0bd 9fc0 bc3c ee5d b1bc
00000060: 0429 1a3d 5869 8a3b e19f 403d dd1d fb3c
00000070: 8929 9c3d 5f16 a73d a508 a4bc 8511 9d3d
00000080: f93f afbd bd30 b83c 252b d8bd 770b 583d
00000090: 5176 48bd bc58 7eba 6836 ac3d dda0 45bc
000000a0: 2903 cdbc 2d55 1abd 8621 3e3d a160 633d
000000b0: fac0 29bc 6fc4 0b3d b838 5bbd 3a4c 333d
000000c0: 561e 493d 126b 4abd d13d b83c 7a06 6a3b
000000d0: 2320 a43d 1a51 323d 6392 bdbc 8ef9 ac3c
000000e0: c9cb 88bd fc1c 6dbd dd01 3cbd 7034 a4bd
000000f0: 47ee 973c 1ffb e5bd 1b25 2bbd cdc2 a13d
00000100: cfb8 3ebd 7114 873c 9ab7 13bd bc03 d13d
00000110: ddf1 85bb f06f 8a3d f151 283b 8bbd 33bd
00000120: 6e93 2bbd 1158 9a3d 06b2 58bd a70c 883c
00000130: 7d68 36bd 3e58 85bd dade 14bd 61c3 913c
00000140: 765a 853d 3a34 b0bb 1ff0 8cbd 20b0 efbd
00000150: e7ad f53c 9d36 96bc 53c3 493d e098 57bc
00000160: 985d ecbd 3c71 293d 5f3d d43c ba75 90bd
00000170: 465d 933b 5ab8 a3bd f02e ddbb 18fb 90bd
00000180: 8a4a 66bd 8f68 a2bd 38f0 f63c 8d82 413d
00000190: 554d 73bd ec18 dbbd bdd6 a33d aef6 b13d
000001a0: c375 a5bb 80ab 8bbd a59e b9bd cde0 a23d
000001b0: 4429 1cbc c371 8e3d 848b bfbd 441e a73d
000001c0: 1ee1 313c e187 b9bd 4075 7d3d b690 0ebd
000001d0: 7ac6 2bbd 0f7c b23d 440d d5bd c52a 8f3b
000001e0: d0f1 8f3c 7949 863d 8f90 213d a621 ccbc
000001f0: 1f20 063d a877 08bd d2c7 0a3d 1280 12bc
0.10436011 0.033118628 0.07769323 -0.01735005 0.048128698 -0.037327982 -0.02084803 0.0055357604
-0.018532567 -0.015809985 -0.04903753 -0.00492324 0.051073384 -0.07747981 -0.038324453 0.016265213
-0.07825333 -0.13590924 0.025573362 -0.0026981365 -0.09015216 -0.08602644 0.023041068 -0.021651234
0.03763677 0.0042239837 0.047027472 0.030653888 0.0762511 0.08158564 -0.020023653 0.07669357
-0.08557124 0.022484178 -0.10555104 0.05274531 -0.04894096 -0.00097025535 0.08408815 -0.012062279
-0.025025921 -0.037678886 0.04641869 0.055512074 -0.010360951 0.03412288 -0.053520888 0.043773867
0.049101196 -0.049418516 0.022490414 0.0035709427 0.08013942 0.043534376 -0.023141092 0.02111509
-0.06679494 -0.05788897 -0.045900214 -0.08017814 0.018546237 -0.11229538 -0.041783433 0.078984834
-0.046562966 0.01648924 -0.036063768 0.102057904 -0.0040876702 0.06759632 0.0025683607 -0.043881934
-0.041888647 0.075363286 -0.05290415 0.016607596 -0.04453324 -0.065109715 -0.03634534 0.01779336
0.06511395 -0.0053773196 -0.06881737 -0.11703515 0.02999015 -0.018336589 0.04925854 -0.013159007
-0.11541289 0.041367754 0.02590817 -0.070537046 0.004497203 -0.07994147 -0.00674998 -0.07079142
-0.05622343 -0.07930099 0.030143842 0.047243644 -0.05939992 -0.10698113 0.079999425 0.086896285
-0.0050494387 -0.068198204 -0.09063462 0.079530336 -0.009531323 0.06955292 -0.09352782 0.081600696
0.010856895 -0.0905912 0.061879396 -0.034805976 -0.04193733 0.087150685 -0.10402921 0.004369112
0.01757136 0.065569825 0.039444502 -0.024918389 0.032745477 -0.033317238 0.03388197 -0.008941667

network.6.weight f4 [128, 128]
00000000: c6a9 abbc edb1 c23d 84de c73d a565 9bbc
00000010: 51c3 9ebb 6920 aa3d becd 253e bbf1 6aba
00000020: 3316 fcbb 167c 113e a6fd dbbd 3886 b73d
00000030: 7cfb 123d 3a10 b2bc 3571 363d 6487 c4bd
00000040: 2e41 b53d 4c99 083d eb8b 253d 0174 49bd
00000050: e915 02bd 28e0 ecbd 87fc 223d f57e 833d
00000060: 7c3b b0bd 8ef9 293c 4649 b4bd 33ac 5dbd
00000070: fb8e b73c 3c98 e73c c2d7 9d3c bcd8 363e
00000080: 0a58 b0bc 01ac 6a3d 68c4 503d d677 64bd
00000090: 1cdb 5c3d f614 94bc 4b6a d6bb c323 9f3d
000000a0: aead efbc 62b7 cbbd 8d81 02be e93e 023d
000000b0: b82a 063e cd5c 10bd 6603 b23d 9038 813d
000000c0: 50b8 cd3d fa5c 80bc ee65 273d c403 ec3d
000000d0: 6427 223c e9f1 c53a 0d46 bcbc 18fa 19bd
000000e0: 3914 2ebc 3e93 ba3d d405 a73d 4708 f6bd
000000f0: 9c35 73bd b078 20bd 9b21 5bbc f1c0 44bd
00000100: f99c ce3d 8a90 cabd e8fe 1e3d 2b95 0fbd
00000110: 18e2 e3bd bf7d adbc d474 ef3d 2421 80bd
00000120: 1de2 153c 11f9 a53d a8d1 8e3d 56c1 48bd
00000130: fba3 913d f067 e73d 30be c3bc 4211 a5bd
00000140: 7902 b33d 6403 5a3d 17fc 863d 8853 e03c
00000150: 62ed 5abb cc0f 603d f2e6 c9bc c643 833d
00000160: ee1b 82bc 3d60 15bd 3434 babd 546e 833c
00000170: 6bdf dc3b f35b d1bd 5dbe f23d 2e34 09bd
00000180: fc40 b43d d35b 9bbd ed99 03be bbc8 d33c
00000190: c43a 403d 9230 fcbd c268 95bd 5051 ca3d
000001a0: c8f4 553d 169f 6dba 25f2 8c3d d6cb 0e3d
000001b0: fe89 403d a66a e2bc 3c86 5f3b 7c73 5e3d
000001c0: c298 14bd ced6 7ebd 769e 443d b771 39bd
000001d0: 5d29 96bd 6588 a13c e8d9 c0bc 297e 903d
000001e0: 112a 033d 3a7b 293d 6117 063e b85c e8bb
000001f0: 0428 e2bb 65c3 243e 1367 52bd b296 753d
00000200: eab3 29be 7d23 b2bb fd0f 153d 6cc2 6cbd
00000210: 27a9 e73c 5e33 babd 4cdb aa3d c870 b1bd
00000220: 9064 fabc 001c 083e 1583 e9bc b782 e33d
00000230: 9f97 76bc 2607 103d 6708 313d 3590 763d
00000240: 86f5 cd3c e39e 25bb b233 aa3d b3af 21bd
00000250: 57aa e6bd e929 17be e46a 103d 4be0 793c
00000260: a751 a23d e9ae 843c 161c f2b9 8f5c bd3c
00000270: cd05 0dbd 5344 c73b 5ee5 0dbd e94d 7a3d
00000280: c3e6 acbd 96ec 1b3d fd81 eabd b817 9bbc
00000290: 6154 e4bd 7b79 143d 2d71 52bc 273b 85bd
000002a0: 686c 1fbe 9b08 97bd bc4a dd3b b400 063e
000002b0: 9476 d13d 5541 8c3d b050 24bc dec0 f2bd
000002c0: f670 bb3d c1ab b8bd 3566 823b 5287 483d
000002d0: 06c8 b73d 3319 3dbd 3e0b 67bc fb13 9ebd
000002e0: f61a dbbd 3b32 bcbb 2a61 0bbe 9512 afbd
000002f0: 550c 8a3d a0f1 0f3d e8be 3fbd d275 b83a
00000300: 3d4a 313d 006b 94bc 7add a33d 904c d13d
00000310: a180 7c3c 602f abbd 7410 f63c 8346 d7bc
00000320: 64b0 ac3c cce9 10bd 77d4 c43d c622 1ebe
00000330: 17e4 773c fc01 bb3d 0ed7 89bd 5706 55bd
00000340: a64d 043e 7e3b ce3c db08 883d 17e5 ee3d
00000350: 172f 06bd 8de2 063e 7dfe 863d 0123 533d
00000360: 1e74 04be 4b8d 58bd eaa0 88bc 3ede 7f3d
00000370: 32d5 473d bdaf 78bc 37b6 dd3d 2bde a9bb
00000380: 604a 8f3d ebcd 83bd d7fe a0bd 8888 993d
00000390: 122a 993d 5bc4 87bd ffde 88bd 13a5 133e
000003a0: 78d6 1d3d b7e9 a4bd ae8b 543c 46bb 0b3d
000003b0: c9b8 9f3d 4067 14bc 6b13 88bc 542b e23d
000003c0: de93 11bc 28f8 aabd 0a3a 213e 4f65 883c
000003d0: 09b8 0a3c f1da a9bd caf8 b13b aee7 d1bc
000003e0: 6884 8bbd 3c97 5d3d fd31 5dbb e08e eb3d
000003f0: 4cdf acbd 121f ff3d 0a38 a9bd 0310 af3d
-0.020954978 0.09506593 0.09759238 -0.018969366 -0.004845061 0.08306963 0.16191766 -0.0008962412
-0.007693076 0.14207491 -0.10741739 0.08961147 0.035884365 -0.021736253 0.044541556 -0.09596136
0.08850323 0.03334932 0.04041664 -0.049182896 -0.031759176 -0.11566192 0.03979161 0.064206995
-0.08605096 0.01037444 -0.08803038 -0.0541193 0.022407046 0.028270833 0.01926792 0.17856115
-0.021526355 0.057292942 0.050968558 -0.055778347 0.053919896 -0.018076401 -0.006543433 0.07770493
-0.029257622 -0.09947087 -0.12744732 0.031798277 0.13102233 -0.03524475 0.086920545 0.063096166
0.100449204 -0.015669335 0.040868692 0.11524156 0.009897087 0.0015102002 -0.022982622 -0.037592024
-0.010624939 0.091101155 0.081554085 -0.120132975 -0.059377298 -0.039177597 -0.013374711 -0.048035566
0.10088534 -0.0989085 0.038817316 -0.035054367 -0.11127108 -0.021178124 0.11692205 -0.06256321
0.009148148 0.08104146 0.069735825 -0.049012505 0.07111355 0.112991214 -0.0238944 -0.08059932
0.08740706 0.05322589 0.06591051 0.02738358 -0.0033405651 0.054702565 -0.024646256 0.06409411
-0.015882459 -0.036468733 -0.09091988 0.01604382 0.0067405007 -0.10222616 0.11852715 -0.033497028
0.08801457 -0.075858735 -0.12851687 0.025852552 0.046931043 -0.123139516 -0.072953716 0.098787904
0.052235395 -0.0009064538 0.06882123 0.03486236 0.0470066 -0.027638745 0.003410711 0.054309353
-0.036278494 -0.062216572 0.048002683 -0.045274463 -0.07332108 0.019718358 -0.023541406 0.07055313
0.03202254 0.041377284 0.13094856 -0.007091131 -0.006901743 0.16090162 -0.05136783 0.059958167
-0.16572538 -0.0054363594 0.0363922 -0.057802603 0.0282789 -0.09091829 0.08342609 -0.086640894
-0.03056553 0.13291931 -0.028504888 0.11108916 -0.015050798 0.035163067 0.043220904 0.06019612
0.025141489 -0.0025271706 0.08310641 -0.0394742 -0.112629585 -0.14762081 0.03525819 0.0152512295
0.0792573 0.016196685 -0.00046178763 0.023115424 -0.03442936 0.006081143 -0.03464257 0.061109457
-0.08442452 0.038067423 -0.114505745 -0.018932208 -0.111489065 0.036248665 -0.012844366 -0.06505423
-0.15568697 -0.07374688 0.006753294 0.13086206 0.10227695 0.068483986 -0.010029003 -0.11853193
0.09152405 -0.090171345 0.003979469 0.048957177 0.08973698 -0.04616661 -0.014101801 -0.07718655
-0.10698502 -0.0057432926 -0.13611284 -0.08548466 0.067406334 0.03514254 -0.04681292 0.0014073199
0.04328369 -0.018117428 0.08001228 0.10219681 0.015411527 -0.083586454 0.030037142 -0.02627874
0.021080203 -0.035379216 0.09610837 -0.15442953 0.015130064 0.09131238 -0.067304716 -0.052008
0.12920246 0.025174852 0.06642314 0.11664789 -0.032759752 0.1317236 0.065915085 0.051547054
-0.1293492 -0.052869122 -0.016678292 0.062467806 0.048787303 -0.015178618 0.1082577 -0.005183955
0.06996608 -0.0643576 -0.07861107 0.074967444 0.074787274 -0.06629249 -0.06683158 0.1441844
0.03853461 -0.0805239 0.012972755 0.034114145 0.07798917 -0.00905782 -0.016610822 0.110434204
-0.008885352 -0.08348113 0.15744796 0.01664987 0.008466729 -0.08293713 0.0054312693 -0.025623169
-0.06812364 0.054099306 -0.003375172 0.115018606 -0.08441028 0.12457098 -0.08262642 0.08547976

network.6.bias f4 [128]
00000000: 5bd4 fdbb 5f8f 01bd ab71 a53d 565a 4abd
00000010: 732c d2bd 0339 e83d c4a7 92b9 7751 f43c
00000020: 7427 ddbd 6643 663d 194a 7fbd d88f 0a3c
00000030: 8ace 583d c2db 58bd 6a9e 3fbc 9df1 54bb
00000040: 1d14 c4bd 5223 81bd 28d8 d43d 9ee8 00bc
00000050: 26da 1b3d 6c30 0d3d 3dc2 84bd 9375 2b3d
00000060: d6d5 a13d 11d6 9bbd 9ccd 25bd 28d1 323d
00000070: 54fe cbbd 2e1b 8bbd 692e a6bd a91e 4cbd
00000080: 8436 953d 0c31 7b3c 192b be3d 8b55 b43d
00000090: f855 afbd c16d 44bd 8ad1 2fbd 03ce 103c
000000a0: 30ea a23c e3ec 413d 37d4 6bbd 84d0 e33c
000000b0: 73f1 be3c 1941 5dbc cdec 4fbd 8af2 1cbd
000000c0: b9b7 5f3d 6e11 7abd 4a59 343d 465c 3c3d
000000d0: 3459 c1bd 3e72 c33d 1653 ad3d 2c53 a13d
000000e0: 8d8f 0dbb a0a0 b6bd 48fe 59bd d8ca 4dbd
000000f0: b0be d3bd 0806 b5bd 5b7e 933d 0aa8 1b3c
00000100: 6c6d a3bc e75b 65bd 0c5b adbc b685 6c3d
00000110: b96e 63bd 041b 2b3d f33d bfbd eff8 933c
00000120: 2df9 9a3d a3be e03d 1af5 cdbc 5bd0 1d3d
00000130: 15cf d03b 2728 913d c74f 7f3d 6a59 913d
00000140: 0984 7c3d 36dd 70bd 84fd 43bd 1299 c3bd
00000150: 1aa0 8f3c b79f 243d 57c8 a63d adb4 043d
00000160: d624 813d 8ba6 833d d429 88bd 5989 1d3d
00000170: 53f7 84bd 78de c13d a6fc 813d c12b e93c
00000180: c188 933d fdc6 2cbc bc85 bdbd d471 d3bd
00000190: 42f2 90bd e18b 883d 78a4 8a3d 81e2 36bd
000001a0: 4efa aebc 21be b43c e8c7 5fbd 1ae3 8fbd
000001b0: 3624 e73d 543a 073d 95f6 1c3d 52a6 ffbb
000001c0: 2791 ac3c d6e1 f03c 59c2 1b3d 8996 3e3d
000001d0: 9d5c 4f3d b3b2 fd3c 89e4 28bd fe7f adbd
000001e0: 166b 42bd 8350 083d d8f1 8d3d 8ba2 a83d
000001f0: 1751 ecbd 85e6 bb3d 56fa 1e3d af8e 2fbd
-0.007746262 -0.03163087 0.08078321 -0.049402557 -0.10262384 0.11338999 -0.00027972285 0.029824002
-0.10798541 0.05621662 -0.062326524 0.008457147 0.052931346 -0.052943952 -0.011695484 -0.0032492646
-0.09574149 -0.06305565 0.10392791 -0.00786796 0.03804984 0.034470007 -0.064823605 0.041860174
0.07902114 -0.07609189 -0.040479288 0.0436565 -0.099606186 -0.067922935 -0.08114321 -0.049833927
0.07285789 0.015331518 0.09285564 0.088053785 -0.08561319 -0.047956232 -0.04292444 0.0088381795
0.01988706 0.047345053 -0.05757543 0.027809389 0.023308491 -0.01350429 -0.05076294 -0.03831724
0.05461857 -0.06105178 0.044030465 0.045986436 -0.09440842 0.09543274 0.08463113 0.07877192
-0.0021600456 -0.089173555 -0.053221017 -0.050242275 -0.10339105 -0.08839041 0.07201835 0.009500513
-0.019949637 -0.055995848 -0.021161579 0.057744704 -0.055525515 0.04177381 -0.09337988 0.018063037
0.07567058 0.10973861 -0.025141288 0.03852878 0.0063723424 0.070877366 0.06233194 0.070971325
0.061649356 -0.058804713 -0.047849193 -0.0955068 0.017532397 0.04019138 0.081436805 0.03239887
0.06305854 0.0642825 -0.06648603 0.038461063 -0.06492486 0.09466261 0.06347017 0.028463246
0.07203818 -0.010545489 -0.092540234 -0.10324445 -0.07077457 0.06667305 0.06769651 -0.044649605
-0.021359589 0.022063317 -0.054634005 -0.07025738 0.112862036 0.03301461 0.038321096 -0.0078018093
0.021065308 0.029404562 0.03802714 0.04653028 0.050625432 0.030969 -0.041233573 -0.08471678
-0.047465406 0.033279907 0.06930894 0.082341276 -0.11538904 0.091748275 0.038812958 -0.042860683

network.8.weight f4 [2, 128]
00000000: 29c7 853a d362 d63d 65d8 f43d 9d8b c63d
00000010: 16ec b33d 2270 c33d 3ead 113d b88c 22be
00000020: e760 e0bc c4fe db3c 1dc5 913c 1410 573c
00000030: 68b6 5a3e d6f7 943b c6ca 1b3e 26c1 7ebd
00000040: df10 bebc de83 44bb d807 563e b10d 00be
00000050: fa45 29be 138c 253e a3fd 5fbd eb20 2abe
00000060: 8a73 eb3d a6d3 24bb 9784 98bd ddd3 eabd
00000070: 51a5 e2ba 92f6 0bbe 75ac f63d fffd 2e3e
00000080: 27b4 e9bd e35a 94bd 937d 093e 9e0f 073e
00000090: 72d3 a8bd 2cb5 c83d 7c4c 21be 0f7a 0e3e
000000a0: 1ced 093c 6252 c23d 3679 993d fd01 b4bd
000000b0: ec05 ff3d 1aaa 3abe 89c9 053e 1130 a03e
000000c0: a817 cbbd 9819 9dbd e1dd 4bbe 57d3 333e
000000d0: 5e38 3f3d 2f7c 353e d372 40be 2eaa 01be
000000e0: 38e0 fd3d dace c0bd 0f40 34be 6e6a 393e
000000f0: f2bb 83bd ae9a 67bd c62a 863d 5c00 2dbe
00000100: c600 8f3c 0efd 84bd d1d6 6e3d 7339 e6bd
00000110: 4d0a 3ebe 7de7 0a3e 8405 eebd 0313 3c3e
00000120: 9510 453e 8472 423e 0ad0 ce3d 97df 203e
00000130: 1ff8 4e3e f071 e43d 8ed1 033d 6836 6f3d
00000140: 1f3a 31be 55f5 b33d 1072 11be 3e24 f7bd
00000150: 4ccc 1d3e 8e95 c83d 31bf e7bd b3d2 4dbe
00000160: 9292 003e cc9f ffbd d85a bd3c 0f00 6abd
00000170: cecf 6f3b e63b 3fbe 317d 33be 10cf 4ebe
00000180: f9e5 613e df50 bf3d 3d91 063c 7df9 bfbd
00000190: a050 b2bd 0d57 33bc 2f06 d9bd a78e 13be
000001a0: d3ec bb3d 7bff 2f3e cec7 b63d b9c3 19bc
000001b0: c663 d33d 1c6a 5ebe f736 e73c 0557 6cbe
000001c0: 2707 d5bd a1a7 063e 2275 773d 37cf 6bbe
000001d0: c8d8 ee3c 70ee 87bd 47e7 e73d aa98 733d
000001e0: e892 bb3d 7581 ab3c 0929 31be e181 513e
000001f0: 5a3b 06bd 437b 3abe 38a2 2bbe d4fb 093e
00000200: c5ce 723e c46e 443e 9fb2 0fbe 7501 e53d
00000210: 39ca 92bd 5307 583e 19d0 d5bd 3843 723e
00000220: 0763 42bd 7c90 9abc c57f 44bd 4140 063e
00000230: 12c3 743b dc90 a0bd 7233 35bd 82e3 89be
00000240: 5b6b 523d 06b4 fc3c 6e4d be3d 0350 653d
00000250: f35e 073e 07c0 da3d ed75 3dbe f6ce fabd
00000260: edf3 8fbd 100e 1abe 5db1 d83d 2f08 a9bd
00000270: e36e 6d3d 8bb3 1cbe 1473 8d3d 18ae 49be
00000280: ac11 cdbd d3dc 2fbe 811e 79bd c32a 71be
00000290: 8459 babd 4dac 813d f7bf d1ba e859 c0bd
000002a0: 27de 3ebe e962 0d3e e454 8e3d 2335 ed3d
000002b0: c809 3fbe 5fd6 c8bd 2f9d 113e c39a ddbd
000002c0: 3042 f63d a991 ffbd cc98 80bc 18b0 68bd
000002d0: 2d25 6cbd cc7d 33be 2bf8 85bc 92b8 43be
000002e0: d2db 4e3e 5ff4 02be 0be9 89bd f094 f03d
000002f0: 0d37 af3c d154 4e3d 3032 693e fc05 2ebe
00000300: 94b9 4abb 8a0c a5ba 9da1 15be 3385 c6bd
00000310: 5d7c bc3d 6f8c 19be 2e38 33bd e297 f93a
00000320: 5140 1dbd be2d 55be 0896 643c 6e0d 143e
00000330: f840 323d 7bc1 56be ee10 473e f21a 503e
00000340: c122 53bc 583d eebd 01c0 29be 1232 1d3e
00000350: eb01 eebd c1d5 31be 7bc5 36be 8c54 fdbd
00000360: 8696 063e 3373 99bd ab17 fcbc 1780 2b3d
00000370: dd64 b83d 3177 c9bd a201 6f3d 7fca 0a3e
00000380: 205b c2bc 6fb4 1bbe 77fe 74bd 9221 1f3e
00000390: 6814 6abc 4ca8 643e 1bb8 d83d 73d6 59bd
000003a0: 1931 2dbe 4ab5 bebd 8e02 923e 1a16 40bc
000003b0: 4083 4d3e 79a9 b93c de59 463e 4bbe 82bc
000003c0: 6096 b5bd 4e57 613c c738 dabd d2c2 12be
000003d0: a456 4e3e 44b6 2fbe 951a 023e 25f5 023d
000003e0: a7ff b3bd 0154 313e e2e8 e53d 6309 2e3d
000003f0: 62d4 4e3c e076 8aba a551 333e 7188 553e
0.0010206449 0.10468068 0.119553365 0.09694598 0.08785264 0.09542872 0.035565607 -0.15873992
-0.027389957 0.02685488 0.017794186 0.013126392 0.21358645 0.004546146 0.1521407 -0.06219592
-0.023201404 -0.0029985826 0.2090143 -0.12505223 -0.165306 0.16166715 -0.054685246 -0.1661412
0.11496647 -0.0025150566 -0.074471645 -0.11466191 -0.00172917 -0.13668278 0.12044612 0.1708908
-0.114113145 -0.07243898 0.13426809 0.13189551 -0.08243455 0.09800181 -0.15751833 0.13913749
0.008418348 0.094883695 0.07493822 -0.08789442 0.124523014 -0.18228951 0.13065161 0.31286672
-0.099166214 -0.07670897 -0.19908859 0.17561089 0.046684615 0.17723154 -0.18793802 -0.12662575
0.12396282 -0.09414454 -0.17602561 0.18107006 -0.06432332 -0.056544 0.06551127 -0.16894668
0.017456423 -0.06493579 0.058310334 -0.11241426 -0.18558617 0.13564868 -0.11622146 0.18366627
0.19244607 0.18988997 0.10098274 0.15710293 0.20211838 0.11154544 0.03218227 0.058401495
-0.17307328 0.08787028 -0.14203668 -0.120674595 0.15409964 0.0979415 -0.11315764 -0.20099907
0.12555912 -0.12481651 0.023114607 -0.057128962 0.0036592367 -0.18675193 -0.17528225 -0.20196176
0.22060384 0.09341597 0.008213338 -0.09373758 -0.08706784 -0.0109460475 -0.105968826 -0.14409886
0.0917603 0.17187302 0.089248285 -0.009385043 0.10321765 -0.21720165 0.028224451 -0.2308007
-0.10401755 0.13149883 0.06041444 -0.23028265 0.029156104 -0.06637275 0.113234095 0.059471764
0.091588795 0.020935753 -0.1730081 0.20459701 -0.032771446 -0.18211083 -0.167611 0.13474971
0.23711689 0.19182879 -0.14032982 0.111819185 -0.07167477 0.21096544 -0.10440082 0.23658454
-0.04745772 -0.018867724 -0.047973413 0.13110448 0.0037347716 -0.0784013 -0.044238515 -0.26931387
0.051371913 0.03084756 0.09292112 0.05598451 0.13219814 0.106811576 -0.18502016 -0.12246506
-0.07028947 -0.15044427 0.10580704 -0.08253514 0.057967078 -0.15302865 0.06906715 -0.19695318
-0.10013136 -0.17174082 -0.060820106 -0.23551469 -0.09099105 0.06331692 -0.0016002645 -0.09392148
-0.18639432 0.13807262 0.06949785 0.11582401 -0.18656075 -0.09806513 0.14220117 -0.10820534
0.12024343 -0.12478954 -0.01569786 -0.05680856 -0.05765264 -0.17528456 -0.016353687 -0.19113377
0.20201042 -0.12788533 -0.067339025 0.117471576 0.021388555 0.050373856 0.22773051 -0.1699447
-0.0030933367 -0.0012592238 -0.14612432 -0.096933745 0.09203408 -0.14994977 -0.04375475 0.0019042457
-0.038391415 -0.2081823 0.013951786 0.14458248 0.04351899 -0.20972244 0.19440052 0.20322779
-0.012886704 -0.11632794 -0.1657715 0.15351132 -0.116214596 -0.17366697 -0.1784877 -0.12369642
0.13143358 -0.07492676 -0.030773005 0.041870203 0.09003613 -0.09837187 0.058351167 0.13553809
-0.023725092 -0.15205549 -0.05981299 0.1554015 -0.014287092 0.22329825 0.1058199 -0.05318303
-0.1691326 -0.09311922 0.28517574 -0.011724019 0.20069599 0.022663819 0.19370219 -0.01595988
-0.088665724 0.013753725 -0.10655361 -0.1433213 0.20150238 -0.17159373 0.12705453 0.03197207
-0.08788996 0.17317201 0.112260595 0.04248942 0.012623878 -0.0010563992 0.17511614 0.2085283

network.8.bias f4 [2]
00000000: f0eb 7fbc 7f76 d33c
-0.015620217 0.02581334

network.0.weight f4 [128, 10]
00000000: 71a7 babe 72fd 5dbe 4442 813e 74e2 5bbd
00000010: 390f 983e e447 8abe a330 bb3c cac6 a1bd
00000020: 63b2 2dbe 5606 f0bd f701 4f3d 5984 253e
00000030: ed70 b7bc ab0a e1bd 2ad5 8ebe ddca b0be
00000040: 0102 823d ef8f d63e 4ab7 9ebe 84de 0ebe
00000050: 29f0 3f3e e721 a3be 3afe ac3e 16c8 a5be
00000060: 3576 e33e cb90 83be bb3e bebc 7ff5 5cbe
00000070: 8c45 363d 4b76 7bbe 9f67 b8bd eb21 07bc
00000080: 9a6f c3bd ce0e d93d 1576 1c3d bf13 c23c
00000090: 76ae a3bb 000e 323f 7ae0 a0bd 70a7 013d
000000a0: f407 abbe 8f45 18be 2eec 9abe 6cd7 6bbe
000000b0: c4bd cfbe 08e0 38be 936b 05be 2588 c8be
000000c0: 905a bc3e 9676 90bc a45c 073e a307 28bf
000000d0: 96af 88bd 7330 64be a2f0 9dbe 37b0 26be
000000e0: d38d 7ebe 5a7d 64bc 4254 663e 4ad1 593e
000000f0: 2090 01be adfd e83e f3fd 02be 283a a03e
00000100: de94 bebe 0a00 2abe 635e ffbd 1c9e 31be
00000110: 2ccb 183e 5a61 b9bd 7a57 a83d 8e07 f1bd
00000120: c400 d13d acf4 033e 5521 dd3e 07e4 d13d
00000130: fb5a adbd b5b0 f53e 724c 29be e7c5 81be
00000140: e45e d63d 02f5 30be 85b4 f9bc 8a85 12be
00000150: 1922 d2be c663 cc3d 85dc ff3c 7fef c6bd
00000160: 2675 05bc 1be1 cd3d 1517 51be ecb7 3fbe
00000170: dd83 3dbd 8197 6cbc 59af a23e dade 7d3e
00000180: 94a8 76bc 0c43 803e ed79 2f3e 57ff 4a3e
00000190: c64d b13e e9f9 e83e ece4 fc3d 3088 c03c
000001a0: b135 0dbf f173 9bbd 3ad9 dcbd df22 1fbd
000001b0: ddf4 f73d 3289 3c3e 8e6f b83c 93f0 c53e
000001c0: c6a4 67bc 1891 3a3e 59d6 9bbe a092 c9be
000001d0: c9e8 173d 4e85 19be cb7a 17be 1c0c 8c3e
000001e0: 4092 dc3c 526f eb3d 4fd3 033e a5af 1abc
000001f0: 19c5 c2bd e5c7 f2bd 8dc3 773c dc3f 20bf
00000200: 4413 98be 9e28 debe d8c8 21bf a5f7 06be
00000210: 7942 19bc 5cc5 f1bd ef2f a3bd 30dc 983d
00000220: 60f3 b13d 6796 85be 28b1 3ebe 29aa 163c
00000230: d274 92be 808b a23e f824 c0be 4bd9 c73d
00000240: fd20 18be cda9 83be 3971 85bd 4527 c53d
00000250: 673f 0fbe 1d75 e73d 8d9c 4d3f 180f ecbd
00000260: ed1a 4b3e dabe 023d 293e 2e3d 3dc5 a53d
00000270: e97b 0c3c e1f7 80be 8e33 b93d 042f 85bd
00000280: 6e93 203e 8bfd 39be 1860 aabd 4a42 e93d
00000290: 6429 02bd fabc b4be c10a d7bd 78f0 fe3d
000002a0: 8ee7 eabe d5aa b2bd 7cce ddbd 6472 dbbe
000002b0: e3f7 7b3e 074f 763d 712c 503e 0d9d 04be
000002c0: ae87 61bd 08b8 21be 68ac 443e a352 c0bd
000002d0: eb0a 363e a5e3 96be 7461 30be 32cb 36be
000002e0: ec61 a1be 05ec 7f3e 9480 13be 6bf1 f7bd
000002f0: 72e2 573d 0faa af3c 4153 0a3d a8ec 003f
00000300: 0c16 1b3d ee16 c9bd aa5e 823e 30dd adb9
00000310: 7dd4 333c 6eb7 04be 7d2e b6be 52e2 bf3d
00000320: 8ff4 bc3e 30e6 d03e cc0a 913e adab 1a3c
00000330: b71e 0ebf 206b 44be 3478 873c ff22 a8bd
00000340: 12a3 b2be b9a2 9b3d e1fb d7bd c189 ab3e
00000350: ad7d c43d c84f fa3c f807 e3be 12c3 d83d
00000360: 92ab 2f3d 6ab1 80be 7634 d33d cea0 8fbe
00000370: 610a 03bf 7df6 bebe 4f9f a3be e945 533e
00000380: 8bea a13e 4889 083e 9915 88bb 35fb 853e
00000390: 7dec 9a3e c024 35be c7cc cabb 6d0e 31be
000003a0: 8c5f d73c 41c2 053d daac 7f3e d54b 203e
000003b0: a744 113c 1cf2 153f f20c 03be 4163 bd3d
000003c0: 0825 fd3d bd69 943b 5594 763e 0b42 babd
000003d0: 412a a73e 8d42 893e 4b0b 993d 5674 313f
000003e0: 8a5a 82bd 95a6 20be 0481 3c3e b927 8e3e
000003f0: 0d5d 0a3e ce4e 453d 74c7 173e 3fca fe3d
-0.36455873 -0.21678713 0.2524587 -0.05368276 0.29699114 -0.27007973 0.02285034 -0.07899244
-0.1696258 -0.117199585 0.050538983 0.16163768 -0.022392714 -0.10988363 -0.27897006 -0.34529772
0.063480385 0.41906688 -0.30999213 -0.1395207 0.18743958 -0.31861803 0.3378771 -0.32379216
0.44426122 -0.25696406 -0.023223272 -0.21578024 0.04449992 -0.24556844 -0.09004139 -0.008247833
-0.09542771 0.10598527 0.03819855 0.023691056 -0.0049951626 0.6955261 -0.078553155 0.03165382
-0.33404505 -0.14870284 -0.30258316 -0.23031396 -0.40574467 -0.18054211 -0.13029318 -0.3916637
0.36787844 -0.017634671 0.13218933 -0.6563665 -0.06674115 -0.22284107 -0.3084765 -0.16278158
-0.24858789 -0.013945902 0.2249308 0.21271244 -0.12652636 0.4550604 -0.12792186 0.3129437
-0.37222952 -0.16601577 -0.12469175 -0.1734547 0.14921254 -0.090517715 0.0821981 -0.11769019
0.10205224 0.12886304 0.43189493 0.10248571 -0.08464619 0.4798638 -0.16533068 -0.253463
0.10467318 -0.17280963 -0.030481586 -0.14308754 -0.4104164 0.09979968 0.031233082 -0.09713649
-0.008145606 0.10052701 -0.20418961 -0.18722504 -0.046268333 -0.014440418 0.31774405 0.24792042
-0.015054841 0.25051153 0.17136355 0.19823967 0.3462965 0.45503166 0.12348351 0.02350244
-0.5516005 -0.075904734 -0.1078362 -0.038851615 0.12107251 0.18411711 0.02251413 0.38660106
-0.014138406 0.18219411 -0.30436972 -0.39369678 0.037087236 -0.14992258 -0.14792936 0.2735299
0.026925206 0.11495842 0.12873577 -0.009441291 -0.0951025 -0.11854533 0.0151223065 -0.6259744
-0.29702199 -0.43390363 -0.6319709 -0.13180406 -0.009354227 -0.118052214 -0.07968127 0.074638724
0.08688998 -0.2609131 -0.18622267 0.009195843 -0.28604752 0.31747055 -0.37528205 0.09758242
-0.14856334 -0.25715485 -0.06515736 0.09626631 -0.1398903 0.113016345 0.80317 -0.115263164
0.1983449 0.03192029 0.04253975 0.08094261 0.008574464 -0.25189117 0.090430364 -0.06503108
0.1568124 -0.18163125 -0.0831911 0.11389597 -0.031777754 -0.35300428 -0.10500098 0.124482095
-0.45879787 -0.0872399 -0.108303994 -0.4286071 0.2460628 0.06013396 0.20329453 -0.12950535
-0.055061035 -0.15792859 0.19206393 -0.09390762 0.17777602 -0.29470554 -0.17224675 -0.1785095
-0.3152002 0.24992378 -0.14404517 -0.12106594 0.05270619 0.021443395 0.033770803 0.5036111
0.037862822 -0.098188266 0.25462848 -0.0003316193 0.010975954 -0.12960598 -0.35582343 0.09369339
0.36905333 0.4080062 0.2832855 0.009440345 -0.5551562 -0.1918149 0.01653681 -0.082098
-0.34890038 0.07599396 -0.10546089 0.33503535 0.09594283 0.03055562 -0.44342017 0.10584082
0.04288823 -0.25135356 0.103127405 -0.28052372 -0.5118771 -0.3729743 -0.3195748 0.20632137
0.31624255 0.13333619 -0.0041529653 0.26168218 0.3025855 -0.176898 -0.006188962 -0.17290659
0.026290677 0.032655958 0.24968281 0.15653928 0.008866466 0.58572555 -0.12797907 0.09247447
0.12360579 0.0045292065 0.24080022 -0.09094628 0.32649425 0.26808587 0.07472857 0.6931814
-0.06364925 -0.15688546 0.1840859 0.2776468 0.13512059 0.048170857 0.14822179 0.12440919
